Importing finished!!
cuda is going to be used!!
Dataset loaded!!
----------------------------------------------------------------
        Layer (type)               Output Shape         Param #
================================================================
            Conv2d-1           [-1, 32, 16, 16]             320
       BatchNorm2d-2           [-1, 32, 16, 16]              64
              ReLU-3           [-1, 32, 16, 16]               0
            Conv2d-4           [-1, 32, 12, 12]          25,632
       BatchNorm2d-5           [-1, 32, 12, 12]              64
              ReLU-6           [-1, 32, 12, 12]               0
            Conv2d-7           [-1, 48, 12, 12]          13,872
       BatchNorm2d-8           [-1, 48, 12, 12]              96
              ReLU-9           [-1, 48, 12, 12]               0
           Conv2d-10             [-1, 96, 8, 8]          18,528
             ReLU-11             [-1, 96, 8, 8]               0
           Conv2d-12            [-1, 192, 6, 6]         166,080
             ReLU-13            [-1, 192, 6, 6]               0
  ConvTranspose2d-14             [-1, 96, 8, 8]         165,984
             ReLU-15             [-1, 96, 8, 8]               0
  ConvTranspose2d-16           [-1, 48, 12, 12]          18,480
             ReLU-17           [-1, 48, 12, 12]               0
  ConvTranspose2d-18            [-1, 1, 24, 24]             433
             Tanh-19            [-1, 1, 24, 24]               0
================================================================
Total params: 409,553
Trainable params: 40,048
Non-trainable params: 369,505
----------------------------------------------------------------
Input size (MB): 0.00
Forward/backward pass size (MB): 0.86
Params size (MB): 1.56
Estimated Total Size (MB): 2.42
----------------------------------------------------------------
None
Training started!!
…
