0
First Voltage reconstrcuction
Importing finished!!
cuda is going to be used!!
Dataset loaded!! Length (train dataset) - 6880
----------------------------------------------------------------
        Layer (type)               Output Shape         Param #
================================================================
            Conv2d-1              [-1, 8, 8, 8]              80
              ReLU-2              [-1, 8, 8, 8]               0
            Conv2d-3             [-1, 16, 6, 6]           1,168
              ReLU-4             [-1, 16, 6, 6]               0
            Conv2d-5             [-1, 24, 3, 3]           3,480
              ReLU-6             [-1, 24, 3, 3]               0
           Flatten-7                  [-1, 216]               0
         Unflatten-8             [-1, 24, 3, 3]               0
   ConvTranspose2d-9             [-1, 16, 6, 6]           3,472
             ReLU-10             [-1, 16, 6, 6]               0
  ConvTranspose2d-11              [-1, 8, 8, 8]           1,160
             ReLU-12              [-1, 8, 8, 8]               0
  ConvTranspose2d-13            [-1, 1, 16, 16]              73
================================================================
Total params: 9,433
Trainable params: 9,433
Non-trainable params: 0
----------------------------------------------------------------
Input size (MB): 0.00
Forward/backward pass size (MB): 0.04
Params size (MB): 0.04
Estimated Total Size (MB): 0.08
----------------------------------------------------------------
None
Task: VR_diffimg, Epoch:1, Loss:0.001285
…
