34.2
decoder_14.2_linearized
Importing finished!!
cuda is going to be used!!
Dataset loaded!!
----------------------------------------------------------------
        Layer (type)               Output Shape         Param #
================================================================
            Conv2d-1           [-1, 48, 12, 12]           1,248
              ReLU-2           [-1, 48, 12, 12]               0
           Flatten-3                 [-1, 6912]               0
            Linear-4                 [-1, 3888]      26,877,744
              ReLU-5                 [-1, 3888]               0
            Linear-6                  [-1, 432]       1,680,048
              ReLU-7                  [-1, 432]               0
            Linear-8                  [-1, 216]          93,528
              ReLU-9                  [-1, 216]               0
        Unflatten-10             [-1, 24, 3, 3]               0
  ConvTranspose2d-11            [-1, 192, 6, 6]          41,664
  ConvTranspose2d-12             [-1, 96, 8, 8]         165,984
             ReLU-13             [-1, 96, 8, 8]               0
  ConvTranspose2d-14           [-1, 48, 12, 12]          18,480
             ReLU-15           [-1, 48, 12, 12]               0
  ConvTranspose2d-16            [-1, 1, 24, 24]             433
             Tanh-17            [-1, 1, 24, 24]               0
================================================================
Total params: 28,879,129
Trainable params: 28,652,568
Non-trainable params: 226,561
----------------------------------------------------------------
Input size (MB): 0.00
Forward/backward pass size (MB): 0.49
Params size (MB): 110.17
Estimated Total Size (MB): 110.66
----------------------------------------------------------------
None
…
