Importing finished!!
cuda is going to be used!!
Dataset loaded!!
----------------------------------------------------------------
        Layer (type)               Output Shape         Param #
================================================================
            Conv2d-1           [-1, 32, 16, 16]             320
       BatchNorm2d-2           [-1, 32, 16, 16]              64
         LeakyReLU-3           [-1, 32, 16, 16]               0
            Conv2d-4           [-1, 32, 16, 16]           9,248
       BatchNorm2d-5           [-1, 32, 16, 16]              64
         LeakyReLU-6           [-1, 32, 16, 16]               0
            Conv2d-7           [-1, 32, 12, 12]          25,632
       BatchNorm2d-8           [-1, 32, 12, 12]              64
         LeakyReLU-9           [-1, 32, 12, 12]               0
           Conv2d-10           [-1, 32, 12, 12]           9,248
      BatchNorm2d-11           [-1, 32, 12, 12]              64
        LeakyReLU-12           [-1, 32, 12, 12]               0
           Conv2d-13           [-1, 48, 12, 12]          13,872
      BatchNorm2d-14           [-1, 48, 12, 12]              96
        LeakyReLU-15           [-1, 48, 12, 12]               0
           Conv2d-16             [-1, 96, 8, 8]          18,528
             ReLU-17             [-1, 96, 8, 8]               0
           Conv2d-18            [-1, 192, 6, 6]         166,080
             ReLU-19            [-1, 192, 6, 6]               0
  ConvTranspose2d-20             [-1, 96, 8, 8]         165,984
             ReLU-21             [-1, 96, 8, 8]               0
  ConvTranspose2d-22           [-1, 48, 12, 12]          18,480
             ReLU-23           [-1, 48, 12, 12]               0
  ConvTranspose2d-24            [-1, 1, 24, 24]             433
             Tanh-25            [-1, 1, 24, 24]               0
================================================================
Total params: 428,177
Trainable params: 58,672
Non-trainable params: 369,505
----------------------------------------------------------------
Input size (MB): 0.00
Forward/backward pass size (MB): 1.15
Params size (MB): 1.63
Estimated Total Size (MB): 2.79
----------------------------------------------------------------
None
Training started!!
…
