35
Reconstructor - reedited
Importing finished!!
cuda is going to be used!!
Dataset loaded!! Length (train dataset) - 6880
----------------------------------------------------------------
        Layer (type)               Output Shape         Param #
================================================================
           Flatten-1                  [-1, 256]               0
            Linear-2                  [-1, 576]         148,032
         Unflatten-3            [-1, 1, 24, 24]               0
            Conv2d-4           [-1, 32, 12, 12]             320
              ReLU-5           [-1, 32, 12, 12]               0
            Conv2d-6             [-1, 64, 6, 6]          18,496
              ReLU-7             [-1, 64, 6, 6]               0
            Conv2d-8            [-1, 128, 3, 3]          73,856
              ReLU-9            [-1, 128, 3, 3]               0
           Conv2d-10            [-1, 256, 1, 1]         131,328
             ReLU-11            [-1, 256, 1, 1]               0
          Flatten-12                  [-1, 256]               0
        Unflatten-13            [-1, 256, 1, 1]               0
  ConvTranspose2d-14            [-1, 128, 3, 3]         131,200
             ReLU-15            [-1, 128, 3, 3]               0
  ConvTranspose2d-16             [-1, 64, 6, 6]          73,792
             ReLU-17             [-1, 64, 6, 6]               0
  ConvTranspose2d-18           [-1, 32, 12, 12]          18,464
             ReLU-19           [-1, 32, 12, 12]               0
  ConvTranspose2d-20            [-1, 1, 24, 24]             289
================================================================
Total params: 595,777
Trainable params: 595,777
Non-trainable params: 0
----------------------------------------------------------------
Input size (MB): 0.00
Forward/backward pass size (MB): 0.27
Params size (MB): 2.27
Estimated Total Size (MB): 2.54
----------------------------------------------------------------
None
Task: diffimg, Epoch:1, Loss:0.000355
…
