33
31_wz_14.1
Importing finished!!
cuda is going to be used!!
Dataset loaded!!
----------------------------------------------------------------
        Layer (type)               Output Shape         Param #
================================================================
            Conv2d-1           [-1, 32, 16, 16]             320
              ReLU-2           [-1, 32, 16, 16]               0
            Conv2d-3           [-1, 48, 12, 12]          38,448
              ReLU-4           [-1, 48, 12, 12]               0
            Conv2d-5             [-1, 96, 8, 8]          18,528
              ReLU-6             [-1, 96, 8, 8]               0
            Conv2d-7            [-1, 192, 6, 6]         166,080
              ReLU-8            [-1, 192, 6, 6]               0
            Conv2d-9             [-1, 12, 3, 3]          20,748
             ReLU-10             [-1, 12, 3, 3]               0
          Flatten-11                  [-1, 108]               0
        Unflatten-12             [-1, 12, 3, 3]               0
  ConvTranspose2d-13            [-1, 192, 6, 6]          20,928
  ConvTranspose2d-14             [-1, 96, 8, 8]         165,984
             ReLU-15             [-1, 96, 8, 8]               0
  ConvTranspose2d-16           [-1, 48, 12, 12]          18,480
             ReLU-17           [-1, 48, 12, 12]               0
  ConvTranspose2d-18            [-1, 1, 24, 24]             433
             Tanh-19            [-1, 1, 24, 24]               0
================================================================
Total params: 449,949
Trainable params: 244,124
Non-trainable params: 205,825
----------------------------------------------------------------
Input size (MB): 0.00
Forward/backward pass size (MB): 0.69
Params size (MB): 1.72
Estimated Total Size (MB): 2.41
----------------------------------------------------------------
None
Training started!!
…
