2628873
14.2.lrs
exploring with lrs 192 162 144 128 96 72 45 24
Importing finished!!
cuda is going to be used!!
Dataset loaded!! Length (train dataset) - 19200
Config (12, 4, (3, 1, 0), (3, 1, 0, 0))
AutoencoderEIT(
  (encoder): Sequential(
    (0): Conv2d(1, 48, kernel_size=(3, 3), stride=(2, 2), padding=(1, 1))
    (1): ReLU()
    (2): Conv2d(48, 96, kernel_size=(2, 2), stride=(2, 2), padding=(2, 2))
    (3): ReLU()
    (4): Conv2d(96, 192, kernel_size=(3, 3), stride=(1, 1))
    (5): ReLU()
    (6): Conv2d(192, 12, kernel_size=(3, 3), stride=(1, 1))
    (7): BatchNorm2d(12, eps=1e-05, momentum=0.1, affine=True, track_running_stats=True)
    (8): ReLU()
    (9): Flatten(start_dim=1, end_dim=-1)
  )
  (decoder): Sequential(
    (0): Unflatten(dim=1, unflattened_size=(12, 4, 4))
    (1): ConvTranspose2d(12, 192, kernel_size=(3, 3), stride=(1, 1))
    (2): BatchNorm2d(192, eps=1e-05, momentum=0.1, affine=True, track_running_stats=True)
    (3): ReLU()
    (4): ConvTranspose2d(192, 96, kernel_size=(3, 3), stride=(1, 1))
    (5): ReLU()
    (6): ConvTranspose2d(96, 48, kernel_size=(2, 2), stride=(2, 2), padding=(2, 2))
    (7): ReLU()
    (8): ConvTranspose2d(48, 1, kernel_size=(3, 3), stride=(2, 2), padding=(1, 1), output_padding=(1, 1))
  )
)
Task: Reconstruction, Epoch:0, Epoch Loss: 0.017658831551671028, Loss:0.011894, MSELoss:0.008345, SSIM: 0.1544342041015625                	Val Epoch Loss: 0.013889,Val MSE: 0.000590
Best state dict yet, with Val Epoch MSE: 0.013889 Val MSE 0.008345, found @ 0...
Best state dict yet, with Val Epoch MSE: 0.007577 Val MSE 0.004777, found @ 2...
…
Best state dict yet, with Val Epoch MSE: 0.002750 Val MSE 0.001276, found @ 143...
Task: Reconstruction, Epoch:149, Epoch Loss: 0.002306045265868306, Loss:0.002265, MSELoss:0.001039, SSIM: 0.03491711616516113                	Val Epoch Loss: 0.004020,Val MSE: 0.000226
Avg Epoch Test Loss: 0.0026860871093231254, Last MSE Test Loss: 0.005785895045846701
written to: ./models/img/14.2.lrs.20231205020107_img.pth
written to: ./models/img/14.2.lrs.20231205020107_img.pt
written to: ./results/loss_tracker_img.csv
Elapsed time: 4116.594251155853 seconds.
Config (18, 3, (3, 2, 1), (3, 2, 1, 1))
AutoencoderEIT(
  (encoder): Sequential(
    (0): Conv2d(1, 48, kernel_size=(3, 3), stride=(2, 2), padding=(1, 1))
    (1): ReLU()
    (2): Conv2d(48, 96, kernel_size=(2, 2), stride=(2, 2), padding=(2, 2))
    (3): ReLU()
    (4): Conv2d(96, 192, kernel_size=(3, 3), stride=(1, 1))
    (5): ReLU()
    (6): Conv2d(192, 18, kernel_size=(3, 3), stride=(2, 2), padding=(1, 1))
    (7): BatchNorm2d(18, eps=1e-05, momentum=0.1, affine=True, track_running_stats=True)
    (8): ReLU()
    (9): Flatten(start_dim=1, end_dim=-1)
  )
  (decoder): Sequential(
    (0): Unflatten(dim=1, unflattened_size=(18, 3, 3))
    (1): ConvTranspose2d(18, 192, kernel_size=(3, 3), stride=(2, 2), padding=(1, 1), output_padding=(1, 1))
    (2): BatchNorm2d(192, eps=1e-05, momentum=0.1, affine=True, track_running_stats=True)
    (3): ReLU()
    (4): ConvTranspose2d(192, 96, kernel_size=(3, 3), stride=(1, 1))
    (5): ReLU()
    (6): ConvTranspose2d(96, 48, kernel_size=(2, 2), stride=(2, 2), padding=(2, 2))
    (7): ReLU()
    (8): ConvTranspose2d(48, 1, kernel_size=(3, 3), stride=(2, 2), padding=(1, 1), output_padding=(1, 1))
  )
)
Task: Reconstruction, Epoch:0, Epoch Loss: 0.017040029168128967, Loss:0.008805, MSELoss:0.006881, SSIM: 0.10729372501373291                	Val Epoch Loss: 0.011534,Val MSE: 0.005638
Best state dict yet, with Val Epoch MSE: 0.011534 Val MSE 0.006881, found @ 0...
Best state dict yet, with Val Epoch MSE: 0.008439 Val MSE 0.004207, found @ 1...
…
Task: Reconstruction, Epoch:140, Epoch Loss: 0.0020204931497573853, Loss:0.003144, MSELoss:0.000973, SSIM: 0.053154826164245605                	Val Epoch Loss: 0.002436,Val MSE: 0.000338
Task: Reconstruction, Epoch:149, Epoch Loss: 0.0019705009181052446, Loss:0.001908, MSELoss:0.000305, SSIM: 0.0351032018661499                	Val Epoch Loss: 0.002367,Val MSE: 0.000213
Avg Epoch Test Loss: 0.0018379823315772229, Last MSE Test Loss: 0.002098819939419627
written to: ./models/img/14.2.lrs.20231205030941_img.pth
written to: ./models/img/14.2.lrs.20231205030941_img.pt
written to: ./results/loss_tracker_img.csv
Elapsed time: 8223.137442827225 seconds.
Config (16, 3, (3, 2, 1), (3, 2, 1, 1))
AutoencoderEIT(
  (encoder): Sequential(
    (0): Conv2d(1, 48, kernel_size=(3, 3), stride=(2, 2), padding=(1, 1))
    (1): ReLU()
    (2): Conv2d(48, 96, kernel_size=(2, 2), stride=(2, 2), padding=(2, 2))
    (3): ReLU()
    (4): Conv2d(96, 192, kernel_size=(3, 3), stride=(1, 1))
    (5): ReLU()
    (6): Conv2d(192, 16, kernel_size=(3, 3), stride=(2, 2), padding=(1, 1))
    (7): BatchNorm2d(16, eps=1e-05, momentum=0.1, affine=True, track_running_stats=True)
    (8): ReLU()
    (9): Flatten(start_dim=1, end_dim=-1)
  )
  (decoder): Sequential(
    (0): Unflatten(dim=1, unflattened_size=(16, 3, 3))
    (1): ConvTranspose2d(16, 192, kernel_size=(3, 3), stride=(2, 2), padding=(1, 1), output_padding=(1, 1))
    (2): BatchNorm2d(192, eps=1e-05, momentum=0.1, affine=True, track_running_stats=True)
    (3): ReLU()
    (4): ConvTranspose2d(192, 96, kernel_size=(3, 3), stride=(1, 1))
    (5): ReLU()
    (6): ConvTranspose2d(96, 48, kernel_size=(2, 2), stride=(2, 2), padding=(2, 2))
    (7): ReLU()
    (8): ConvTranspose2d(48, 1, kernel_size=(3, 3), stride=(2, 2), padding=(1, 1), output_padding=(1, 1))
  )
)
Task: Reconstruction, Epoch:0, Epoch Loss: 0.01918923296034336, Loss:0.012467, MSELoss:0.006235, SSIM: 0.18698853254318237                	Val Epoch Loss: 0.014739,Val MSE: 0.000576
Best state dict yet, with Val Epoch MSE: 0.014739 Val MSE 0.006235, found @ 0...
Best state dict yet, with Val Epoch MSE: 0.011311 Val MSE 0.005532, found @ 1...
…
Task: Reconstruction, Epoch:140, Epoch Loss: 0.00210571032948792, Loss:0.001585, MSELoss:0.001475, SSIM: 0.016948044300079346                	Val Epoch Loss: 0.002042,Val MSE: 0.000099
Task: Reconstruction, Epoch:149, Epoch Loss: 0.0020975861698389053, Loss:0.001527, MSELoss:0.001305, SSIM: 0.017484068870544434                	Val Epoch Loss: 0.002044,Val MSE: 0.000190
Avg Epoch Test Loss: 0.0019563639601765316, Last MSE Test Loss: 0.007133671082556248
written to: ./models/img/14.2.lrs.20231205041808_img.pth
written to: ./models/img/14.2.lrs.20231205041808_img.pt
written to: ./results/loss_tracker_img.csv
Elapsed time: 12354.560868024826 seconds.
Config (8, 4, (3, 1, 0), (3, 1, 0, 0))
AutoencoderEIT(
  (encoder): Sequential(
    (0): Conv2d(1, 48, kernel_size=(3, 3), stride=(2, 2), padding=(1, 1))
    (1): ReLU()
    (2): Conv2d(48, 96, kernel_size=(2, 2), stride=(2, 2), padding=(2, 2))
    (3): ReLU()
    (4): Conv2d(96, 192, kernel_size=(3, 3), stride=(1, 1))
    (5): ReLU()
    (6): Conv2d(192, 8, kernel_size=(3, 3), stride=(1, 1))
    (7): BatchNorm2d(8, eps=1e-05, momentum=0.1, affine=True, track_running_stats=True)
    (8): ReLU()
    (9): Flatten(start_dim=1, end_dim=-1)
  )
  (decoder): Sequential(
    (0): Unflatten(dim=1, unflattened_size=(8, 4, 4))
    (1): ConvTranspose2d(8, 192, kernel_size=(3, 3), stride=(1, 1))
    (2): BatchNorm2d(192, eps=1e-05, momentum=0.1, affine=True, track_running_stats=True)
    (3): ReLU()
    (4): ConvTranspose2d(192, 96, kernel_size=(3, 3), stride=(1, 1))
    (5): ReLU()
    (6): ConvTranspose2d(96, 48, kernel_size=(2, 2), stride=(2, 2), padding=(2, 2))
    (7): ReLU()
    (8): ConvTranspose2d(48, 1, kernel_size=(3, 3), stride=(2, 2), padding=(1, 1), output_padding=(1, 1))
  )
)
Task: Reconstruction, Epoch:0, Epoch Loss: 0.01823708973824978, Loss:0.006710, MSELoss:0.002379, SSIM: 0.11041897535324097                	Val Epoch Loss: 0.012702,Val MSE: 0.000658
Best state dict yet, with Val Epoch MSE: 0.012702 Val MSE 0.002379, found @ 0...
Best state dict yet, with Val Epoch MSE: 0.009259 Val MSE 0.001767, found @ 1...
…
Task: Reconstruction, Epoch:149, Epoch Loss: 0.0028121352661401033, Loss:0.001643, MSELoss:0.000949, SSIM: 0.023378372192382812                	Val Epoch Loss: 0.003350,Val MSE: 0.000604
Best state dict yet, with Val Epoch MSE: 0.003350 Val MSE 0.000949, found @ 149...
Avg Epoch Test Loss: 0.0032882931994390675, Last MSE Test Loss: 0.005697239190340042
written to: ./models/img/14.2.lrs.20231205052659_img.pth
written to: ./models/img/14.2.lrs.20231205052659_img.pt
written to: ./results/loss_tracker_img.csv
Elapsed time: 16485.61762905121 seconds.
Config (6, 4, (3, 1, 0), (3, 1, 0, 0))
AutoencoderEIT(
  (encoder): Sequential(
    (0): Conv2d(1, 48, kernel_size=(3, 3), stride=(2, 2), padding=(1, 1))
    (1): ReLU()
    (2): Conv2d(48, 96, kernel_size=(2, 2), stride=(2, 2), padding=(2, 2))
    (3): ReLU()
    (4): Conv2d(96, 192, kernel_size=(3, 3), stride=(1, 1))
    (5): ReLU()
    (6): Conv2d(192, 6, kernel_size=(3, 3), stride=(1, 1))
    (7): BatchNorm2d(6, eps=1e-05, momentum=0.1, affine=True, track_running_stats=True)
    (8): ReLU()
    (9): Flatten(start_dim=1, end_dim=-1)
  )
  (decoder): Sequential(
    (0): Unflatten(dim=1, unflattened_size=(6, 4, 4))
    (1): ConvTranspose2d(6, 192, kernel_size=(3, 3), stride=(1, 1))
    (2): BatchNorm2d(192, eps=1e-05, momentum=0.1, affine=True, track_running_stats=True)
    (3): ReLU()
    (4): ConvTranspose2d(192, 96, kernel_size=(3, 3), stride=(1, 1))
    (5): ReLU()
    (6): ConvTranspose2d(96, 48, kernel_size=(2, 2), stride=(2, 2), padding=(2, 2))
    (7): ReLU()
    (8): ConvTranspose2d(48, 1, kernel_size=(3, 3), stride=(2, 2), padding=(1, 1), output_padding=(1, 1))
  )
)
Task: Reconstruction, Epoch:0, Epoch Loss: 0.026927290484309196, Loss:0.013786, MSELoss:0.012260, SSIM: 0.15311777591705322                	Val Epoch Loss: 0.024488,Val MSE: 0.004183
Best state dict yet, with Val Epoch MSE: 0.024488 Val MSE 0.012260, found @ 0...
Best state dict yet, with Val Epoch MSE: 0.017219 Val MSE 0.004497, found @ 1...
…
Task: Reconstruction, Epoch:149, Epoch Loss: 0.003308149054646492, Loss:0.002178, MSELoss:0.001290, SSIM: 0.030659079551696777                	Val Epoch Loss: 0.004570,Val MSE: 0.000320
Best state dict yet, with Val Epoch MSE: 0.004570 Val MSE 0.001290, found @ 149...
Avg Epoch Test Loss: 0.004348194529147198, Last MSE Test Loss: 0.01482228934764862
written to: ./models/img/14.2.lrs.20231205063550_img.pth
written to: ./models/img/14.2.lrs.20231205063550_img.pt
written to: ./results/loss_tracker_img.csv
Elapsed time: 20599.28011894226 seconds.
Config (8, 3, (3, 2, 1), (3, 2, 1, 1))
AutoencoderEIT(
  (encoder): Sequential(
    (0): Conv2d(1, 48, kernel_size=(3, 3), stride=(2, 2), padding=(1, 1))
    (1): ReLU()
    (2): Conv2d(48, 96, kernel_size=(2, 2), stride=(2, 2), padding=(2, 2))
    (3): ReLU()
    (4): Conv2d(96, 192, kernel_size=(3, 3), stride=(1, 1))
    (5): ReLU()
    (6): Conv2d(192, 8, kernel_size=(3, 3), stride=(2, 2), padding=(1, 1))
    (7): BatchNorm2d(8, eps=1e-05, momentum=0.1, affine=True, track_running_stats=True)
    (8): ReLU()
    (9): Flatten(start_dim=1, end_dim=-1)
  )
  (decoder): Sequential(
    (0): Unflatten(dim=1, unflattened_size=(8, 3, 3))
    (1): ConvTranspose2d(8, 192, kernel_size=(3, 3), stride=(2, 2), padding=(1, 1), output_padding=(1, 1))
    (2): BatchNorm2d(192, eps=1e-05, momentum=0.1, affine=True, track_running_stats=True)
    (3): ReLU()
    (4): ConvTranspose2d(192, 96, kernel_size=(3, 3), stride=(1, 1))
    (5): ReLU()
    (6): ConvTranspose2d(96, 48, kernel_size=(2, 2), stride=(2, 2), padding=(2, 2))
    (7): ReLU()
    (8): ConvTranspose2d(48, 1, kernel_size=(3, 3), stride=(2, 2), padding=(1, 1), output_padding=(1, 1))
  )
)
Task: Reconstruction, Epoch:0, Epoch Loss: 0.02184790000319481, Loss:0.013610, MSELoss:0.006549, SSIM: 0.20671677589416504                	Val Epoch Loss: 0.018050,Val MSE: 0.004467
Best state dict yet, with Val Epoch MSE: 0.018050 Val MSE 0.006549, found @ 0...
Best state dict yet, with Val Epoch MSE: 0.014807 Val MSE 0.005003, found @ 1...
…
Best state dict yet, with Val Epoch MSE: 0.003449 Val MSE 0.001382, found @ 140...
Task: Reconstruction, Epoch:149, Epoch Loss: 0.0034073328133672476, Loss:0.002572, MSELoss:0.001511, SSIM: 0.03632807731628418                	Val Epoch Loss: 0.003522,Val MSE: 0.000547
Avg Epoch Test Loss: 0.003343795102400084, Last MSE Test Loss: 0.012791881337761879
written to: ./models/img/14.2.lrs.20231205074424_img.pth
written to: ./models/img/14.2.lrs.20231205074424_img.pt
written to: ./results/loss_tracker_img.csv
Elapsed time: 24743.441435813904 seconds.
Config (5, 3, (3, 2, 1), (3, 2, 1, 1))
AutoencoderEIT(
  (encoder): Sequential(
    (0): Conv2d(1, 48, kernel_size=(3, 3), stride=(2, 2), padding=(1, 1))
    (1): ReLU()
    (2): Conv2d(48, 96, kernel_size=(2, 2), stride=(2, 2), padding=(2, 2))
    (3): ReLU()
    (4): Conv2d(96, 192, kernel_size=(3, 3), stride=(1, 1))
    (5): ReLU()
    (6): Conv2d(192, 5, kernel_size=(3, 3), stride=(2, 2), padding=(1, 1))
    (7): BatchNorm2d(5, eps=1e-05, momentum=0.1, affine=True, track_running_stats=True)
    (8): ReLU()
    (9): Flatten(start_dim=1, end_dim=-1)
  )
  (decoder): Sequential(
    (0): Unflatten(dim=1, unflattened_size=(5, 3, 3))
    (1): ConvTranspose2d(5, 192, kernel_size=(3, 3), stride=(2, 2), padding=(1, 1), output_padding=(1, 1))
    (2): BatchNorm2d(192, eps=1e-05, momentum=0.1, affine=True, track_running_stats=True)
    (3): ReLU()
    (4): ConvTranspose2d(192, 96, kernel_size=(3, 3), stride=(1, 1))
    (5): ReLU()
    (6): ConvTranspose2d(96, 48, kernel_size=(2, 2), stride=(2, 2), padding=(2, 2))
    (7): ReLU()
    (8): ConvTranspose2d(48, 1, kernel_size=(3, 3), stride=(2, 2), padding=(1, 1), output_padding=(1, 1))
  )
)
Task: Reconstruction, Epoch:0, Epoch Loss: 0.02234552428126335, Loss:0.012700, MSELoss:0.006315, SSIM: 0.19084739685058594                	Val Epoch Loss: 0.017637,Val MSE: 0.000829
Best state dict yet, with Val Epoch MSE: 0.017637 Val MSE 0.006315, found @ 0...
Best state dict yet, with Val Epoch MSE: 0.015817 Val MSE 0.006321, found @ 1...
…
Task: Reconstruction, Epoch:140, Epoch Loss: 0.00547229265794158, Loss:0.004712, MSELoss:0.003640, SSIM: 0.05783963203430176                	Val Epoch Loss: 0.006196,Val MSE: 0.000334
Task: Reconstruction, Epoch:149, Epoch Loss: 0.005423420108854771, Loss:0.004457, MSELoss:0.003103, SSIM: 0.05811750888824463                	Val Epoch Loss: 0.006247,Val MSE: 0.000336
Avg Epoch Test Loss: 0.005813563301693648, Last MSE Test Loss: 0.009664309211075306
written to: ./models/img/14.2.lrs.20231205085328_img.pth
written to: ./models/img/14.2.lrs.20231205085328_img.pt
written to: ./results/loss_tracker_img.csv
Elapsed time: 28904.777040719986 seconds.
Config (6, 2, (3, 2, 0), (3, 2, 0, 1))
AutoencoderEIT(
  (encoder): Sequential(
    (0): Conv2d(1, 48, kernel_size=(3, 3), stride=(2, 2), padding=(1, 1))
    (1): ReLU()
    (2): Conv2d(48, 96, kernel_size=(2, 2), stride=(2, 2), padding=(2, 2))
    (3): ReLU()
    (4): Conv2d(96, 192, kernel_size=(3, 3), stride=(1, 1))
    (5): ReLU()
    (6): Conv2d(192, 6, kernel_size=(3, 3), stride=(2, 2))
    (7): BatchNorm2d(6, eps=1e-05, momentum=0.1, affine=True, track_running_stats=True)
    (8): ReLU()
    (9): Flatten(start_dim=1, end_dim=-1)
  )
  (decoder): Sequential(
    (0): Unflatten(dim=1, unflattened_size=(6, 2, 2))
    (1): ConvTranspose2d(6, 192, kernel_size=(3, 3), stride=(2, 2), output_padding=(1, 1))
    (2): BatchNorm2d(192, eps=1e-05, momentum=0.1, affine=True, track_running_stats=True)
    (3): ReLU()
    (4): ConvTranspose2d(192, 96, kernel_size=(3, 3), stride=(1, 1))
    (5): ReLU()
    (6): ConvTranspose2d(96, 48, kernel_size=(2, 2), stride=(2, 2), padding=(2, 2))
    (7): ReLU()
    (8): ConvTranspose2d(48, 1, kernel_size=(3, 3), stride=(2, 2), padding=(1, 1), output_padding=(1, 1))
  )
)
Task: Reconstruction, Epoch:0, Epoch Loss: 0.03312084451317787, Loss:0.018001, MSELoss:0.006104, SSIM: 0.2989683151245117                	Val Epoch Loss: 0.030426,Val MSE: 0.002783
Best state dict yet, with Val Epoch MSE: 0.030426 Val MSE 0.006104, found @ 0...
Best state dict yet, with Val Epoch MSE: 0.024902 Val MSE 0.007360, found @ 1...
…
