14.1
0014.pt_LR_to_108
Importing finished!!
cuda is going to be used!!
Dataset loaded!!
----------------------------------------------------------------
        Layer (type)               Output Shape         Param #
================================================================
            Conv2d-1           [-1, 48, 12, 12]             480
              ReLU-2           [-1, 48, 12, 12]               0
            Conv2d-3             [-1, 96, 8, 8]          18,528
              ReLU-4             [-1, 96, 8, 8]               0
            Conv2d-5            [-1, 192, 6, 6]         166,080
              ReLU-6            [-1, 192, 6, 6]               0
            Conv2d-7             [-1, 12, 3, 3]          20,748
              ReLU-8             [-1, 12, 3, 3]               0
           Flatten-9                  [-1, 108]               0
        Unflatten-10             [-1, 12, 3, 3]               0
  ConvTranspose2d-11            [-1, 192, 6, 6]          20,928
  ConvTranspose2d-12             [-1, 96, 8, 8]         165,984
             ReLU-13             [-1, 96, 8, 8]               0
  ConvTranspose2d-14           [-1, 48, 12, 12]          18,480
             ReLU-15           [-1, 48, 12, 12]               0
  ConvTranspose2d-16            [-1, 1, 24, 24]             433
             Tanh-17            [-1, 1, 24, 24]               0
================================================================
Total params: 411,661
Trainable params: 41,676
Non-trainable params: 369,985
----------------------------------------------------------------
Input size (MB): 0.00
Forward/backward pass size (MB): 0.57
Params size (MB): 1.57
Estimated Total Size (MB): 2.14
----------------------------------------------------------------
None
Training started!! - Reconstruction
…
