0.0
linear_recon
Importing finished!!
cuda is going to be used!!
Dataset loaded!!
----------------------------------------------------------------
        Layer (type)               Output Shape         Param #
================================================================
            Linear-1               [-1, 1, 256]         147,712
              ReLU-2               [-1, 1, 256]               0
            Linear-3               [-1, 1, 128]          32,896
              ReLU-4               [-1, 1, 128]               0
            Linear-5                [-1, 1, 64]           8,256
              ReLU-6                [-1, 1, 64]               0
            Linear-7               [-1, 1, 128]           8,320
              ReLU-8               [-1, 1, 128]               0
            Linear-9               [-1, 1, 256]          33,024
             ReLU-10               [-1, 1, 256]               0
           Linear-11               [-1, 1, 576]         148,032
             Tanh-12               [-1, 1, 576]               0
================================================================
Total params: 378,240
Trainable params: 378,240
Non-trainable params: 0
----------------------------------------------------------------
Input size (MB): 0.00
Forward/backward pass size (MB): 0.02
Params size (MB): 1.44
Estimated Total Size (MB): 1.47
----------------------------------------------------------------
None
Training started!! - Reconstruction
…
