14.4
bunch of configs
Importing finished!!
cuda is going to be used!!
[Linear(in_features=216, out_features=64, bias=True), ReLU(), Linear(in_features=64, out_features=216, bias=True), ReLU()]



Dataset loaded!! Length (train dataset) - 24000
----------------------------------------------------------------
        Layer (type)               Output Shape         Param #
================================================================
            Conv2d-1           [-1, 48, 12, 12]             480
              ReLU-2           [-1, 48, 12, 12]               0
            Conv2d-3             [-1, 96, 8, 8]          18,528
              ReLU-4             [-1, 96, 8, 8]               0
            Conv2d-5            [-1, 192, 6, 6]         166,080
              ReLU-6            [-1, 192, 6, 6]               0
            Conv2d-7             [-1, 24, 3, 3]          41,496
              ReLU-8             [-1, 24, 3, 3]               0
           Flatten-9                  [-1, 216]               0
           Linear-10                   [-1, 64]          13,888
             ReLU-11                   [-1, 64]               0
           Linear-12                  [-1, 216]          14,040
             ReLU-13                  [-1, 216]               0
        Unflatten-14             [-1, 24, 3, 3]               0
  ConvTranspose2d-15            [-1, 192, 6, 6]          41,664
  ConvTranspose2d-16             [-1, 96, 8, 8]         165,984
             ReLU-17             [-1, 96, 8, 8]               0
  ConvTranspose2d-18           [-1, 48, 12, 12]          18,480
             ReLU-19           [-1, 48, 12, 12]               0
  ConvTranspose2d-20            [-1, 1, 24, 24]             433
================================================================
Total params: 481,073
Trainable params: 111,088
Non-trainable params: 369,985
----------------------------------------------------------------
Input size (MB): 0.00
Forward/backward pass size (MB): 0.57
Params size (MB): 1.84
Estimated Total Size (MB): 2.41
----------------------------------------------------------------
None
Training started!! - Reconstruction
…
Min Test Loss: MSE: 0.0007039236952550709 SSIM: 0.04881639734462451
written to: ./results/loss_tracker_img.csv
written to: ./models/img/14.4.20231123034105_img.pth
written to: ./models/img/14.4.20231123034105_img.pt
Elapsed time: 611.253851890564 seconds.
[Linear(in_features=216, out_features=128, bias=True), ReLU(), Linear(in_features=128, out_features=216, bias=True), ReLU()]



Dataset loaded!! Length (train dataset) - 24000
----------------------------------------------------------------
        Layer (type)               Output Shape         Param #
================================================================
            Conv2d-1           [-1, 48, 12, 12]             480
              ReLU-2           [-1, 48, 12, 12]               0
            Conv2d-3             [-1, 96, 8, 8]          18,528
              ReLU-4             [-1, 96, 8, 8]               0
            Conv2d-5            [-1, 192, 6, 6]         166,080
              ReLU-6            [-1, 192, 6, 6]               0
            Conv2d-7             [-1, 24, 3, 3]          41,496
              ReLU-8             [-1, 24, 3, 3]               0
           Flatten-9                  [-1, 216]               0
           Linear-10                  [-1, 128]          27,776
             ReLU-11                  [-1, 128]               0
           Linear-12                  [-1, 216]          27,864
             ReLU-13                  [-1, 216]               0
        Unflatten-14             [-1, 24, 3, 3]               0
  ConvTranspose2d-15            [-1, 192, 6, 6]          41,664
  ConvTranspose2d-16             [-1, 96, 8, 8]         165,984
             ReLU-17             [-1, 96, 8, 8]               0
  ConvTranspose2d-18           [-1, 48, 12, 12]          18,480
             ReLU-19           [-1, 48, 12, 12]               0
  ConvTranspose2d-20            [-1, 1, 24, 24]             433
================================================================
Total params: 508,785
Trainable params: 138,800
Non-trainable params: 369,985
----------------------------------------------------------------
Input size (MB): 0.00
Forward/backward pass size (MB): 0.57
Params size (MB): 1.94
Estimated Total Size (MB): 2.52
----------------------------------------------------------------
None
Training started!! - Reconstruction
…
Min Test Loss: MSE: 0.0004666737513616681 SSIM: 0.0361930652533049
written to: ./results/loss_tracker_img.csv
written to: ./models/img/14.4.20231123035116_img.pth
written to: ./models/img/14.4.20231123035116_img.pt
Elapsed time: 1218.2017467021942 seconds.
[Linear(in_features=216, out_features=512, bias=True), ReLU(), Linear(in_features=512, out_features=216, bias=True), ReLU()]



Dataset loaded!! Length (train dataset) - 24000
----------------------------------------------------------------
        Layer (type)               Output Shape         Param #
================================================================
            Conv2d-1           [-1, 48, 12, 12]             480
              ReLU-2           [-1, 48, 12, 12]               0
            Conv2d-3             [-1, 96, 8, 8]          18,528
              ReLU-4             [-1, 96, 8, 8]               0
            Conv2d-5            [-1, 192, 6, 6]         166,080
              ReLU-6            [-1, 192, 6, 6]               0
            Conv2d-7             [-1, 24, 3, 3]          41,496
              ReLU-8             [-1, 24, 3, 3]               0
           Flatten-9                  [-1, 216]               0
           Linear-10                  [-1, 512]         111,104
             ReLU-11                  [-1, 512]               0
           Linear-12                  [-1, 216]         110,808
             ReLU-13                  [-1, 216]               0
        Unflatten-14             [-1, 24, 3, 3]               0
  ConvTranspose2d-15            [-1, 192, 6, 6]          41,664
  ConvTranspose2d-16             [-1, 96, 8, 8]         165,984
             ReLU-17             [-1, 96, 8, 8]               0
  ConvTranspose2d-18           [-1, 48, 12, 12]          18,480
             ReLU-19           [-1, 48, 12, 12]               0
  ConvTranspose2d-20            [-1, 1, 24, 24]             433
================================================================
Total params: 675,057
Trainable params: 305,072
Non-trainable params: 369,985
----------------------------------------------------------------
Input size (MB): 0.00
Forward/backward pass size (MB): 0.58
Params size (MB): 2.58
Estimated Total Size (MB): 3.16
----------------------------------------------------------------
None
Training started!! - Reconstruction
…
written to: ./models/img/14.4.20231123040123_img.pth
written to: ./models/img/14.4.20231123040123_img.pt
Elapsed time: 1824.1102786064148 seconds.
[Linear(in_features=216, out_features=64, bias=True), ReLU(), Linear(in_features=64, out_features=128, bias=True), ReLU(), Linear(in_features=128, out_features=216, bias=True), ReLU()]



Dataset loaded!! Length (train dataset) - 24000
----------------------------------------------------------------
        Layer (type)               Output Shape         Param #
================================================================
            Conv2d-1           [-1, 48, 12, 12]             480
              ReLU-2           [-1, 48, 12, 12]               0
            Conv2d-3             [-1, 96, 8, 8]          18,528
              ReLU-4             [-1, 96, 8, 8]               0
            Conv2d-5            [-1, 192, 6, 6]         166,080
              ReLU-6            [-1, 192, 6, 6]               0
            Conv2d-7             [-1, 24, 3, 3]          41,496
              ReLU-8             [-1, 24, 3, 3]               0
           Flatten-9                  [-1, 216]               0
           Linear-10                   [-1, 64]          13,888
             ReLU-11                   [-1, 64]               0
           Linear-12                  [-1, 128]           8,320
             ReLU-13                  [-1, 128]               0
           Linear-14                  [-1, 216]          27,864
             ReLU-15                  [-1, 216]               0
        Unflatten-16             [-1, 24, 3, 3]               0
  ConvTranspose2d-17            [-1, 192, 6, 6]          41,664
  ConvTranspose2d-18             [-1, 96, 8, 8]         165,984
             ReLU-19             [-1, 96, 8, 8]               0
  ConvTranspose2d-20           [-1, 48, 12, 12]          18,480
             ReLU-21           [-1, 48, 12, 12]               0
  ConvTranspose2d-22            [-1, 1, 24, 24]             433
================================================================
Total params: 503,217
Trainable params: 133,232
Non-trainable params: 369,985
----------------------------------------------------------------
Input size (MB): 0.00
Forward/backward pass size (MB): 0.57
Params size (MB): 1.92
Estimated Total Size (MB): 2.50
----------------------------------------------------------------
None
Training started!! - Reconstruction
…
written to: ./models/img/14.4.20231123041129_img.pth
written to: ./models/img/14.4.20231123041129_img.pt
Elapsed time: 2447.3678464889526 seconds.
[Linear(in_features=216, out_features=128, bias=True), ReLU(), Linear(in_features=128, out_features=64, bias=True), ReLU(), Linear(in_features=64, out_features=216, bias=True), ReLU()]



Dataset loaded!! Length (train dataset) - 24000
----------------------------------------------------------------
        Layer (type)               Output Shape         Param #
================================================================
            Conv2d-1           [-1, 48, 12, 12]             480
              ReLU-2           [-1, 48, 12, 12]               0
            Conv2d-3             [-1, 96, 8, 8]          18,528
              ReLU-4             [-1, 96, 8, 8]               0
            Conv2d-5            [-1, 192, 6, 6]         166,080
              ReLU-6            [-1, 192, 6, 6]               0
            Conv2d-7             [-1, 24, 3, 3]          41,496
              ReLU-8             [-1, 24, 3, 3]               0
           Flatten-9                  [-1, 216]               0
           Linear-10                  [-1, 128]          27,776
             ReLU-11                  [-1, 128]               0
           Linear-12                   [-1, 64]           8,256
             ReLU-13                   [-1, 64]               0
           Linear-14                  [-1, 216]          14,040
             ReLU-15                  [-1, 216]               0
        Unflatten-16             [-1, 24, 3, 3]               0
  ConvTranspose2d-17            [-1, 192, 6, 6]          41,664
  ConvTranspose2d-18             [-1, 96, 8, 8]         165,984
             ReLU-19             [-1, 96, 8, 8]               0
  ConvTranspose2d-20           [-1, 48, 12, 12]          18,480
             ReLU-21           [-1, 48, 12, 12]               0
  ConvTranspose2d-22            [-1, 1, 24, 24]             433
================================================================
Total params: 503,217
Trainable params: 133,232
Non-trainable params: 369,985
----------------------------------------------------------------
Input size (MB): 0.00
Forward/backward pass size (MB): 0.57
Params size (MB): 1.92
Estimated Total Size (MB): 2.50
----------------------------------------------------------------
None
Training started!! - Reconstruction
…
written to: ./models/img/14.4.20231123042153_img.pth
written to: ./models/img/14.4.20231123042153_img.pt
Elapsed time: 3072.6335752010345 seconds.
[Linear(in_features=216, out_features=128, bias=True), ReLU(), Linear(in_features=128, out_features=128, bias=True), ReLU(), Linear(in_features=128, out_features=216, bias=True), ReLU()]



Dataset loaded!! Length (train dataset) - 24000
----------------------------------------------------------------
        Layer (type)               Output Shape         Param #
================================================================
            Conv2d-1           [-1, 48, 12, 12]             480
              ReLU-2           [-1, 48, 12, 12]               0
            Conv2d-3             [-1, 96, 8, 8]          18,528
              ReLU-4             [-1, 96, 8, 8]               0
            Conv2d-5            [-1, 192, 6, 6]         166,080
              ReLU-6            [-1, 192, 6, 6]               0
            Conv2d-7             [-1, 24, 3, 3]          41,496
              ReLU-8             [-1, 24, 3, 3]               0
           Flatten-9                  [-1, 216]               0
           Linear-10                  [-1, 128]          27,776
             ReLU-11                  [-1, 128]               0
           Linear-12                  [-1, 128]          16,512
             ReLU-13                  [-1, 128]               0
           Linear-14                  [-1, 216]          27,864
             ReLU-15                  [-1, 216]               0
        Unflatten-16             [-1, 24, 3, 3]               0
  ConvTranspose2d-17            [-1, 192, 6, 6]          41,664
  ConvTranspose2d-18             [-1, 96, 8, 8]         165,984
             ReLU-19             [-1, 96, 8, 8]               0
  ConvTranspose2d-20           [-1, 48, 12, 12]          18,480
             ReLU-21           [-1, 48, 12, 12]               0
  ConvTranspose2d-22            [-1, 1, 24, 24]             433
================================================================
Total params: 525,297
Trainable params: 155,312
Non-trainable params: 369,985
----------------------------------------------------------------
Input size (MB): 0.00
Forward/backward pass size (MB): 0.57
Params size (MB): 2.00
Estimated Total Size (MB): 2.58
----------------------------------------------------------------
None
Training started!! - Reconstruction
…
