14.2.1.lr
14.2.1.retrainig.2 based hidden layer added
Importing finished!!
cuda is going to be used!!
LR - 192
Dataset loaded!! Length (train dataset) - 24000
Only gonna be shown once!
----------------------------------------------------------------
        Layer (type)               Output Shape         Param #
================================================================
            Conv2d-1           [-1, 48, 12, 12]             480
              ReLU-2           [-1, 48, 12, 12]               0
            Conv2d-3             [-1, 96, 8, 8]          18,528
              ReLU-4             [-1, 96, 8, 8]               0
            Conv2d-5            [-1, 192, 6, 6]         166,080
              ReLU-6            [-1, 192, 6, 6]               0
            Conv2d-7             [-1, 24, 3, 3]          41,496
              ReLU-8             [-1, 24, 3, 3]               0
           Flatten-9                  [-1, 216]               0
           Linear-10                  [-1, 192]          41,664
           Linear-11                  [-1, 216]          41,688
             ReLU-12                  [-1, 216]               0
        Unflatten-13             [-1, 24, 3, 3]               0
  ConvTranspose2d-14            [-1, 192, 6, 6]          41,664
  ConvTranspose2d-15             [-1, 96, 8, 8]         165,984
             ReLU-16             [-1, 96, 8, 8]               0
  ConvTranspose2d-17           [-1, 48, 12, 12]          18,480
             ReLU-18           [-1, 48, 12, 12]               0
  ConvTranspose2d-19            [-1, 1, 24, 24]             433
================================================================
Total params: 536,497
Trainable params: 536,497
Non-trainable params: 0
----------------------------------------------------------------
Input size (MB): 0.00
Forward/backward pass size (MB): 0.57
Params size (MB): 2.05
Estimated Total Size (MB): 2.62
----------------------------------------------------------------
Locals
{'__name__
…
