…
RUN 18 to rerun it for 300 epochs batch_size=4
Importing finished!!
cuda is going to be used!!
Iteration config: 0
[Linear(in_features=216, out_features=108, bias=True), ReLU(), Linear(in_features=108, out_features=324, bias=True), ReLU(), Linear(in_features=324, out_features=324, bias=True), ReLU(), Linear(in_features=324, out_features=216, bias=True), ReLU()]


Dataset loaded!! Length (train dataset) - 24000
----------------------------------------------------------------
        Layer (type)               Output Shape         Param #
================================================================
            Conv2d-1           [-1, 48, 12, 12]             480
              ReLU-2           [-1, 48, 12, 12]               0
            Conv2d-3             [-1, 96, 8, 8]          18,528
              ReLU-4             [-1, 96, 8, 8]               0
            Conv2d-5            [-1, 192, 6, 6]         166,080
              ReLU-6            [-1, 192, 6, 6]               0
            Conv2d-7             [-1, 24, 3, 3]          41,496
              ReLU-8             [-1, 24, 3, 3]               0
           Flatten-9                  [-1, 216]               0
           Linear-10                  [-1, 108]          23,436
             ReLU-11                  [-1, 108]               0
           Linear-12                  [-1, 324]          35,316
             ReLU-13                  [-1, 324]               0
           Linear-14                  [-1, 324]         105,300
             ReLU-15                  [-1, 324]               0
           Linear-16                  [-1, 216]          70,200
             ReLU-17                  [-1, 216]               0
        Unflatten-18             [-1, 24, 3, 3]               0
  ConvTranspose2d-19            [-1, 192, 6, 6]          41,664
             ReLU-20            [-1, 192, 6, 6]               0
  ConvTranspose2d-21             [-1, 96, 8, 8]         165,984
             ReLU-22             [-1, 96, 8, 8]               0
  ConvTranspose2d-23           [-1, 48, 12, 12]          18,480
             ReLU-24           [-1, 48, 12, 12]               0
  ConvTranspose2d-25            [-1, 1, 24, 24]             433
================================================================
Total params: 687,397
Trainable params: 234,252
Non-trainable params: 453,145
----------------------------------------------------------------
Input size (MB): 0.00
Forward/backward pass size (MB): 0.64
Params size (MB): 2.62
Estimated Total Size (MB): 3.26
----------------------------------------------------------------
None
Training started!! - Reconstruction
…
