14.5.1
exploring lrs 14.2.1.20231116190651_img.pt gonna be used
Importing finished!!
cuda is going to be used!!
LR - 432
Dataset loaded!! Length (train dataset) - 24000
Only gonna be shown once!
----------------------------------------------------------------
        Layer (type)               Output Shape         Param #
================================================================
            Conv2d-1           [-1, 48, 12, 12]             480
              ReLU-2           [-1, 48, 12, 12]               0
            Conv2d-3             [-1, 96, 8, 8]          18,528
              ReLU-4             [-1, 96, 8, 8]               0
            Conv2d-5            [-1, 192, 6, 6]         166,080
              ReLU-6            [-1, 192, 6, 6]               0
            Conv2d-7             [-1, 48, 3, 3]          82,992
              ReLU-8             [-1, 48, 3, 3]               0
           Flatten-9                  [-1, 432]               0
           Linear-10                  [-1, 432]         187,056
             ReLU-11                  [-1, 432]               0
           Linear-12                  [-1, 432]         187,056
             ReLU-13                  [-1, 432]               0
        Unflatten-14             [-1, 48, 3, 3]               0
  ConvTranspose2d-15            [-1, 192, 6, 6]          83,136
             ReLU-16            [-1, 192, 6, 6]               0
  ConvTranspose2d-17             [-1, 96, 8, 8]         165,984
             ReLU-18             [-1, 96, 8, 8]               0
  ConvTranspose2d-19           [-1, 48, 12, 12]          18,480
             ReLU-20           [-1, 48, 12, 12]               0
  ConvTranspose2d-21            [-1, 1, 24, 24]             433
================================================================
Total params: 910,225
Trainable params: 540,240
Non-trainable params: 369,985
----------------------------------------------------------------
Input size (MB): 0.00
Forward/backward pass size (MB): 0.64
Params size (MB): 3.47
Estimated Total Size (MB): 4.11
----------------------------------------------------------------
Training started!! - Reconstruction
…
