…
bunch of configs from factor
Importing finished!!
cuda is going to be used!!
Iteration config: 0
[Linear(in_features=216, out_features=108, bias=True), ReLU(), Linear(in_features=108, out_features=108, bias=True), ReLU(), Linear(in_features=108, out_features=108, bias=True), ReLU(), Linear(in_features=108, out_features=216, bias=True), ReLU()]


Dataset loaded!! Length (train dataset) - 24000
----------------------------------------------------------------
        Layer (type)               Output Shape         Param #
================================================================
            Conv2d-1           [-1, 48, 12, 12]             480
              ReLU-2           [-1, 48, 12, 12]               0
            Conv2d-3             [-1, 96, 8, 8]          18,528
              ReLU-4             [-1, 96, 8, 8]               0
            Conv2d-5            [-1, 192, 6, 6]         166,080
              ReLU-6            [-1, 192, 6, 6]               0
            Conv2d-7             [-1, 24, 3, 3]          41,496
              ReLU-8             [-1, 24, 3, 3]               0
           Flatten-9                  [-1, 216]               0
           Linear-10                  [-1, 108]          23,436
             ReLU-11                  [-1, 108]               0
           Linear-12                  [-1, 108]          11,772
             ReLU-13                  [-1, 108]               0
           Linear-14                  [-1, 108]          11,772
             ReLU-15                  [-1, 108]               0
           Linear-16                  [-1, 216]          23,544
             ReLU-17                  [-1, 216]               0
        Unflatten-18             [-1, 24, 3, 3]               0
  ConvTranspose2d-19            [-1, 192, 6, 6]          41,664
             ReLU-20            [-1, 192, 6, 6]               0
  ConvTranspose2d-21             [-1, 96, 8, 8]         165,984
             ReLU-22             [-1, 96, 8, 8]               0
  ConvTranspose2d-23           [-1, 48, 12, 12]          18,480
             ReLU-24           [-1, 48, 12, 12]               0
  ConvTranspose2d-25            [-1, 1, 24, 24]             433
================================================================
Total params: 523,669
Trainable params: 70,524
Non-trainable params: 453,145
----------------------------------------------------------------
Input size (MB): 0.00
Forward/backward pass size (MB): 0.63
Params size (MB): 2.00
Estimated Total Size (MB): 2.63
----------------------------------------------------------------
None
Training started!! - Reconstruction
…
written to: ./models/img/14.5.20231123044825_img.pt
Elapsed time: 625.4254393577576 seconds.
Iteration config: 1
[Linear(in_features=216, out_features=108, bias=True), ReLU(), Linear(in_features=108, out_features=108, bias=True), ReLU(), Linear(in_features=108, out_features=144, bias=True), ReLU(), Linear(in_features=144, out_features=216, bias=True), ReLU()]


Dataset loaded!! Length (train dataset) - 24000
----------------------------------------------------------------
        Layer (type)               Output Shape         Param #
================================================================
            Conv2d-1           [-1, 48, 12, 12]             480
              ReLU-2           [-1, 48, 12, 12]               0
            Conv2d-3             [-1, 96, 8, 8]          18,528
              ReLU-4             [-1, 96, 8, 8]               0
            Conv2d-5            [-1, 192, 6, 6]         166,080
              ReLU-6            [-1, 192, 6, 6]               0
            Conv2d-7             [-1, 24, 3, 3]          41,496
              ReLU-8             [-1, 24, 3, 3]               0
           Flatten-9                  [-1, 216]               0
           Linear-10                  [-1, 108]          23,436
             ReLU-11                  [-1, 108]               0
           Linear-12                  [-1, 108]          11,772
             ReLU-13                  [-1, 108]               0
           Linear-14                  [-1, 144]          15,696
             ReLU-15                  [-1, 144]               0
           Linear-16                  [-1, 216]          31,320
             ReLU-17                  [-1, 216]               0
        Unflatten-18             [-1, 24, 3, 3]               0
  ConvTranspose2d-19            [-1, 192, 6, 6]          41,664
             ReLU-20            [-1, 192, 6, 6]               0
  ConvTranspose2d-21             [-1, 96, 8, 8]         165,984
             ReLU-22             [-1, 96, 8, 8]               0
  ConvTranspose2d-23           [-1, 48, 12, 12]          18,480
             ReLU-24           [-1, 48, 12, 12]               0
  ConvTranspose2d-25            [-1, 1, 24, 24]             433
================================================================
Total params: 535,369
Trainable params: 82,224
Non-trainable params: 453,145
----------------------------------------------------------------
Input size (MB): 0.00
Forward/backward pass size (MB): 0.63
Params size (MB): 2.04
Estimated Total Size (MB): 2.67
----------------------------------------------------------------
None
Training started!! - Reconstruction
…
written to: ./models/img/14.5.20231123045850_img.pt
Elapsed time: 1247.6021857261658 seconds.
Iteration config: 2
[Linear(in_features=216, out_features=108, bias=True), ReLU(), Linear(in_features=108, out_features=108, bias=True), ReLU(), Linear(in_features=108, out_features=54, bias=True), ReLU(), Linear(in_features=54, out_features=216, bias=True), ReLU()]


Dataset loaded!! Length (train dataset) - 24000
----------------------------------------------------------------
        Layer (type)               Output Shape         Param #
================================================================
            Conv2d-1           [-1, 48, 12, 12]             480
              ReLU-2           [-1, 48, 12, 12]               0
            Conv2d-3             [-1, 96, 8, 8]          18,528
              ReLU-4             [-1, 96, 8, 8]               0
            Conv2d-5            [-1, 192, 6, 6]         166,080
              ReLU-6            [-1, 192, 6, 6]               0
            Conv2d-7             [-1, 24, 3, 3]          41,496
              ReLU-8             [-1, 24, 3, 3]               0
           Flatten-9                  [-1, 216]               0
           Linear-10                  [-1, 108]          23,436
             ReLU-11                  [-1, 108]               0
           Linear-12                  [-1, 108]          11,772
             ReLU-13                  [-1, 108]               0
           Linear-14                   [-1, 54]           5,886
             ReLU-15                   [-1, 54]               0
           Linear-16                  [-1, 216]          11,880
             ReLU-17                  [-1, 216]               0
        Unflatten-18             [-1, 24, 3, 3]               0
  ConvTranspose2d-19            [-1, 192, 6, 6]          41,664
             ReLU-20            [-1, 192, 6, 6]               0
  ConvTranspose2d-21             [-1, 96, 8, 8]         165,984
             ReLU-22             [-1, 96, 8, 8]               0
  ConvTranspose2d-23           [-1, 48, 12, 12]          18,480
             ReLU-24           [-1, 48, 12, 12]               0
  ConvTranspose2d-25            [-1, 1, 24, 24]             433
================================================================
Total params: 506,119
Trainable params: 52,974
Non-trainable params: 453,145
----------------------------------------------------------------
Input size (MB): 0.00
Forward/backward pass size (MB): 0.63
Params size (MB): 1.93
Estimated Total Size (MB): 2.56
----------------------------------------------------------------
None
Training started!! - Reconstruction
…
written to: ./models/img/14.5.20231123050912_img.pt
Elapsed time: 1865.5653338432312 seconds.
Iteration config: 3
[Linear(in_features=216, out_features=108, bias=True), ReLU(), Linear(in_features=108, out_features=108, bias=True), ReLU(), Linear(in_features=108, out_features=324, bias=True), ReLU(), Linear(in_features=324, out_features=216, bias=True), ReLU()]


Dataset loaded!! Length (train dataset) - 24000
----------------------------------------------------------------
        Layer (type)               Output Shape         Param #
================================================================
            Conv2d-1           [-1, 48, 12, 12]             480
              ReLU-2           [-1, 48, 12, 12]               0
            Conv2d-3             [-1, 96, 8, 8]          18,528
              ReLU-4             [-1, 96, 8, 8]               0
            Conv2d-5            [-1, 192, 6, 6]         166,080
              ReLU-6            [-1, 192, 6, 6]               0
            Conv2d-7             [-1, 24, 3, 3]          41,496
              ReLU-8             [-1, 24, 3, 3]               0
           Flatten-9                  [-1, 216]               0
           Linear-10                  [-1, 108]          23,436
             ReLU-11                  [-1, 108]               0
           Linear-12                  [-1, 108]          11,772
             ReLU-13                  [-1, 108]               0
           Linear-14                  [-1, 324]          35,316
             ReLU-15                  [-1, 324]               0
           Linear-16                  [-1, 216]          70,200
             ReLU-17                  [-1, 216]               0
        Unflatten-18             [-1, 24, 3, 3]               0
  ConvTranspose2d-19            [-1, 192, 6, 6]          41,664
             ReLU-20            [-1, 192, 6, 6]               0
  ConvTranspose2d-21             [-1, 96, 8, 8]         165,984
             ReLU-22             [-1, 96, 8, 8]               0
  ConvTranspose2d-23           [-1, 48, 12, 12]          18,480
             ReLU-24           [-1, 48, 12, 12]               0
  ConvTranspose2d-25            [-1, 1, 24, 24]             433
================================================================
Total params: 593,869
Trainable params: 140,724
Non-trainable params: 453,145
----------------------------------------------------------------
Input size (MB): 0.00
Forward/backward pass size (MB): 0.63
Params size (MB): 2.27
Estimated Total Size (MB): 2.90
----------------------------------------------------------------
None
Training started!! - Reconstruction
…
written to: ./models/img/14.5.20231123051930_img.pt
Elapsed time: 2479.0990896224976 seconds.
Iteration config: 4
[Linear(in_features=216, out_features=108, bias=True), ReLU(), Linear(in_features=108, out_features=108, bias=True), ReLU(), Linear(in_features=108, out_features=432, bias=True), ReLU(), Linear(in_features=432, out_features=216, bias=True), ReLU()]


Dataset loaded!! Length (train dataset) - 24000
----------------------------------------------------------------
        Layer (type)               Output Shape         Param #
================================================================
            Conv2d-1           [-1, 48, 12, 12]             480
              ReLU-2           [-1, 48, 12, 12]               0
            Conv2d-3             [-1, 96, 8, 8]          18,528
              ReLU-4             [-1, 96, 8, 8]               0
            Conv2d-5            [-1, 192, 6, 6]         166,080
              ReLU-6            [-1, 192, 6, 6]               0
            Conv2d-7             [-1, 24, 3, 3]          41,496
              ReLU-8             [-1, 24, 3, 3]               0
           Flatten-9                  [-1, 216]               0
           Linear-10                  [-1, 108]          23,436
             ReLU-11                  [-1, 108]               0
           Linear-12                  [-1, 108]          11,772
             ReLU-13                  [-1, 108]               0
           Linear-14                  [-1, 432]          47,088
             ReLU-15                  [-1, 432]               0
           Linear-16                  [-1, 216]          93,528
             ReLU-17                  [-1, 216]               0
        Unflatten-18             [-1, 24, 3, 3]               0
  ConvTranspose2d-19            [-1, 192, 6, 6]          41,664
             ReLU-20            [-1, 192, 6, 6]               0
  ConvTranspose2d-21             [-1, 96, 8, 8]         165,984
             ReLU-22             [-1, 96, 8, 8]               0
  ConvTranspose2d-23           [-1, 48, 12, 12]          18,480
             ReLU-24           [-1, 48, 12, 12]               0
  ConvTranspose2d-25            [-1, 1, 24, 24]             433
================================================================
Total params: 628,969
Trainable params: 175,824
Non-trainable params: 453,145
----------------------------------------------------------------
Input size (MB): 0.00
Forward/backward pass size (MB): 0.63
Params size (MB): 2.40
Estimated Total Size (MB): 3.04
----------------------------------------------------------------
None
Training started!! - Reconstruction
…
written to: ./models/img/14.5.20231123052944_img.pt
Elapsed time: 3093.097787618637 seconds.
Iteration config: 5
[Linear(in_features=216, out_features=108, bias=True), ReLU(), Linear(in_features=108, out_features=144, bias=True), ReLU(), Linear(in_features=144, out_features=108, bias=True), ReLU(), Linear(in_features=108, out_features=216, bias=True), ReLU()]


Dataset loaded!! Length (train dataset) - 24000
----------------------------------------------------------------
        Layer (type)               Output Shape         Param #
================================================================
            Conv2d-1           [-1, 48, 12, 12]             480
              ReLU-2           [-1, 48, 12, 12]               0
            Conv2d-3             [-1, 96, 8, 8]          18,528
              ReLU-4             [-1, 96, 8, 8]               0
            Conv2d-5            [-1, 192, 6, 6]         166,080
              ReLU-6            [-1, 192, 6, 6]               0
            Conv2d-7             [-1, 24, 3, 3]          41,496
              ReLU-8             [-1, 24, 3, 3]               0
           Flatten-9                  [-1, 216]               0
           Linear-10                  [-1, 108]          23,436
             ReLU-11                  [-1, 108]               0
           Linear-12                  [-1, 144]          15,696
             ReLU-13                  [-1, 144]               0
           Linear-14                  [-1, 108]          15,660
             ReLU-15                  [-1, 108]               0
           Linear-16                  [-1, 216]          23,544
             ReLU-17                  [-1, 216]               0
        Unflatten-18             [-1, 24, 3, 3]               0
  ConvTranspose2d-19            [-1, 192, 6, 6]          41,664
             ReLU-20            [-1, 192, 6, 6]               0
  ConvTranspose2d-21             [-1, 96, 8, 8]         165,984
             ReLU-22             [-1, 96, 8, 8]               0
  ConvTranspose2d-23           [-1, 48, 12, 12]          18,480
             ReLU-24           [-1, 48, 12, 12]               0
  ConvTranspose2d-25            [-1, 1, 24, 24]             433
================================================================
Total params: 531,481
Trainable params: 78,336
Non-trainable params: 453,145
----------------------------------------------------------------
Input size (MB): 0.00
Forward/backward pass size (MB): 0.63
Params size (MB): 2.03
Estimated Total Size (MB): 2.66
----------------------------------------------------------------
None
Training started!! - Reconstruction
…
written to: ./models/img/14.5.20231123053958_img.pt
Elapsed time: 3709.374120235443 seconds.
Iteration config: 6
[Linear(in_features=216, out_features=108, bias=True), ReLU(), Linear(in_features=108, out_features=144, bias=True), ReLU(), Linear(in_features=144, out_features=144, bias=True), ReLU(), Linear(in_features=144, out_features=216, bias=True), ReLU()]


Dataset loaded!! Length (train dataset) - 24000
----------------------------------------------------------------
        Layer (type)               Output Shape         Param #
================================================================
            Conv2d-1           [-1, 48, 12, 12]             480
              ReLU-2           [-1, 48, 12, 12]               0
            Conv2d-3             [-1, 96, 8, 8]          18,528
              ReLU-4             [-1, 96, 8, 8]               0
            Conv2d-5            [-1, 192, 6, 6]         166,080
              ReLU-6            [-1, 192, 6, 6]               0
            Conv2d-7             [-1, 24, 3, 3]          41,496
              ReLU-8             [-1, 24, 3, 3]               0
           Flatten-9                  [-1, 216]               0
           Linear-10                  [-1, 108]          23,436
             ReLU-11                  [-1, 108]               0
           Linear-12                  [-1, 144]          15,696
             ReLU-13                  [-1, 144]               0
           Linear-14                  [-1, 144]          20,880
             ReLU-15                  [-1, 144]               0
           Linear-16                  [-1, 216]          31,320
             ReLU-17                  [-1, 216]               0
        Unflatten-18             [-1, 24, 3, 3]               0
  ConvTranspose2d-19            [-1, 192, 6, 6]          41,664
             ReLU-20            [-1, 192, 6, 6]               0
  ConvTranspose2d-21             [-1, 96, 8, 8]         165,984
             ReLU-22             [-1, 96, 8, 8]               0
  ConvTranspose2d-23           [-1, 48, 12, 12]          18,480
             ReLU-24           [-1, 48, 12, 12]               0
  ConvTranspose2d-25            [-1, 1, 24, 24]             433
================================================================
Total params: 544,477
Trainable params: 91,332
Non-trainable params: 453,145
----------------------------------------------------------------
Input size (MB): 0.00
Forward/backward pass size (MB): 0.63
Params size (MB): 2.08
Estimated Total Size (MB): 2.71
----------------------------------------------------------------
None
Training started!! - Reconstruction
…
written to: ./models/img/14.5.20231123055014_img.pt
Elapsed time: 4323.535646677017 seconds.
Iteration config: 7
[Linear(in_features=216, out_features=108, bias=True), ReLU(), Linear(in_features=108, out_features=144, bias=True), ReLU(), Linear(in_features=144, out_features=54, bias=True), ReLU(), Linear(in_features=54, out_features=216, bias=True), ReLU()]


Dataset loaded!! Length (train dataset) - 24000
----------------------------------------------------------------
        Layer (type)               Output Shape         Param #
================================================================
            Conv2d-1           [-1, 48, 12, 12]             480
              ReLU-2           [-1, 48, 12, 12]               0
            Conv2d-3             [-1, 96, 8, 8]          18,528
              ReLU-4             [-1, 96, 8, 8]               0
            Conv2d-5            [-1, 192, 6, 6]         166,080
              ReLU-6            [-1, 192, 6, 6]               0
            Conv2d-7             [-1, 24, 3, 3]          41,496
              ReLU-8             [-1, 24, 3, 3]               0
           Flatten-9                  [-1, 216]               0
           Linear-10                  [-1, 108]          23,436
             ReLU-11                  [-1, 108]               0
           Linear-12                  [-1, 144]          15,696
             ReLU-13                  [-1, 144]               0
           Linear-14                   [-1, 54]           7,830
             ReLU-15                   [-1, 54]               0
           Linear-16                  [-1, 216]          11,880
             ReLU-17                  [-1, 216]               0
        Unflatten-18             [-1, 24, 3, 3]               0
  ConvTranspose2d-19            [-1, 192, 6, 6]          41,664
             ReLU-20            [-1, 192, 6, 6]               0
  ConvTranspose2d-21             [-1, 96, 8, 8]         165,984
             ReLU-22             [-1, 96, 8, 8]               0
  ConvTranspose2d-23           [-1, 48, 12, 12]          18,480
             ReLU-24           [-1, 48, 12, 12]               0
  ConvTranspose2d-25            [-1, 1, 24, 24]             433
================================================================
Total params: 511,987
Trainable params: 58,842
Non-trainable params: 453,145
----------------------------------------------------------------
Input size (MB): 0.00
Forward/backward pass size (MB): 0.63
Params size (MB): 1.95
Estimated Total Size (MB): 2.58
----------------------------------------------------------------
None
Training started!! - Reconstruction
…
written to: ./models/img/14.5.20231123060028_img.pt
Elapsed time: 4937.277243614197 seconds.
Iteration config: 8
[Linear(in_features=216, out_features=108, bias=True), ReLU(), Linear(in_features=108, out_features=144, bias=True), ReLU(), Linear(in_features=144, out_features=324, bias=True), ReLU(), Linear(in_features=324, out_features=216, bias=True), ReLU()]


Dataset loaded!! Length (train dataset) - 24000
----------------------------------------------------------------
        Layer (type)               Output Shape         Param #
================================================================
            Conv2d-1           [-1, 48, 12, 12]             480
              ReLU-2           [-1, 48, 12, 12]               0
            Conv2d-3             [-1, 96, 8, 8]          18,528
              ReLU-4             [-1, 96, 8, 8]               0
            Conv2d-5            [-1, 192, 6, 6]         166,080
              ReLU-6            [-1, 192, 6, 6]               0
            Conv2d-7             [-1, 24, 3, 3]          41,496
              ReLU-8             [-1, 24, 3, 3]               0
           Flatten-9                  [-1, 216]               0
           Linear-10                  [-1, 108]          23,436
             ReLU-11                  [-1, 108]               0
           Linear-12                  [-1, 144]          15,696
             ReLU-13                  [-1, 144]               0
           Linear-14                  [-1, 324]          46,980
             ReLU-15                  [-1, 324]               0
           Linear-16                  [-1, 216]          70,200
             ReLU-17                  [-1, 216]               0
        Unflatten-18             [-1, 24, 3, 3]               0
  ConvTranspose2d-19            [-1, 192, 6, 6]          41,664
             ReLU-20            [-1, 192, 6, 6]               0
  ConvTranspose2d-21             [-1, 96, 8, 8]         165,984
             ReLU-22             [-1, 96, 8, 8]               0
  ConvTranspose2d-23           [-1, 48, 12, 12]          18,480
             ReLU-24           [-1, 48, 12, 12]               0
  ConvTranspose2d-25            [-1, 1, 24, 24]             433
================================================================
Total params: 609,457
Trainable params: 156,312
Non-trainable params: 453,145
----------------------------------------------------------------
Input size (MB): 0.00
Forward/backward pass size (MB): 0.63
Params size (MB): 2.32
Estimated Total Size (MB): 2.96
----------------------------------------------------------------
None
Training started!! - Reconstruction
…
written to: ./models/img/14.5.20231123061042_img.pt
Elapsed time: 5551.358232021332 seconds.
Iteration config: 9
[Linear(in_features=216, out_features=108, bias=True), ReLU(), Linear(in_features=108, out_features=144, bias=True), ReLU(), Linear(in_features=144, out_features=432, bias=True), ReLU(), Linear(in_features=432, out_features=216, bias=True), ReLU()]


Dataset loaded!! Length (train dataset) - 24000
----------------------------------------------------------------
        Layer (type)               Output Shape         Param #
================================================================
            Conv2d-1           [-1, 48, 12, 12]             480
              ReLU-2           [-1, 48, 12, 12]               0
            Conv2d-3             [-1, 96, 8, 8]          18,528
              ReLU-4             [-1, 96, 8, 8]               0
            Conv2d-5            [-1, 192, 6, 6]         166,080
              ReLU-6            [-1, 192, 6, 6]               0
            Conv2d-7             [-1, 24, 3, 3]          41,496
              ReLU-8             [-1, 24, 3, 3]               0
           Flatten-9                  [-1, 216]               0
           Linear-10                  [-1, 108]          23,436
             ReLU-11                  [-1, 108]               0
           Linear-12                  [-1, 144]          15,696
             ReLU-13                  [-1, 144]               0
           Linear-14                  [-1, 432]          62,640
             ReLU-15                  [-1, 432]               0
           Linear-16                  [-1, 216]          93,528
             ReLU-17                  [-1, 216]               0
        Unflatten-18             [-1, 24, 3, 3]               0
  ConvTranspose2d-19            [-1, 192, 6, 6]          41,664
             ReLU-20            [-1, 192, 6, 6]               0
  ConvTranspose2d-21             [-1, 96, 8, 8]         165,984
             ReLU-22             [-1, 96, 8, 8]               0
  ConvTranspose2d-23           [-1, 48, 12, 12]          18,480
             ReLU-24           [-1, 48, 12, 12]               0
  ConvTranspose2d-25            [-1, 1, 24, 24]             433
================================================================
Total params: 648,445
Trainable params: 195,300
Non-trainable params: 453,145
----------------------------------------------------------------
Input size (MB): 0.00
Forward/backward pass size (MB): 0.63
Params size (MB): 2.47
Estimated Total Size (MB): 3.11
----------------------------------------------------------------
None
Training started!! - Reconstruction
…
written to: ./models/img/14.5.20231123062056_img.pt
Elapsed time: 6167.793201684952 seconds.
Iteration config: 10
[Linear(in_features=216, out_features=108, bias=True), ReLU(), Linear(in_features=108, out_features=54, bias=True), ReLU(), Linear(in_features=54, out_features=108, bias=True), ReLU(), Linear(in_features=108, out_features=216, bias=True), ReLU()]


Dataset loaded!! Length (train dataset) - 24000
----------------------------------------------------------------
        Layer (type)               Output Shape         Param #
================================================================
            Conv2d-1           [-1, 48, 12, 12]             480
              ReLU-2           [-1, 48, 12, 12]               0
            Conv2d-3             [-1, 96, 8, 8]          18,528
              ReLU-4             [-1, 96, 8, 8]               0
            Conv2d-5            [-1, 192, 6, 6]         166,080
              ReLU-6            [-1, 192, 6, 6]               0
            Conv2d-7             [-1, 24, 3, 3]          41,496
              ReLU-8             [-1, 24, 3, 3]               0
           Flatten-9                  [-1, 216]               0
           Linear-10                  [-1, 108]          23,436
             ReLU-11                  [-1, 108]               0
           Linear-12                   [-1, 54]           5,886
             ReLU-13                   [-1, 54]               0
           Linear-14                  [-1, 108]           5,940
             ReLU-15                  [-1, 108]               0
           Linear-16                  [-1, 216]          23,544
             ReLU-17                  [-1, 216]               0
        Unflatten-18             [-1, 24, 3, 3]               0
  ConvTranspose2d-19            [-1, 192, 6, 6]          41,664
             ReLU-20            [-1, 192, 6, 6]               0
  ConvTranspose2d-21             [-1, 96, 8, 8]         165,984
             ReLU-22             [-1, 96, 8, 8]               0
  ConvTranspose2d-23           [-1, 48, 12, 12]          18,480
             ReLU-24           [-1, 48, 12, 12]               0
  ConvTranspose2d-25            [-1, 1, 24, 24]             433
================================================================
Total params: 511,951
Trainable params: 58,806
Non-trainable params: 453,145
----------------------------------------------------------------
Input size (MB): 0.00
Forward/backward pass size (MB): 0.63
Params size (MB): 1.95
Estimated Total Size (MB): 2.58
----------------------------------------------------------------
None
Training started!! - Reconstruction
…
written to: ./models/img/14.5.20231123063113_img.pt
Elapsed time: 6784.935417413712 seconds.
Iteration config: 11
[Linear(in_features=216, out_features=108, bias=True), ReLU(), Linear(in_features=108, out_features=54, bias=True), ReLU(), Linear(in_features=54, out_features=144, bias=True), ReLU(), Linear(in_features=144, out_features=216, bias=True), ReLU()]


Dataset loaded!! Length (train dataset) - 24000
----------------------------------------------------------------
        Layer (type)               Output Shape         Param #
================================================================
            Conv2d-1           [-1, 48, 12, 12]             480
              ReLU-2           [-1, 48, 12, 12]               0
            Conv2d-3             [-1, 96, 8, 8]          18,528
              ReLU-4             [-1, 96, 8, 8]               0
            Conv2d-5            [-1, 192, 6, 6]         166,080
              ReLU-6            [-1, 192, 6, 6]               0
            Conv2d-7             [-1, 24, 3, 3]          41,496
              ReLU-8             [-1, 24, 3, 3]               0
           Flatten-9                  [-1, 216]               0
           Linear-10                  [-1, 108]          23,436
             ReLU-11                  [-1, 108]               0
           Linear-12                   [-1, 54]           5,886
             ReLU-13                   [-1, 54]               0
           Linear-14                  [-1, 144]           7,920
             ReLU-15                  [-1, 144]               0
           Linear-16                  [-1, 216]          31,320
             ReLU-17                  [-1, 216]               0
        Unflatten-18             [-1, 24, 3, 3]               0
  ConvTranspose2d-19            [-1, 192, 6, 6]          41,664
             ReLU-20            [-1, 192, 6, 6]               0
  ConvTranspose2d-21             [-1, 96, 8, 8]         165,984
             ReLU-22             [-1, 96, 8, 8]               0
  ConvTranspose2d-23           [-1, 48, 12, 12]          18,480
             ReLU-24           [-1, 48, 12, 12]               0
  ConvTranspose2d-25            [-1, 1, 24, 24]             433
================================================================
Total params: 521,707
Trainable params: 68,562
Non-trainable params: 453,145
----------------------------------------------------------------
Input size (MB): 0.00
Forward/backward pass size (MB): 0.63
Params size (MB): 1.99
Estimated Total Size (MB): 2.62
----------------------------------------------------------------
None
Training started!! - Reconstruction
…
written to: ./models/img/14.5.20231123064130_img.pt
Elapsed time: 7400.468604564667 seconds.
Iteration config: 12
[Linear(in_features=216, out_features=108, bias=True), ReLU(), Linear(in_features=108, out_features=54, bias=True), ReLU(), Linear(in_features=54, out_features=54, bias=True), ReLU(), Linear(in_features=54, out_features=216, bias=True), ReLU()]


Dataset loaded!! Length (train dataset) - 24000
----------------------------------------------------------------
        Layer (type)               Output Shape         Param #
================================================================
            Conv2d-1           [-1, 48, 12, 12]             480
              ReLU-2           [-1, 48, 12, 12]               0
            Conv2d-3             [-1, 96, 8, 8]          18,528
              ReLU-4             [-1, 96, 8, 8]               0
            Conv2d-5            [-1, 192, 6, 6]         166,080
              ReLU-6            [-1, 192, 6, 6]               0
            Conv2d-7             [-1, 24, 3, 3]          41,496
              ReLU-8             [-1, 24, 3, 3]               0
           Flatten-9                  [-1, 216]               0
           Linear-10                  [-1, 108]          23,436
             ReLU-11                  [-1, 108]               0
           Linear-12                   [-1, 54]           5,886
             ReLU-13                   [-1, 54]               0
           Linear-14                   [-1, 54]           2,970
             ReLU-15                   [-1, 54]               0
           Linear-16                  [-1, 216]          11,880
             ReLU-17                  [-1, 216]               0
        Unflatten-18             [-1, 24, 3, 3]               0
  ConvTranspose2d-19            [-1, 192, 6, 6]          41,664
             ReLU-20            [-1, 192, 6, 6]               0
  ConvTranspose2d-21             [-1, 96, 8, 8]         165,984
             ReLU-22             [-1, 96, 8, 8]               0
  ConvTranspose2d-23           [-1, 48, 12, 12]          18,480
             ReLU-24           [-1, 48, 12, 12]               0
  ConvTranspose2d-25            [-1, 1, 24, 24]             433
================================================================
Total params: 497,317
Trainable params: 44,172
Non-trainable params: 453,145
----------------------------------------------------------------
Input size (MB): 0.00
Forward/backward pass size (MB): 0.63
Params size (MB): 1.90
Estimated Total Size (MB): 2.53
----------------------------------------------------------------
None
Training started!! - Reconstruction
…
written to: ./models/img/14.5.20231123065145_img.pt
Elapsed time: 8017.1835124492645 seconds.
Iteration config: 13
[Linear(in_features=216, out_features=108, bias=True), ReLU(), Linear(in_features=108, out_features=54, bias=True), ReLU(), Linear(in_features=54, out_features=324, bias=True), ReLU(), Linear(in_features=324, out_features=216, bias=True), ReLU()]


Dataset loaded!! Length (train dataset) - 24000
----------------------------------------------------------------
        Layer (type)               Output Shape         Param #
================================================================
            Conv2d-1           [-1, 48, 12, 12]             480
              ReLU-2           [-1, 48, 12, 12]               0
            Conv2d-3             [-1, 96, 8, 8]          18,528
              ReLU-4             [-1, 96, 8, 8]               0
            Conv2d-5            [-1, 192, 6, 6]         166,080
              ReLU-6            [-1, 192, 6, 6]               0
            Conv2d-7             [-1, 24, 3, 3]          41,496
              ReLU-8             [-1, 24, 3, 3]               0
           Flatten-9                  [-1, 216]               0
           Linear-10                  [-1, 108]          23,436
             ReLU-11                  [-1, 108]               0
           Linear-12                   [-1, 54]           5,886
             ReLU-13                   [-1, 54]               0
           Linear-14                  [-1, 324]          17,820
             ReLU-15                  [-1, 324]               0
           Linear-16                  [-1, 216]          70,200
             ReLU-17                  [-1, 216]               0
        Unflatten-18             [-1, 24, 3, 3]               0
  ConvTranspose2d-19            [-1, 192, 6, 6]          41,664
             ReLU-20            [-1, 192, 6, 6]               0
  ConvTranspose2d-21             [-1, 96, 8, 8]         165,984
             ReLU-22             [-1, 96, 8, 8]               0
  ConvTranspose2d-23           [-1, 48, 12, 12]          18,480
             ReLU-24           [-1, 48, 12, 12]               0
  ConvTranspose2d-25            [-1, 1, 24, 24]             433
================================================================
Total params: 570,487
Trainable params: 117,342
Non-trainable params: 453,145
----------------------------------------------------------------
Input size (MB): 0.00
Forward/backward pass size (MB): 0.63
Params size (MB): 2.18
Estimated Total Size (MB): 2.81
----------------------------------------------------------------
None
Training started!! - Reconstruction
…
written to: ./models/img/14.5.20231123070202_img.pt
Elapsed time: 8635.255770921707 seconds.
Iteration config: 14
[Linear(in_features=216, out_features=108, bias=True), ReLU(), Linear(in_features=108, out_features=54, bias=True), ReLU(), Linear(in_features=54, out_features=432, bias=True), ReLU(), Linear(in_features=432, out_features=216, bias=True), ReLU()]


Dataset loaded!! Length (train dataset) - 24000
----------------------------------------------------------------
        Layer (type)               Output Shape         Param #
================================================================
            Conv2d-1           [-1, 48, 12, 12]             480
              ReLU-2           [-1, 48, 12, 12]               0
            Conv2d-3             [-1, 96, 8, 8]          18,528
              ReLU-4             [-1, 96, 8, 8]               0
            Conv2d-5            [-1, 192, 6, 6]         166,080
              ReLU-6            [-1, 192, 6, 6]               0
            Conv2d-7             [-1, 24, 3, 3]          41,496
              ReLU-8             [-1, 24, 3, 3]               0
           Flatten-9                  [-1, 216]               0
           Linear-10                  [-1, 108]          23,436
             ReLU-11                  [-1, 108]               0
           Linear-12                   [-1, 54]           5,886
             ReLU-13                   [-1, 54]               0
           Linear-14                  [-1, 432]          23,760
             ReLU-15                  [-1, 432]               0
           Linear-16                  [-1, 216]          93,528
             ReLU-17                  [-1, 216]               0
        Unflatten-18             [-1, 24, 3, 3]               0
  ConvTranspose2d-19            [-1, 192, 6, 6]          41,664
             ReLU-20            [-1, 192, 6, 6]               0
  ConvTranspose2d-21             [-1, 96, 8, 8]         165,984
             ReLU-22             [-1, 96, 8, 8]               0
  ConvTranspose2d-23           [-1, 48, 12, 12]          18,480
             ReLU-24           [-1, 48, 12, 12]               0
  ConvTranspose2d-25            [-1, 1, 24, 24]             433
================================================================
Total params: 599,755
Trainable params: 146,610
Non-trainable params: 453,145
----------------------------------------------------------------
Input size (MB): 0.00
Forward/backward pass size (MB): 0.63
Params size (MB): 2.29
Estimated Total Size (MB): 2.92
----------------------------------------------------------------
None
Training started!! - Reconstruction
…
written to: ./models/img/14.5.20231123071220_img.pt
Elapsed time: 9253.182869911194 seconds.
Iteration config: 15
[Linear(in_features=216, out_features=108, bias=True), ReLU(), Linear(in_features=108, out_features=324, bias=True), ReLU(), Linear(in_features=324, out_features=108, bias=True), ReLU(), Linear(in_features=108, out_features=216, bias=True), ReLU()]


Dataset loaded!! Length (train dataset) - 24000
----------------------------------------------------------------
        Layer (type)               Output Shape         Param #
================================================================
            Conv2d-1           [-1, 48, 12, 12]             480
              ReLU-2           [-1, 48, 12, 12]               0
            Conv2d-3             [-1, 96, 8, 8]          18,528
              ReLU-4             [-1, 96, 8, 8]               0
            Conv2d-5            [-1, 192, 6, 6]         166,080
              ReLU-6            [-1, 192, 6, 6]               0
            Conv2d-7             [-1, 24, 3, 3]          41,496
              ReLU-8             [-1, 24, 3, 3]               0
           Flatten-9                  [-1, 216]               0
           Linear-10                  [-1, 108]          23,436
             ReLU-11                  [-1, 108]               0
           Linear-12                  [-1, 324]          35,316
             ReLU-13                  [-1, 324]               0
           Linear-14                  [-1, 108]          35,100
             ReLU-15                  [-1, 108]               0
           Linear-16                  [-1, 216]          23,544
             ReLU-17                  [-1, 216]               0
        Unflatten-18             [-1, 24, 3, 3]               0
  ConvTranspose2d-19            [-1, 192, 6, 6]          41,664
             ReLU-20            [-1, 192, 6, 6]               0
  ConvTranspose2d-21             [-1, 96, 8, 8]         165,984
             ReLU-22             [-1, 96, 8, 8]               0
  ConvTranspose2d-23           [-1, 48, 12, 12]          18,480
             ReLU-24           [-1, 48, 12, 12]               0
  ConvTranspose2d-25            [-1, 1, 24, 24]             433
================================================================
Total params: 570,541
Trainable params: 117,396
Non-trainable params: 453,145
----------------------------------------------------------------
Input size (MB): 0.00
Forward/backward pass size (MB): 0.63
Params size (MB): 2.18
Estimated Total Size (MB): 2.81
----------------------------------------------------------------
None
Training started!! - Reconstruction
…
written to: ./models/img/14.5.20231123072238_img.pt
Elapsed time: 9871.89081287384 seconds.
Iteration config: 16
[Linear(in_features=216, out_features=108, bias=True), ReLU(), Linear(in_features=108, out_features=324, bias=True), ReLU(), Linear(in_features=324, out_features=144, bias=True), ReLU(), Linear(in_features=144, out_features=216, bias=True), ReLU()]


Dataset loaded!! Length (train dataset) - 24000
----------------------------------------------------------------
        Layer (type)               Output Shape         Param #
================================================================
            Conv2d-1           [-1, 48, 12, 12]             480
              ReLU-2           [-1, 48, 12, 12]               0
            Conv2d-3             [-1, 96, 8, 8]          18,528
              ReLU-4             [-1, 96, 8, 8]               0
            Conv2d-5            [-1, 192, 6, 6]         166,080
              ReLU-6            [-1, 192, 6, 6]               0
            Conv2d-7             [-1, 24, 3, 3]          41,496
              ReLU-8             [-1, 24, 3, 3]               0
           Flatten-9                  [-1, 216]               0
           Linear-10                  [-1, 108]          23,436
             ReLU-11                  [-1, 108]               0
           Linear-12                  [-1, 324]          35,316
             ReLU-13                  [-1, 324]               0
           Linear-14                  [-1, 144]          46,800
             ReLU-15                  [-1, 144]               0
           Linear-16                  [-1, 216]          31,320
             ReLU-17                  [-1, 216]               0
        Unflatten-18             [-1, 24, 3, 3]               0
  ConvTranspose2d-19            [-1, 192, 6, 6]          41,664
             ReLU-20            [-1, 192, 6, 6]               0
  ConvTranspose2d-21             [-1, 96, 8, 8]         165,984
             ReLU-22             [-1, 96, 8, 8]               0
  ConvTranspose2d-23           [-1, 48, 12, 12]          18,480
             ReLU-24           [-1, 48, 12, 12]               0
  ConvTranspose2d-25            [-1, 1, 24, 24]             433
================================================================
Total params: 590,017
Trainable params: 136,872
Non-trainable params: 453,145
----------------------------------------------------------------
Input size (MB): 0.00
Forward/backward pass size (MB): 0.63
Params size (MB): 2.25
Estimated Total Size (MB): 2.89
----------------------------------------------------------------
None
Training started!! - Reconstruction
…
written to: ./models/img/14.5.20231123073257_img.pt
Elapsed time: 10489.25892996788 seconds.
Iteration config: 17
[Linear(in_features=216, out_features=108, bias=True), ReLU(), Linear(in_features=108, out_features=324, bias=True), ReLU(), Linear(in_features=324, out_features=54, bias=True), ReLU(), Linear(in_features=54, out_features=216, bias=True), ReLU()]


Dataset loaded!! Length (train dataset) - 24000
----------------------------------------------------------------
        Layer (type)               Output Shape         Param #
================================================================
            Conv2d-1           [-1, 48, 12, 12]             480
              ReLU-2           [-1, 48, 12, 12]               0
            Conv2d-3             [-1, 96, 8, 8]          18,528
              ReLU-4             [-1, 96, 8, 8]               0
            Conv2d-5            [-1, 192, 6, 6]         166,080
              ReLU-6            [-1, 192, 6, 6]               0
            Conv2d-7             [-1, 24, 3, 3]          41,496
              ReLU-8             [-1, 24, 3, 3]               0
           Flatten-9                  [-1, 216]               0
           Linear-10                  [-1, 108]          23,436
             ReLU-11                  [-1, 108]               0
           Linear-12                  [-1, 324]          35,316
             ReLU-13                  [-1, 324]               0
           Linear-14                   [-1, 54]          17,550
             ReLU-15                   [-1, 54]               0
           Linear-16                  [-1, 216]          11,880
             ReLU-17                  [-1, 216]               0
        Unflatten-18             [-1, 24, 3, 3]               0
  ConvTranspose2d-19            [-1, 192, 6, 6]          41,664
             ReLU-20            [-1, 192, 6, 6]               0
  ConvTranspose2d-21             [-1, 96, 8, 8]         165,984
             ReLU-22             [-1, 96, 8, 8]               0
  ConvTranspose2d-23           [-1, 48, 12, 12]          18,480
             ReLU-24           [-1, 48, 12, 12]               0
  ConvTranspose2d-25            [-1, 1, 24, 24]             433
================================================================
Total params: 541,327
Trainable params: 88,182
Non-trainable params: 453,145
----------------------------------------------------------------
Input size (MB): 0.00
Forward/backward pass size (MB): 0.63
Params size (MB): 2.06
Estimated Total Size (MB): 2.70
----------------------------------------------------------------
None
Training started!! - Reconstruction
…
written to: ./models/img/14.5.20231123074314_img.pt
Elapsed time: 11107.365410089493 seconds.
Iteration config: 18
[Linear(in_features=216, out_features=108, bias=True), ReLU(), Linear(in_features=108, out_features=324, bias=True), ReLU(), Linear(in_features=324, out_features=324, bias=True), ReLU(), Linear(in_features=324, out_features=216, bias=True), ReLU()]


Dataset loaded!! Length (train dataset) - 24000
----------------------------------------------------------------
        Layer (type)               Output Shape         Param #
================================================================
            Conv2d-1           [-1, 48, 12, 12]             480
              ReLU-2           [-1, 48, 12, 12]               0
            Conv2d-3             [-1, 96, 8, 8]          18,528
              ReLU-4             [-1, 96, 8, 8]               0
            Conv2d-5            [-1, 192, 6, 6]         166,080
              ReLU-6            [-1, 192, 6, 6]               0
            Conv2d-7             [-1, 24, 3, 3]          41,496
              ReLU-8             [-1, 24, 3, 3]               0
           Flatten-9                  [-1, 216]               0
           Linear-10                  [-1, 108]          23,436
             ReLU-11                  [-1, 108]               0
           Linear-12                  [-1, 324]          35,316
             ReLU-13                  [-1, 324]               0
           Linear-14                  [-1, 324]         105,300
             ReLU-15                  [-1, 324]               0
           Linear-16                  [-1, 216]          70,200
             ReLU-17                  [-1, 216]               0
        Unflatten-18             [-1, 24, 3, 3]               0
  ConvTranspose2d-19            [-1, 192, 6, 6]          41,664
             ReLU-20            [-1, 192, 6, 6]               0
  ConvTranspose2d-21             [-1, 96, 8, 8]         165,984
             ReLU-22             [-1, 96, 8, 8]               0
  ConvTranspose2d-23           [-1, 48, 12, 12]          18,480
             ReLU-24           [-1, 48, 12, 12]               0
  ConvTranspose2d-25            [-1, 1, 24, 24]             433
================================================================
Total params: 687,397
Trainable params: 234,252
Non-trainable params: 453,145
----------------------------------------------------------------
Input size (MB): 0.00
Forward/backward pass size (MB): 0.64
Params size (MB): 2.62
Estimated Total Size (MB): 3.26
----------------------------------------------------------------
None
Training started!! - Reconstruction
…
written to: ./models/img/14.5.20231123075332_img.pt
Elapsed time: 11725.401423692703 seconds.
Iteration config: 19
[Linear(in_features=216, out_features=108, bias=True), ReLU(), Linear(in_features=108, out_features=324, bias=True), ReLU(), Linear(in_features=324, out_features=432, bias=True), ReLU(), Linear(in_features=432, out_features=216, bias=True), ReLU()]


Dataset loaded!! Length (train dataset) - 24000
----------------------------------------------------------------
        Layer (type)               Output Shape         Param #
================================================================
            Conv2d-1           [-1, 48, 12, 12]             480
              ReLU-2           [-1, 48, 12, 12]               0
            Conv2d-3             [-1, 96, 8, 8]          18,528
              ReLU-4             [-1, 96, 8, 8]               0
            Conv2d-5            [-1, 192, 6, 6]         166,080
              ReLU-6            [-1, 192, 6, 6]               0
            Conv2d-7             [-1, 24, 3, 3]          41,496
              ReLU-8             [-1, 24, 3, 3]               0
           Flatten-9                  [-1, 216]               0
           Linear-10                  [-1, 108]          23,436
             ReLU-11                  [-1, 108]               0
           Linear-12                  [-1, 324]          35,316
             ReLU-13                  [-1, 324]               0
           Linear-14                  [-1, 432]         140,400
             ReLU-15                  [-1, 432]               0
           Linear-16                  [-1, 216]          93,528
             ReLU-17                  [-1, 216]               0
        Unflatten-18             [-1, 24, 3, 3]               0
  ConvTranspose2d-19            [-1, 192, 6, 6]          41,664
             ReLU-20            [-1, 192, 6, 6]               0
  ConvTranspose2d-21             [-1, 96, 8, 8]         165,984
             ReLU-22             [-1, 96, 8, 8]               0
  ConvTranspose2d-23           [-1, 48, 12, 12]          18,480
             ReLU-24           [-1, 48, 12, 12]               0
  ConvTranspose2d-25            [-1, 1, 24, 24]             433
================================================================
Total params: 745,825
Trainable params: 292,680
Non-trainable params: 453,145
----------------------------------------------------------------
Input size (MB): 0.00
Forward/backward pass size (MB): 0.64
Params size (MB): 2.85
Estimated Total Size (MB): 3.48
----------------------------------------------------------------
None
Training started!! - Reconstruction
…
written to: ./models/img/14.5.20231123080350_img.pt
Elapsed time: 12364.188690900803 seconds.
Iteration config: 20
[Linear(in_features=216, out_features=108, bias=True), ReLU(), Linear(in_features=108, out_features=432, bias=True), ReLU(), Linear(in_features=432, out_features=108, bias=True), ReLU(), Linear(in_features=108, out_features=216, bias=True), ReLU()]


Dataset loaded!! Length (train dataset) - 24000
----------------------------------------------------------------
        Layer (type)               Output Shape         Param #
================================================================
            Conv2d-1           [-1, 48, 12, 12]             480
              ReLU-2           [-1, 48, 12, 12]               0
            Conv2d-3             [-1, 96, 8, 8]          18,528
              ReLU-4             [-1, 96, 8, 8]               0
            Conv2d-5            [-1, 192, 6, 6]         166,080
              ReLU-6            [-1, 192, 6, 6]               0
            Conv2d-7             [-1, 24, 3, 3]          41,496
              ReLU-8             [-1, 24, 3, 3]               0
           Flatten-9                  [-1, 216]               0
           Linear-10                  [-1, 108]          23,436
             ReLU-11                  [-1, 108]               0
           Linear-12                  [-1, 432]          47,088
             ReLU-13                  [-1, 432]               0
           Linear-14                  [-1, 108]          46,764
             ReLU-15                  [-1, 108]               0
           Linear-16                  [-1, 216]          23,544
             ReLU-17                  [-1, 216]               0
        Unflatten-18             [-1, 24, 3, 3]               0
  ConvTranspose2d-19            [-1, 192, 6, 6]          41,664
             ReLU-20            [-1, 192, 6, 6]               0
  ConvTranspose2d-21             [-1, 96, 8, 8]         165,984
             ReLU-22             [-1, 96, 8, 8]               0
  ConvTranspose2d-23           [-1, 48, 12, 12]          18,480
             ReLU-24           [-1, 48, 12, 12]               0
  ConvTranspose2d-25            [-1, 1, 24, 24]             433
================================================================
Total params: 593,977
Trainable params: 140,832
Non-trainable params: 453,145
----------------------------------------------------------------
Input size (MB): 0.00
Forward/backward pass size (MB): 0.63
Params size (MB): 2.27
Estimated Total Size (MB): 2.90
----------------------------------------------------------------
None
Training started!! - Reconstruction
…
written to: ./models/img/14.5.20231123081429_img.pt
Elapsed time: 12982.300654649734 seconds.
Iteration config: 21
[Linear(in_features=216, out_features=108, bias=True), ReLU(), Linear(in_features=108, out_features=432, bias=True), ReLU(), Linear(in_features=432, out_features=144, bias=True), ReLU(), Linear(in_features=144, out_features=216, bias=True), ReLU()]


Dataset loaded!! Length (train dataset) - 24000
----------------------------------------------------------------
        Layer (type)               Output Shape         Param #
================================================================
            Conv2d-1           [-1, 48, 12, 12]             480
              ReLU-2           [-1, 48, 12, 12]               0
            Conv2d-3             [-1, 96, 8, 8]          18,528
              ReLU-4             [-1, 96, 8, 8]               0
            Conv2d-5            [-1, 192, 6, 6]         166,080
              ReLU-6            [-1, 192, 6, 6]               0
            Conv2d-7             [-1, 24, 3, 3]          41,496
              ReLU-8             [-1, 24, 3, 3]               0
           Flatten-9                  [-1, 216]               0
           Linear-10                  [-1, 108]          23,436
             ReLU-11                  [-1, 108]               0
           Linear-12                  [-1, 432]          47,088
             ReLU-13                  [-1, 432]               0
           Linear-14                  [-1, 144]          62,352
             ReLU-15                  [-1, 144]               0
           Linear-16                  [-1, 216]          31,320
             ReLU-17                  [-1, 216]               0
        Unflatten-18             [-1, 24, 3, 3]               0
  ConvTranspose2d-19            [-1, 192, 6, 6]          41,664
             ReLU-20            [-1, 192, 6, 6]               0
  ConvTranspose2d-21             [-1, 96, 8, 8]         165,984
             ReLU-22             [-1, 96, 8, 8]               0
  ConvTranspose2d-23           [-1, 48, 12, 12]          18,480
             ReLU-24           [-1, 48, 12, 12]               0
  ConvTranspose2d-25            [-1, 1, 24, 24]             433
================================================================
Total params: 617,341
Trainable params: 164,196
Non-trainable params: 453,145
----------------------------------------------------------------
Input size (MB): 0.00
Forward/backward pass size (MB): 0.63
Params size (MB): 2.35
Estimated Total Size (MB): 2.99
----------------------------------------------------------------
None
Training started!! - Reconstruction
…
written to: ./models/img/14.5.20231123082447_img.pt
Elapsed time: 13601.642259836197 seconds.
Iteration config: 22
[Linear(in_features=216, out_features=108, bias=True), ReLU(), Linear(in_features=108, out_features=432, bias=True), ReLU(), Linear(in_features=432, out_features=54, bias=True), ReLU(), Linear(in_features=54, out_features=216, bias=True), ReLU()]


Dataset loaded!! Length (train dataset) - 24000
----------------------------------------------------------------
        Layer (type)               Output Shape         Param #
================================================================
            Conv2d-1           [-1, 48, 12, 12]             480
              ReLU-2           [-1, 48, 12, 12]               0
            Conv2d-3             [-1, 96, 8, 8]          18,528
              ReLU-4             [-1, 96, 8, 8]               0
            Conv2d-5            [-1, 192, 6, 6]         166,080
              ReLU-6            [-1, 192, 6, 6]               0
            Conv2d-7             [-1, 24, 3, 3]          41,496
              ReLU-8             [-1, 24, 3, 3]               0
           Flatten-9                  [-1, 216]               0
           Linear-10                  [-1, 108]          23,436
             ReLU-11                  [-1, 108]               0
           Linear-12                  [-1, 432]          47,088
             ReLU-13                  [-1, 432]               0
           Linear-14                   [-1, 54]          23,382
             ReLU-15                   [-1, 54]               0
           Linear-16                  [-1, 216]          11,880
             ReLU-17                  [-1, 216]               0
        Unflatten-18             [-1, 24, 3, 3]               0
  ConvTranspose2d-19            [-1, 192, 6, 6]          41,664
             ReLU-20            [-1, 192, 6, 6]               0
  ConvTranspose2d-21             [-1, 96, 8, 8]         165,984
             ReLU-22             [-1, 96, 8, 8]               0
  ConvTranspose2d-23           [-1, 48, 12, 12]          18,480
             ReLU-24           [-1, 48, 12, 12]               0
  ConvTranspose2d-25            [-1, 1, 24, 24]             433
================================================================
Total params: 558,931
Trainable params: 105,786
Non-trainable params: 453,145
----------------------------------------------------------------
Input size (MB): 0.00
Forward/backward pass size (MB): 0.63
Params size (MB): 2.13
Estimated Total Size (MB): 2.77
----------------------------------------------------------------
None
Training started!! - Reconstruction
…
written to: ./models/img/14.5.20231123083507_img.pt
Elapsed time: 14220.510652780533 seconds.
Iteration config: 23
[Linear(in_features=216, out_features=108, bias=True), ReLU(), Linear(in_features=108, out_features=432, bias=True), ReLU(), Linear(in_features=432, out_features=324, bias=True), ReLU(), Linear(in_features=324, out_features=216, bias=True), ReLU()]


Dataset loaded!! Length (train dataset) - 24000
----------------------------------------------------------------
        Layer (type)               Output Shape         Param #
================================================================
            Conv2d-1           [-1, 48, 12, 12]             480
              ReLU-2           [-1, 48, 12, 12]               0
            Conv2d-3             [-1, 96, 8, 8]          18,528
              ReLU-4             [-1, 96, 8, 8]               0
            Conv2d-5            [-1, 192, 6, 6]         166,080
              ReLU-6            [-1, 192, 6, 6]               0
            Conv2d-7             [-1, 24, 3, 3]          41,496
              ReLU-8             [-1, 24, 3, 3]               0
           Flatten-9                  [-1, 216]               0
           Linear-10                  [-1, 108]          23,436
             ReLU-11                  [-1, 108]               0
           Linear-12                  [-1, 432]          47,088
             ReLU-13                  [-1, 432]               0
           Linear-14                  [-1, 324]         140,292
             ReLU-15                  [-1, 324]               0
           Linear-16                  [-1, 216]          70,200
             ReLU-17                  [-1, 216]               0
        Unflatten-18             [-1, 24, 3, 3]               0
  ConvTranspose2d-19            [-1, 192, 6, 6]          41,664
             ReLU-20            [-1, 192, 6, 6]               0
  ConvTranspose2d-21             [-1, 96, 8, 8]         165,984
             ReLU-22             [-1, 96, 8, 8]               0
  ConvTranspose2d-23           [-1, 48, 12, 12]          18,480
             ReLU-24           [-1, 48, 12, 12]               0
  ConvTranspose2d-25            [-1, 1, 24, 24]             433
================================================================
Total params: 734,161
Trainable params: 281,016
Non-trainable params: 453,145
----------------------------------------------------------------
Input size (MB): 0.00
Forward/backward pass size (MB): 0.64
Params size (MB): 2.80
Estimated Total Size (MB): 3.44
----------------------------------------------------------------
None
Training started!! - Reconstruction
…
written to: ./models/img/14.5.20231123084525_img.pt
Elapsed time: 14859.498345136642 seconds.
Iteration config: 24
[Linear(in_features=216, out_features=108, bias=True), ReLU(), Linear(in_features=108, out_features=432, bias=True), ReLU(), Linear(in_features=432, out_features=432, bias=True), ReLU(), Linear(in_features=432, out_features=216, bias=True), ReLU()]


Dataset loaded!! Length (train dataset) - 24000
----------------------------------------------------------------
        Layer (type)               Output Shape         Param #
================================================================
            Conv2d-1           [-1, 48, 12, 12]             480
              ReLU-2           [-1, 48, 12, 12]               0
            Conv2d-3             [-1, 96, 8, 8]          18,528
              ReLU-4             [-1, 96, 8, 8]               0
            Conv2d-5            [-1, 192, 6, 6]         166,080
              ReLU-6            [-1, 192, 6, 6]               0
            Conv2d-7             [-1, 24, 3, 3]          41,496
              ReLU-8             [-1, 24, 3, 3]               0
           Flatten-9                  [-1, 216]               0
           Linear-10                  [-1, 108]          23,436
             ReLU-11                  [-1, 108]               0
           Linear-12                  [-1, 432]          47,088
             ReLU-13                  [-1, 432]               0
           Linear-14                  [-1, 432]         187,056
             ReLU-15                  [-1, 432]               0
           Linear-16                  [-1, 216]          93,528
             ReLU-17                  [-1, 216]               0
        Unflatten-18             [-1, 24, 3, 3]               0
  ConvTranspose2d-19            [-1, 192, 6, 6]          41,664
             ReLU-20            [-1, 192, 6, 6]               0
  ConvTranspose2d-21             [-1, 96, 8, 8]         165,984
             ReLU-22             [-1, 96, 8, 8]               0
  ConvTranspose2d-23           [-1, 48, 12, 12]          18,480
             ReLU-24           [-1, 48, 12, 12]               0
  ConvTranspose2d-25            [-1, 1, 24, 24]             433
================================================================
Total params: 804,253
Trainable params: 351,108
Non-trainable params: 453,145
----------------------------------------------------------------
Input size (MB): 0.00
Forward/backward pass size (MB): 0.64
Params size (MB): 3.07
Estimated Total Size (MB): 3.71
----------------------------------------------------------------
None
Training started!! - Reconstruction
…
written to: ./models/img/14.5.20231123085604_img.pt
Elapsed time: 15498.835958719254 seconds.
Iteration config: 25
[Linear(in_features=216, out_features=144, bias=True), ReLU(), Linear(in_features=144, out_features=108, bias=True), ReLU(), Linear(in_features=108, out_features=108, bias=True), ReLU(), Linear(in_features=108, out_features=216, bias=True), ReLU()]


Dataset loaded!! Length (train dataset) - 24000
----------------------------------------------------------------
        Layer (type)               Output Shape         Param #
================================================================
            Conv2d-1           [-1, 48, 12, 12]             480
              ReLU-2           [-1, 48, 12, 12]               0
            Conv2d-3             [-1, 96, 8, 8]          18,528
              ReLU-4             [-1, 96, 8, 8]               0
            Conv2d-5            [-1, 192, 6, 6]         166,080
              ReLU-6            [-1, 192, 6, 6]               0
            Conv2d-7             [-1, 24, 3, 3]          41,496
              ReLU-8             [-1, 24, 3, 3]               0
           Flatten-9                  [-1, 216]               0
           Linear-10                  [-1, 144]          31,248
             ReLU-11                  [-1, 144]               0
           Linear-12                  [-1, 108]          15,660
             ReLU-13                  [-1, 108]               0
           Linear-14                  [-1, 108]          11,772
             ReLU-15                  [-1, 108]               0
           Linear-16                  [-1, 216]          23,544
             ReLU-17                  [-1, 216]               0
        Unflatten-18             [-1, 24, 3, 3]               0
  ConvTranspose2d-19            [-1, 192, 6, 6]          41,664
             ReLU-20            [-1, 192, 6, 6]               0
  ConvTranspose2d-21             [-1, 96, 8, 8]         165,984
             ReLU-22             [-1, 96, 8, 8]               0
  ConvTranspose2d-23           [-1, 48, 12, 12]          18,480
             ReLU-24           [-1, 48, 12, 12]               0
  ConvTranspose2d-25            [-1, 1, 24, 24]             433
================================================================
Total params: 535,369
Trainable params: 82,224
Non-trainable params: 453,145
----------------------------------------------------------------
Input size (MB): 0.00
Forward/backward pass size (MB): 0.63
Params size (MB): 2.04
Estimated Total Size (MB): 2.67
----------------------------------------------------------------
None
Training started!! - Reconstruction
…
written to: ./models/img/14.5.20231123090644_img.pt
Elapsed time: 16117.553656578064 seconds.
Iteration config: 26
[Linear(in_features=216, out_features=144, bias=True), ReLU(), Linear(in_features=144, out_features=108, bias=True), ReLU(), Linear(in_features=108, out_features=144, bias=True), ReLU(), Linear(in_features=144, out_features=216, bias=True), ReLU()]


Dataset loaded!! Length (train dataset) - 24000
----------------------------------------------------------------
        Layer (type)               Output Shape         Param #
================================================================
            Conv2d-1           [-1, 48, 12, 12]             480
              ReLU-2           [-1, 48, 12, 12]               0
            Conv2d-3             [-1, 96, 8, 8]          18,528
              ReLU-4             [-1, 96, 8, 8]               0
            Conv2d-5            [-1, 192, 6, 6]         166,080
              ReLU-6            [-1, 192, 6, 6]               0
            Conv2d-7             [-1, 24, 3, 3]          41,496
              ReLU-8             [-1, 24, 3, 3]               0
           Flatten-9                  [-1, 216]               0
           Linear-10                  [-1, 144]          31,248
             ReLU-11                  [-1, 144]               0
           Linear-12                  [-1, 108]          15,660
             ReLU-13                  [-1, 108]               0
           Linear-14                  [-1, 144]          15,696
             ReLU-15                  [-1, 144]               0
           Linear-16                  [-1, 216]          31,320
             ReLU-17                  [-1, 216]               0
        Unflatten-18             [-1, 24, 3, 3]               0
  ConvTranspose2d-19            [-1, 192, 6, 6]          41,664
             ReLU-20            [-1, 192, 6, 6]               0
  ConvTranspose2d-21             [-1, 96, 8, 8]         165,984
             ReLU-22             [-1, 96, 8, 8]               0
  ConvTranspose2d-23           [-1, 48, 12, 12]          18,480
             ReLU-24           [-1, 48, 12, 12]               0
  ConvTranspose2d-25            [-1, 1, 24, 24]             433
================================================================
Total params: 547,069
Trainable params: 93,924
Non-trainable params: 453,145
----------------------------------------------------------------
Input size (MB): 0.00
Forward/backward pass size (MB): 0.63
Params size (MB): 2.09
Estimated Total Size (MB): 2.72
----------------------------------------------------------------
None
Training started!! - Reconstruction
…
written to: ./models/img/14.5.20231123091702_img.pt
Elapsed time: 16736.160177469254 seconds.
Iteration config: 27
[Linear(in_features=216, out_features=144, bias=True), ReLU(), Linear(in_features=144, out_features=108, bias=True), ReLU(), Linear(in_features=108, out_features=54, bias=True), ReLU(), Linear(in_features=54, out_features=216, bias=True), ReLU()]


Dataset loaded!! Length (train dataset) - 24000
----------------------------------------------------------------
        Layer (type)               Output Shape         Param #
================================================================
            Conv2d-1           [-1, 48, 12, 12]             480
              ReLU-2           [-1, 48, 12, 12]               0
            Conv2d-3             [-1, 96, 8, 8]          18,528
              ReLU-4             [-1, 96, 8, 8]               0
            Conv2d-5            [-1, 192, 6, 6]         166,080
              ReLU-6            [-1, 192, 6, 6]               0
            Conv2d-7             [-1, 24, 3, 3]          41,496
              ReLU-8             [-1, 24, 3, 3]               0
           Flatten-9                  [-1, 216]               0
           Linear-10                  [-1, 144]          31,248
             ReLU-11                  [-1, 144]               0
           Linear-12                  [-1, 108]          15,660
             ReLU-13                  [-1, 108]               0
           Linear-14                   [-1, 54]           5,886
             ReLU-15                   [-1, 54]               0
           Linear-16                  [-1, 216]          11,880
             ReLU-17                  [-1, 216]               0
        Unflatten-18             [-1, 24, 3, 3]               0
  ConvTranspose2d-19            [-1, 192, 6, 6]          41,664
             ReLU-20            [-1, 192, 6, 6]               0
  ConvTranspose2d-21             [-1, 96, 8, 8]         165,984
             ReLU-22             [-1, 96, 8, 8]               0
  ConvTranspose2d-23           [-1, 48, 12, 12]          18,480
             ReLU-24           [-1, 48, 12, 12]               0
  ConvTranspose2d-25            [-1, 1, 24, 24]             433
================================================================
Total params: 517,819
Trainable params: 64,674
Non-trainable params: 453,145
----------------------------------------------------------------
Input size (MB): 0.00
Forward/backward pass size (MB): 0.63
Params size (MB): 1.98
Estimated Total Size (MB): 2.61
----------------------------------------------------------------
None
Training started!! - Reconstruction
…
written to: ./models/img/14.5.20231123092721_img.pt
Elapsed time: 17356.958909749985 seconds.
Iteration config: 28
[Linear(in_features=216, out_features=144, bias=True), ReLU(), Linear(in_features=144, out_features=108, bias=True), ReLU(), Linear(in_features=108, out_features=324, bias=True), ReLU(), Linear(in_features=324, out_features=216, bias=True), ReLU()]


Dataset loaded!! Length (train dataset) - 24000
----------------------------------------------------------------
        Layer (type)               Output Shape         Param #
================================================================
            Conv2d-1           [-1, 48, 12, 12]             480
              ReLU-2           [-1, 48, 12, 12]               0
            Conv2d-3             [-1, 96, 8, 8]          18,528
              ReLU-4             [-1, 96, 8, 8]               0
            Conv2d-5            [-1, 192, 6, 6]         166,080
              ReLU-6            [-1, 192, 6, 6]               0
            Conv2d-7             [-1, 24, 3, 3]          41,496
              ReLU-8             [-1, 24, 3, 3]               0
           Flatten-9                  [-1, 216]               0
           Linear-10                  [-1, 144]          31,248
             ReLU-11                  [-1, 144]               0
           Linear-12                  [-1, 108]          15,660
             ReLU-13                  [-1, 108]               0
           Linear-14                  [-1, 324]          35,316
             ReLU-15                  [-1, 324]               0
           Linear-16                  [-1, 216]          70,200
             ReLU-17                  [-1, 216]               0
        Unflatten-18             [-1, 24, 3, 3]               0
  ConvTranspose2d-19            [-1, 192, 6, 6]          41,664
             ReLU-20            [-1, 192, 6, 6]               0
  ConvTranspose2d-21             [-1, 96, 8, 8]         165,984
             ReLU-22             [-1, 96, 8, 8]               0
  ConvTranspose2d-23           [-1, 48, 12, 12]          18,480
             ReLU-24           [-1, 48, 12, 12]               0
  ConvTranspose2d-25            [-1, 1, 24, 24]             433
================================================================
Total params: 605,569
Trainable params: 152,424
Non-trainable params: 453,145
----------------------------------------------------------------
Input size (MB): 0.00
Forward/backward pass size (MB): 0.63
Params size (MB): 2.31
Estimated Total Size (MB): 2.94
----------------------------------------------------------------
None
Training started!! - Reconstruction
…
written to: ./models/img/14.5.20231123093742_img.pt
Elapsed time: 17978.92666196823 seconds.
Iteration config: 29
[Linear(in_features=216, out_features=144, bias=True), ReLU(), Linear(in_features=144, out_features=108, bias=True), ReLU(), Linear(in_features=108, out_features=432, bias=True), ReLU(), Linear(in_features=432, out_features=216, bias=True), ReLU()]


Dataset loaded!! Length (train dataset) - 24000
----------------------------------------------------------------
        Layer (type)               Output Shape         Param #
================================================================
            Conv2d-1           [-1, 48, 12, 12]             480
              ReLU-2           [-1, 48, 12, 12]               0
            Conv2d-3             [-1, 96, 8, 8]          18,528
              ReLU-4             [-1, 96, 8, 8]               0
            Conv2d-5            [-1, 192, 6, 6]         166,080
              ReLU-6            [-1, 192, 6, 6]               0
            Conv2d-7             [-1, 24, 3, 3]          41,496
              ReLU-8             [-1, 24, 3, 3]               0
           Flatten-9                  [-1, 216]               0
           Linear-10                  [-1, 144]          31,248
             ReLU-11                  [-1, 144]               0
           Linear-12                  [-1, 108]          15,660
             ReLU-13                  [-1, 108]               0
           Linear-14                  [-1, 432]          47,088
             ReLU-15                  [-1, 432]               0
           Linear-16                  [-1, 216]          93,528
             ReLU-17                  [-1, 216]               0
        Unflatten-18             [-1, 24, 3, 3]               0
  ConvTranspose2d-19            [-1, 192, 6, 6]          41,664
             ReLU-20            [-1, 192, 6, 6]               0
  ConvTranspose2d-21             [-1, 96, 8, 8]         165,984
             ReLU-22             [-1, 96, 8, 8]               0
  ConvTranspose2d-23           [-1, 48, 12, 12]          18,480
             ReLU-24           [-1, 48, 12, 12]               0
  ConvTranspose2d-25            [-1, 1, 24, 24]             433
================================================================
Total params: 640,669
Trainable params: 187,524
Non-trainable params: 453,145
----------------------------------------------------------------
Input size (MB): 0.00
Forward/backward pass size (MB): 0.63
Params size (MB): 2.44
Estimated Total Size (MB): 3.08
----------------------------------------------------------------
None
Training started!! - Reconstruction
…
written to: ./models/img/14.5.20231123094804_img.pt
Elapsed time: 18599.12175989151 seconds.
Iteration config: 30
[Linear(in_features=216, out_features=144, bias=True), ReLU(), Linear(in_features=144, out_features=144, bias=True), ReLU(), Linear(in_features=144, out_features=108, bias=True), ReLU(), Linear(in_features=108, out_features=216, bias=True), ReLU()]


Dataset loaded!! Length (train dataset) - 24000
----------------------------------------------------------------
        Layer (type)               Output Shape         Param #
================================================================
            Conv2d-1           [-1, 48, 12, 12]             480
              ReLU-2           [-1, 48, 12, 12]               0
            Conv2d-3             [-1, 96, 8, 8]          18,528
              ReLU-4             [-1, 96, 8, 8]               0
            Conv2d-5            [-1, 192, 6, 6]         166,080
              ReLU-6            [-1, 192, 6, 6]               0
            Conv2d-7             [-1, 24, 3, 3]          41,496
              ReLU-8             [-1, 24, 3, 3]               0
           Flatten-9                  [-1, 216]               0
           Linear-10                  [-1, 144]          31,248
             ReLU-11                  [-1, 144]               0
           Linear-12                  [-1, 144]          20,880
             ReLU-13                  [-1, 144]               0
           Linear-14                  [-1, 108]          15,660
             ReLU-15                  [-1, 108]               0
           Linear-16                  [-1, 216]          23,544
             ReLU-17                  [-1, 216]               0
        Unflatten-18             [-1, 24, 3, 3]               0
  ConvTranspose2d-19            [-1, 192, 6, 6]          41,664
             ReLU-20            [-1, 192, 6, 6]               0
  ConvTranspose2d-21             [-1, 96, 8, 8]         165,984
             ReLU-22             [-1, 96, 8, 8]               0
  ConvTranspose2d-23           [-1, 48, 12, 12]          18,480
             ReLU-24           [-1, 48, 12, 12]               0
  ConvTranspose2d-25            [-1, 1, 24, 24]             433
================================================================
Total params: 544,477
Trainable params: 91,332
Non-trainable params: 453,145
----------------------------------------------------------------
Input size (MB): 0.00
Forward/backward pass size (MB): 0.63
Params size (MB): 2.08
Estimated Total Size (MB): 2.71
----------------------------------------------------------------
None
Training started!! - Reconstruction
…
written to: ./models/img/14.5.20231123095824_img.pt
Elapsed time: 19218.538780212402 seconds.
Iteration config: 31
[Linear(in_features=216, out_features=144, bias=True), ReLU(), Linear(in_features=144, out_features=144, bias=True), ReLU(), Linear(in_features=144, out_features=144, bias=True), ReLU(), Linear(in_features=144, out_features=216, bias=True), ReLU()]


Dataset loaded!! Length (train dataset) - 24000
----------------------------------------------------------------
        Layer (type)               Output Shape         Param #
================================================================
            Conv2d-1           [-1, 48, 12, 12]             480
              ReLU-2           [-1, 48, 12, 12]               0
            Conv2d-3             [-1, 96, 8, 8]          18,528
              ReLU-4             [-1, 96, 8, 8]               0
            Conv2d-5            [-1, 192, 6, 6]         166,080
              ReLU-6            [-1, 192, 6, 6]               0
            Conv2d-7             [-1, 24, 3, 3]          41,496
              ReLU-8             [-1, 24, 3, 3]               0
           Flatten-9                  [-1, 216]               0
           Linear-10                  [-1, 144]          31,248
             ReLU-11                  [-1, 144]               0
           Linear-12                  [-1, 144]          20,880
             ReLU-13                  [-1, 144]               0
           Linear-14                  [-1, 144]          20,880
             ReLU-15                  [-1, 144]               0
           Linear-16                  [-1, 216]          31,320
             ReLU-17                  [-1, 216]               0
        Unflatten-18             [-1, 24, 3, 3]               0
  ConvTranspose2d-19            [-1, 192, 6, 6]          41,664
             ReLU-20            [-1, 192, 6, 6]               0
  ConvTranspose2d-21             [-1, 96, 8, 8]         165,984
             ReLU-22             [-1, 96, 8, 8]               0
  ConvTranspose2d-23           [-1, 48, 12, 12]          18,480
             ReLU-24           [-1, 48, 12, 12]               0
  ConvTranspose2d-25            [-1, 1, 24, 24]             433
================================================================
Total params: 557,473
Trainable params: 104,328
Non-trainable params: 453,145
----------------------------------------------------------------
Input size (MB): 0.00
Forward/backward pass size (MB): 0.63
Params size (MB): 2.13
Estimated Total Size (MB): 2.76
----------------------------------------------------------------
None
Training started!! - Reconstruction
…
written to: ./models/img/14.5.20231123100843_img.pt
Elapsed time: 19837.69805765152 seconds.
Iteration config: 32
[Linear(in_features=216, out_features=144, bias=True), ReLU(), Linear(in_features=144, out_features=144, bias=True), ReLU(), Linear(in_features=144, out_features=54, bias=True), ReLU(), Linear(in_features=54, out_features=216, bias=True), ReLU()]


Dataset loaded!! Length (train dataset) - 24000
----------------------------------------------------------------
        Layer (type)               Output Shape         Param #
================================================================
            Conv2d-1           [-1, 48, 12, 12]             480
              ReLU-2           [-1, 48, 12, 12]               0
            Conv2d-3             [-1, 96, 8, 8]          18,528
              ReLU-4             [-1, 96, 8, 8]               0
            Conv2d-5            [-1, 192, 6, 6]         166,080
              ReLU-6            [-1, 192, 6, 6]               0
            Conv2d-7             [-1, 24, 3, 3]          41,496
              ReLU-8             [-1, 24, 3, 3]               0
           Flatten-9                  [-1, 216]               0
           Linear-10                  [-1, 144]          31,248
             ReLU-11                  [-1, 144]               0
           Linear-12                  [-1, 144]          20,880
             ReLU-13                  [-1, 144]               0
           Linear-14                   [-1, 54]           7,830
             ReLU-15                   [-1, 54]               0
           Linear-16                  [-1, 216]          11,880
             ReLU-17                  [-1, 216]               0
        Unflatten-18             [-1, 24, 3, 3]               0
  ConvTranspose2d-19            [-1, 192, 6, 6]          41,664
             ReLU-20            [-1, 192, 6, 6]               0
  ConvTranspose2d-21             [-1, 96, 8, 8]         165,984
             ReLU-22             [-1, 96, 8, 8]               0
  ConvTranspose2d-23           [-1, 48, 12, 12]          18,480
             ReLU-24           [-1, 48, 12, 12]               0
  ConvTranspose2d-25            [-1, 1, 24, 24]             433
================================================================
Total params: 524,983
Trainable params: 71,838
Non-trainable params: 453,145
----------------------------------------------------------------
Input size (MB): 0.00
Forward/backward pass size (MB): 0.63
Params size (MB): 2.00
Estimated Total Size (MB): 2.63
----------------------------------------------------------------
None
Training started!! - Reconstruction
…
written to: ./models/img/14.5.20231123101903_img.pt
Elapsed time: 20456.43306708336 seconds.
Iteration config: 33
[Linear(in_features=216, out_features=144, bias=True), ReLU(), Linear(in_features=144, out_features=144, bias=True), ReLU(), Linear(in_features=144, out_features=324, bias=True), ReLU(), Linear(in_features=324, out_features=216, bias=True), ReLU()]


Dataset loaded!! Length (train dataset) - 24000
----------------------------------------------------------------
        Layer (type)               Output Shape         Param #
================================================================
            Conv2d-1           [-1, 48, 12, 12]             480
              ReLU-2           [-1, 48, 12, 12]               0
            Conv2d-3             [-1, 96, 8, 8]          18,528
              ReLU-4             [-1, 96, 8, 8]               0
            Conv2d-5            [-1, 192, 6, 6]         166,080
              ReLU-6            [-1, 192, 6, 6]               0
            Conv2d-7             [-1, 24, 3, 3]          41,496
              ReLU-8             [-1, 24, 3, 3]               0
           Flatten-9                  [-1, 216]               0
           Linear-10                  [-1, 144]          31,248
             ReLU-11                  [-1, 144]               0
           Linear-12                  [-1, 144]          20,880
             ReLU-13                  [-1, 144]               0
           Linear-14                  [-1, 324]          46,980
             ReLU-15                  [-1, 324]               0
           Linear-16                  [-1, 216]          70,200
             ReLU-17                  [-1, 216]               0
        Unflatten-18             [-1, 24, 3, 3]               0
  ConvTranspose2d-19            [-1, 192, 6, 6]          41,664
             ReLU-20            [-1, 192, 6, 6]               0
  ConvTranspose2d-21             [-1, 96, 8, 8]         165,984
             ReLU-22             [-1, 96, 8, 8]               0
  ConvTranspose2d-23           [-1, 48, 12, 12]          18,480
             ReLU-24           [-1, 48, 12, 12]               0
  ConvTranspose2d-25            [-1, 1, 24, 24]             433
================================================================
Total params: 622,453
Trainable params: 169,308
Non-trainable params: 453,145
----------------------------------------------------------------
Input size (MB): 0.00
Forward/backward pass size (MB): 0.63
Params size (MB): 2.37
Estimated Total Size (MB): 3.01
----------------------------------------------------------------
None
Training started!! - Reconstruction
…
written to: ./models/img/14.5.20231123102921_img.pt
Elapsed time: 21101.028166532516 seconds.
Iteration config: 34
[Linear(in_features=216, out_features=144, bias=True), ReLU(), Linear(in_features=144, out_features=144, bias=True), ReLU(), Linear(in_features=144, out_features=432, bias=True), ReLU(), Linear(in_features=432, out_features=216, bias=True), ReLU()]


Dataset loaded!! Length (train dataset) - 24000
----------------------------------------------------------------
        Layer (type)               Output Shape         Param #
================================================================
            Conv2d-1           [-1, 48, 12, 12]             480
              ReLU-2           [-1, 48, 12, 12]               0
            Conv2d-3             [-1, 96, 8, 8]          18,528
              ReLU-4             [-1, 96, 8, 8]               0
            Conv2d-5            [-1, 192, 6, 6]         166,080
              ReLU-6            [-1, 192, 6, 6]               0
            Conv2d-7             [-1, 24, 3, 3]          41,496
              ReLU-8             [-1, 24, 3, 3]               0
           Flatten-9                  [-1, 216]               0
           Linear-10                  [-1, 144]          31,248
             ReLU-11                  [-1, 144]               0
           Linear-12                  [-1, 144]          20,880
             ReLU-13                  [-1, 144]               0
           Linear-14                  [-1, 432]          62,640
             ReLU-15                  [-1, 432]               0
           Linear-16                  [-1, 216]          93,528
             ReLU-17                  [-1, 216]               0
        Unflatten-18             [-1, 24, 3, 3]               0
  ConvTranspose2d-19            [-1, 192, 6, 6]          41,664
             ReLU-20            [-1, 192, 6, 6]               0
  ConvTranspose2d-21             [-1, 96, 8, 8]         165,984
             ReLU-22             [-1, 96, 8, 8]               0
  ConvTranspose2d-23           [-1, 48, 12, 12]          18,480
             ReLU-24           [-1, 48, 12, 12]               0
  ConvTranspose2d-25            [-1, 1, 24, 24]             433
================================================================
Total params: 661,441
Trainable params: 208,296
Non-trainable params: 453,145
----------------------------------------------------------------
Input size (MB): 0.00
Forward/backward pass size (MB): 0.63
Params size (MB): 2.52
Estimated Total Size (MB): 3.16
----------------------------------------------------------------
None
Training started!! - Reconstruction
…
written to: ./models/img/14.5.20231123104006_img.pt
Elapsed time: 21726.15847826004 seconds.
Iteration config: 35
[Linear(in_features=216, out_features=144, bias=True), ReLU(), Linear(in_features=144, out_features=54, bias=True), ReLU(), Linear(in_features=54, out_features=108, bias=True), ReLU(), Linear(in_features=108, out_features=216, bias=True), ReLU()]


Dataset loaded!! Length (train dataset) - 24000
----------------------------------------------------------------
        Layer (type)               Output Shape         Param #
================================================================
            Conv2d-1           [-1, 48, 12, 12]             480
              ReLU-2           [-1, 48, 12, 12]               0
            Conv2d-3             [-1, 96, 8, 8]          18,528
              ReLU-4             [-1, 96, 8, 8]               0
            Conv2d-5            [-1, 192, 6, 6]         166,080
              ReLU-6            [-1, 192, 6, 6]               0
            Conv2d-7             [-1, 24, 3, 3]          41,496
              ReLU-8             [-1, 24, 3, 3]               0
           Flatten-9                  [-1, 216]               0
           Linear-10                  [-1, 144]          31,248
             ReLU-11                  [-1, 144]               0
           Linear-12                   [-1, 54]           7,830
             ReLU-13                   [-1, 54]               0
           Linear-14                  [-1, 108]           5,940
             ReLU-15                  [-1, 108]               0
           Linear-16                  [-1, 216]          23,544
             ReLU-17                  [-1, 216]               0
        Unflatten-18             [-1, 24, 3, 3]               0
  ConvTranspose2d-19            [-1, 192, 6, 6]          41,664
             ReLU-20            [-1, 192, 6, 6]               0
  ConvTranspose2d-21             [-1, 96, 8, 8]         165,984
             ReLU-22             [-1, 96, 8, 8]               0
  ConvTranspose2d-23           [-1, 48, 12, 12]          18,480
             ReLU-24           [-1, 48, 12, 12]               0
  ConvTranspose2d-25            [-1, 1, 24, 24]             433
================================================================
Total params: 521,707
Trainable params: 68,562
Non-trainable params: 453,145
----------------------------------------------------------------
Input size (MB): 0.00
Forward/backward pass size (MB): 0.63
Params size (MB): 1.99
Estimated Total Size (MB): 2.62
----------------------------------------------------------------
None
Training started!! - Reconstruction
…
written to: ./models/img/14.5.20231123105031_img.pt
Elapsed time: 22346.89862513542 seconds.
Iteration config: 36
[Linear(in_features=216, out_features=144, bias=True), ReLU(), Linear(in_features=144, out_features=54, bias=True), ReLU(), Linear(in_features=54, out_features=144, bias=True), ReLU(), Linear(in_features=144, out_features=216, bias=True), ReLU()]


Dataset loaded!! Length (train dataset) - 24000
----------------------------------------------------------------
        Layer (type)               Output Shape         Param #
================================================================
            Conv2d-1           [-1, 48, 12, 12]             480
              ReLU-2           [-1, 48, 12, 12]               0
            Conv2d-3             [-1, 96, 8, 8]          18,528
              ReLU-4             [-1, 96, 8, 8]               0
            Conv2d-5            [-1, 192, 6, 6]         166,080
              ReLU-6            [-1, 192, 6, 6]               0
            Conv2d-7             [-1, 24, 3, 3]          41,496
              ReLU-8             [-1, 24, 3, 3]               0
           Flatten-9                  [-1, 216]               0
           Linear-10                  [-1, 144]          31,248
             ReLU-11                  [-1, 144]               0
           Linear-12                   [-1, 54]           7,830
             ReLU-13                   [-1, 54]               0
           Linear-14                  [-1, 144]           7,920
             ReLU-15                  [-1, 144]               0
           Linear-16                  [-1, 216]          31,320
             ReLU-17                  [-1, 216]               0
        Unflatten-18             [-1, 24, 3, 3]               0
  ConvTranspose2d-19            [-1, 192, 6, 6]          41,664
             ReLU-20            [-1, 192, 6, 6]               0
  ConvTranspose2d-21             [-1, 96, 8, 8]         165,984
             ReLU-22             [-1, 96, 8, 8]               0
  ConvTranspose2d-23           [-1, 48, 12, 12]          18,480
             ReLU-24           [-1, 48, 12, 12]               0
  ConvTranspose2d-25            [-1, 1, 24, 24]             433
================================================================
Total params: 531,463
Trainable params: 78,318
Non-trainable params: 453,145
----------------------------------------------------------------
Input size (MB): 0.00
Forward/backward pass size (MB): 0.63
Params size (MB): 2.03
Estimated Total Size (MB): 2.66
----------------------------------------------------------------
None
Training started!! - Reconstruction
…
written to: ./models/img/14.5.20231123110052_img.pt
Elapsed time: 22969.94311785698 seconds.
Iteration config: 37
[Linear(in_features=216, out_features=144, bias=True), ReLU(), Linear(in_features=144, out_features=54, bias=True), ReLU(), Linear(in_features=54, out_features=54, bias=True), ReLU(), Linear(in_features=54, out_features=216, bias=True), ReLU()]


Dataset loaded!! Length (train dataset) - 24000
----------------------------------------------------------------
        Layer (type)               Output Shape         Param #
================================================================
            Conv2d-1           [-1, 48, 12, 12]             480
              ReLU-2           [-1, 48, 12, 12]               0
            Conv2d-3             [-1, 96, 8, 8]          18,528
              ReLU-4             [-1, 96, 8, 8]               0
            Conv2d-5            [-1, 192, 6, 6]         166,080
              ReLU-6            [-1, 192, 6, 6]               0
            Conv2d-7             [-1, 24, 3, 3]          41,496
              ReLU-8             [-1, 24, 3, 3]               0
           Flatten-9                  [-1, 216]               0
           Linear-10                  [-1, 144]          31,248
             ReLU-11                  [-1, 144]               0
           Linear-12                   [-1, 54]           7,830
             ReLU-13                   [-1, 54]               0
           Linear-14                   [-1, 54]           2,970
             ReLU-15                   [-1, 54]               0
           Linear-16                  [-1, 216]          11,880
             ReLU-17                  [-1, 216]               0
        Unflatten-18             [-1, 24, 3, 3]               0
  ConvTranspose2d-19            [-1, 192, 6, 6]          41,664
             ReLU-20            [-1, 192, 6, 6]               0
  ConvTranspose2d-21             [-1, 96, 8, 8]         165,984
             ReLU-22             [-1, 96, 8, 8]               0
  ConvTranspose2d-23           [-1, 48, 12, 12]          18,480
             ReLU-24           [-1, 48, 12, 12]               0
  ConvTranspose2d-25            [-1, 1, 24, 24]             433
================================================================
Total params: 507,073
Trainable params: 53,928
Non-trainable params: 453,145
----------------------------------------------------------------
Input size (MB): 0.00
Forward/backward pass size (MB): 0.63
Params size (MB): 1.93
Estimated Total Size (MB): 2.56
----------------------------------------------------------------
None
Training started!! - Reconstruction
…
written to: ./models/img/14.5.20231123111115_img.pt
Elapsed time: 23592.97582602501 seconds.
Iteration config: 38
[Linear(in_features=216, out_features=144, bias=True), ReLU(), Linear(in_features=144, out_features=54, bias=True), ReLU(), Linear(in_features=54, out_features=324, bias=True), ReLU(), Linear(in_features=324, out_features=216, bias=True), ReLU()]


Dataset loaded!! Length (train dataset) - 24000
----------------------------------------------------------------
        Layer (type)               Output Shape         Param #
================================================================
            Conv2d-1           [-1, 48, 12, 12]             480
              ReLU-2           [-1, 48, 12, 12]               0
            Conv2d-3             [-1, 96, 8, 8]          18,528
              ReLU-4             [-1, 96, 8, 8]               0
            Conv2d-5            [-1, 192, 6, 6]         166,080
              ReLU-6            [-1, 192, 6, 6]               0
            Conv2d-7             [-1, 24, 3, 3]          41,496
              ReLU-8             [-1, 24, 3, 3]               0
           Flatten-9                  [-1, 216]               0
           Linear-10                  [-1, 144]          31,248
             ReLU-11                  [-1, 144]               0
           Linear-12                   [-1, 54]           7,830
             ReLU-13                   [-1, 54]               0
           Linear-14                  [-1, 324]          17,820
             ReLU-15                  [-1, 324]               0
           Linear-16                  [-1, 216]          70,200
             ReLU-17                  [-1, 216]               0
        Unflatten-18             [-1, 24, 3, 3]               0
  ConvTranspose2d-19            [-1, 192, 6, 6]          41,664
             ReLU-20            [-1, 192, 6, 6]               0
  ConvTranspose2d-21             [-1, 96, 8, 8]         165,984
             ReLU-22             [-1, 96, 8, 8]               0
  ConvTranspose2d-23           [-1, 48, 12, 12]          18,480
             ReLU-24           [-1, 48, 12, 12]               0
  ConvTranspose2d-25            [-1, 1, 24, 24]             433
================================================================
Total params: 580,243
Trainable params: 127,098
Non-trainable params: 453,145
----------------------------------------------------------------
Input size (MB): 0.00
Forward/backward pass size (MB): 0.63
Params size (MB): 2.21
Estimated Total Size (MB): 2.85
----------------------------------------------------------------
None
Training started!! - Reconstruction
…
written to: ./models/img/14.5.20231123112138_img.pt
Elapsed time: 24214.90676522255 seconds.
Iteration config: 39
[Linear(in_features=216, out_features=144, bias=True), ReLU(), Linear(in_features=144, out_features=54, bias=True), ReLU(), Linear(in_features=54, out_features=432, bias=True), ReLU(), Linear(in_features=432, out_features=216, bias=True), ReLU()]


Dataset loaded!! Length (train dataset) - 24000
----------------------------------------------------------------
        Layer (type)               Output Shape         Param #
================================================================
            Conv2d-1           [-1, 48, 12, 12]             480
              ReLU-2           [-1, 48, 12, 12]               0
            Conv2d-3             [-1, 96, 8, 8]          18,528
              ReLU-4             [-1, 96, 8, 8]               0
            Conv2d-5            [-1, 192, 6, 6]         166,080
              ReLU-6            [-1, 192, 6, 6]               0
            Conv2d-7             [-1, 24, 3, 3]          41,496
              ReLU-8             [-1, 24, 3, 3]               0
           Flatten-9                  [-1, 216]               0
           Linear-10                  [-1, 144]          31,248
             ReLU-11                  [-1, 144]               0
           Linear-12                   [-1, 54]           7,830
             ReLU-13                   [-1, 54]               0
           Linear-14                  [-1, 432]          23,760
             ReLU-15                  [-1, 432]               0
           Linear-16                  [-1, 216]          93,528
             ReLU-17                  [-1, 216]               0
        Unflatten-18             [-1, 24, 3, 3]               0
  ConvTranspose2d-19            [-1, 192, 6, 6]          41,664
             ReLU-20            [-1, 192, 6, 6]               0
  ConvTranspose2d-21             [-1, 96, 8, 8]         165,984
             ReLU-22             [-1, 96, 8, 8]               0
  ConvTranspose2d-23           [-1, 48, 12, 12]          18,480
             ReLU-24           [-1, 48, 12, 12]               0
  ConvTranspose2d-25            [-1, 1, 24, 24]             433
================================================================
Total params: 609,511
Trainable params: 156,366
Non-trainable params: 453,145
----------------------------------------------------------------
Input size (MB): 0.00
Forward/backward pass size (MB): 0.63
Params size (MB): 2.33
Estimated Total Size (MB): 2.96
----------------------------------------------------------------
None
Training started!! - Reconstruction
…
written to: ./models/img/14.5.20231123113200_img.pt
Elapsed time: 24835.180682897568 seconds.
Iteration config: 40
[Linear(in_features=216, out_features=144, bias=True), ReLU(), Linear(in_features=144, out_features=324, bias=True), ReLU(), Linear(in_features=324, out_features=108, bias=True), ReLU(), Linear(in_features=108, out_features=216, bias=True), ReLU()]


Dataset loaded!! Length (train dataset) - 24000
----------------------------------------------------------------
        Layer (type)               Output Shape         Param #
================================================================
            Conv2d-1           [-1, 48, 12, 12]             480
              ReLU-2           [-1, 48, 12, 12]               0
            Conv2d-3             [-1, 96, 8, 8]          18,528
              ReLU-4             [-1, 96, 8, 8]               0
            Conv2d-5            [-1, 192, 6, 6]         166,080
              ReLU-6            [-1, 192, 6, 6]               0
            Conv2d-7             [-1, 24, 3, 3]          41,496
              ReLU-8             [-1, 24, 3, 3]               0
           Flatten-9                  [-1, 216]               0
           Linear-10                  [-1, 144]          31,248
             ReLU-11                  [-1, 144]               0
           Linear-12                  [-1, 324]          46,980
             ReLU-13                  [-1, 324]               0
           Linear-14                  [-1, 108]          35,100
             ReLU-15                  [-1, 108]               0
           Linear-16                  [-1, 216]          23,544
             ReLU-17                  [-1, 216]               0
        Unflatten-18             [-1, 24, 3, 3]               0
  ConvTranspose2d-19            [-1, 192, 6, 6]          41,664
             ReLU-20            [-1, 192, 6, 6]               0
  ConvTranspose2d-21             [-1, 96, 8, 8]         165,984
             ReLU-22             [-1, 96, 8, 8]               0
  ConvTranspose2d-23           [-1, 48, 12, 12]          18,480
             ReLU-24           [-1, 48, 12, 12]               0
  ConvTranspose2d-25            [-1, 1, 24, 24]             433
================================================================
Total params: 590,017
Trainable params: 136,872
Non-trainable params: 453,145
----------------------------------------------------------------
Input size (MB): 0.00
Forward/backward pass size (MB): 0.63
Params size (MB): 2.25
Estimated Total Size (MB): 2.89
----------------------------------------------------------------
None
Training started!! - Reconstruction
…
written to: ./models/img/14.5.20231123114220_img.pt
Elapsed time: 25456.118693113327 seconds.
Iteration config: 41
[Linear(in_features=216, out_features=144, bias=True), ReLU(), Linear(in_features=144, out_features=324, bias=True), ReLU(), Linear(in_features=324, out_features=144, bias=True), ReLU(), Linear(in_features=144, out_features=216, bias=True), ReLU()]


Dataset loaded!! Length (train dataset) - 24000
----------------------------------------------------------------
        Layer (type)               Output Shape         Param #
================================================================
            Conv2d-1           [-1, 48, 12, 12]             480
              ReLU-2           [-1, 48, 12, 12]               0
            Conv2d-3             [-1, 96, 8, 8]          18,528
              ReLU-4             [-1, 96, 8, 8]               0
            Conv2d-5            [-1, 192, 6, 6]         166,080
              ReLU-6            [-1, 192, 6, 6]               0
            Conv2d-7             [-1, 24, 3, 3]          41,496
              ReLU-8             [-1, 24, 3, 3]               0
           Flatten-9                  [-1, 216]               0
           Linear-10                  [-1, 144]          31,248
             ReLU-11                  [-1, 144]               0
           Linear-12                  [-1, 324]          46,980
             ReLU-13                  [-1, 324]               0
           Linear-14                  [-1, 144]          46,800
             ReLU-15                  [-1, 144]               0
           Linear-16                  [-1, 216]          31,320
             ReLU-17                  [-1, 216]               0
        Unflatten-18             [-1, 24, 3, 3]               0
  ConvTranspose2d-19            [-1, 192, 6, 6]          41,664
             ReLU-20            [-1, 192, 6, 6]               0
  ConvTranspose2d-21             [-1, 96, 8, 8]         165,984
             ReLU-22             [-1, 96, 8, 8]               0
  ConvTranspose2d-23           [-1, 48, 12, 12]          18,480
             ReLU-24           [-1, 48, 12, 12]               0
  ConvTranspose2d-25            [-1, 1, 24, 24]             433
================================================================
Total params: 609,493
Trainable params: 156,348
Non-trainable params: 453,145
----------------------------------------------------------------
Input size (MB): 0.00
Forward/backward pass size (MB): 0.63
Params size (MB): 2.33
Estimated Total Size (MB): 2.96
----------------------------------------------------------------
None
Training started!! - Reconstruction
…
written to: ./models/img/14.5.20231123115241_img.pt
Elapsed time: 26077.991099834442 seconds.
Iteration config: 42
[Linear(in_features=216, out_features=144, bias=True), ReLU(), Linear(in_features=144, out_features=324, bias=True), ReLU(), Linear(in_features=324, out_features=54, bias=True), ReLU(), Linear(in_features=54, out_features=216, bias=True), ReLU()]


Dataset loaded!! Length (train dataset) - 24000
----------------------------------------------------------------
        Layer (type)               Output Shape         Param #
================================================================
            Conv2d-1           [-1, 48, 12, 12]             480
              ReLU-2           [-1, 48, 12, 12]               0
            Conv2d-3             [-1, 96, 8, 8]          18,528
              ReLU-4             [-1, 96, 8, 8]               0
            Conv2d-5            [-1, 192, 6, 6]         166,080
              ReLU-6            [-1, 192, 6, 6]               0
            Conv2d-7             [-1, 24, 3, 3]          41,496
              ReLU-8             [-1, 24, 3, 3]               0
           Flatten-9                  [-1, 216]               0
           Linear-10                  [-1, 144]          31,248
             ReLU-11                  [-1, 144]               0
           Linear-12                  [-1, 324]          46,980
             ReLU-13                  [-1, 324]               0
           Linear-14                   [-1, 54]          17,550
             ReLU-15                   [-1, 54]               0
           Linear-16                  [-1, 216]          11,880
             ReLU-17                  [-1, 216]               0
        Unflatten-18             [-1, 24, 3, 3]               0
  ConvTranspose2d-19            [-1, 192, 6, 6]          41,664
             ReLU-20            [-1, 192, 6, 6]               0
  ConvTranspose2d-21             [-1, 96, 8, 8]         165,984
             ReLU-22             [-1, 96, 8, 8]               0
  ConvTranspose2d-23           [-1, 48, 12, 12]          18,480
             ReLU-24           [-1, 48, 12, 12]               0
  ConvTranspose2d-25            [-1, 1, 24, 24]             433
================================================================
Total params: 560,803
Trainable params: 107,658
Non-trainable params: 453,145
----------------------------------------------------------------
Input size (MB): 0.00
Forward/backward pass size (MB): 0.63
Params size (MB): 2.14
Estimated Total Size (MB): 2.77
----------------------------------------------------------------
None
Training started!! - Reconstruction
…
written to: ./models/img/14.5.20231123120303_img.pt
Elapsed time: 26704.315177679062 seconds.
Iteration config: 43
[Linear(in_features=216, out_features=144, bias=True), ReLU(), Linear(in_features=144, out_features=324, bias=True), ReLU(), Linear(in_features=324, out_features=324, bias=True), ReLU(), Linear(in_features=324, out_features=216, bias=True), ReLU()]


Dataset loaded!! Length (train dataset) - 24000
----------------------------------------------------------------
        Layer (type)               Output Shape         Param #
================================================================
            Conv2d-1           [-1, 48, 12, 12]             480
              ReLU-2           [-1, 48, 12, 12]               0
            Conv2d-3             [-1, 96, 8, 8]          18,528
              ReLU-4             [-1, 96, 8, 8]               0
            Conv2d-5            [-1, 192, 6, 6]         166,080
              ReLU-6            [-1, 192, 6, 6]               0
            Conv2d-7             [-1, 24, 3, 3]          41,496
              ReLU-8             [-1, 24, 3, 3]               0
           Flatten-9                  [-1, 216]               0
           Linear-10                  [-1, 144]          31,248
             ReLU-11                  [-1, 144]               0
           Linear-12                  [-1, 324]          46,980
             ReLU-13                  [-1, 324]               0
           Linear-14                  [-1, 324]         105,300
             ReLU-15                  [-1, 324]               0
           Linear-16                  [-1, 216]          70,200
             ReLU-17                  [-1, 216]               0
        Unflatten-18             [-1, 24, 3, 3]               0
  ConvTranspose2d-19            [-1, 192, 6, 6]          41,664
             ReLU-20            [-1, 192, 6, 6]               0
  ConvTranspose2d-21             [-1, 96, 8, 8]         165,984
             ReLU-22             [-1, 96, 8, 8]               0
  ConvTranspose2d-23           [-1, 48, 12, 12]          18,480
             ReLU-24           [-1, 48, 12, 12]               0
  ConvTranspose2d-25            [-1, 1, 24, 24]             433
================================================================
Total params: 706,873
Trainable params: 253,728
Non-trainable params: 453,145
----------------------------------------------------------------
Input size (MB): 0.00
Forward/backward pass size (MB): 0.64
Params size (MB): 2.70
Estimated Total Size (MB): 3.33
----------------------------------------------------------------
None
Training started!! - Reconstruction
…
written to: ./models/img/14.5.20231123121329_img.pt
Elapsed time: 27329.86383986473 seconds.
Iteration config: 44
[Linear(in_features=216, out_features=144, bias=True), ReLU(), Linear(in_features=144, out_features=324, bias=True), ReLU(), Linear(in_features=324, out_features=432, bias=True), ReLU(), Linear(in_features=432, out_features=216, bias=True), ReLU()]


Dataset loaded!! Length (train dataset) - 24000
----------------------------------------------------------------
        Layer (type)               Output Shape         Param #
================================================================
            Conv2d-1           [-1, 48, 12, 12]             480
              ReLU-2           [-1, 48, 12, 12]               0
            Conv2d-3             [-1, 96, 8, 8]          18,528
              ReLU-4             [-1, 96, 8, 8]               0
            Conv2d-5            [-1, 192, 6, 6]         166,080
              ReLU-6            [-1, 192, 6, 6]               0
            Conv2d-7             [-1, 24, 3, 3]          41,496
              ReLU-8             [-1, 24, 3, 3]               0
           Flatten-9                  [-1, 216]               0
           Linear-10                  [-1, 144]          31,248
             ReLU-11                  [-1, 144]               0
           Linear-12                  [-1, 324]          46,980
             ReLU-13                  [-1, 324]               0
           Linear-14                  [-1, 432]         140,400
             ReLU-15                  [-1, 432]               0
           Linear-16                  [-1, 216]          93,528
             ReLU-17                  [-1, 216]               0
        Unflatten-18             [-1, 24, 3, 3]               0
  ConvTranspose2d-19            [-1, 192, 6, 6]          41,664
             ReLU-20            [-1, 192, 6, 6]               0
  ConvTranspose2d-21             [-1, 96, 8, 8]         165,984
             ReLU-22             [-1, 96, 8, 8]               0
  ConvTranspose2d-23           [-1, 48, 12, 12]          18,480
             ReLU-24           [-1, 48, 12, 12]               0
  ConvTranspose2d-25            [-1, 1, 24, 24]             433
================================================================
Total params: 765,301
Trainable params: 312,156
Non-trainable params: 453,145
----------------------------------------------------------------
Input size (MB): 0.00
Forward/backward pass size (MB): 0.64
Params size (MB): 2.92
Estimated Total Size (MB): 3.56
----------------------------------------------------------------
None
Training started!! - Reconstruction
…
written to: ./models/img/14.5.20231123122355_img.pt
Elapsed time: 27976.644072771072 seconds.
Iteration config: 45
[Linear(in_features=216, out_features=144, bias=True), ReLU(), Linear(in_features=144, out_features=432, bias=True), ReLU(), Linear(in_features=432, out_features=108, bias=True), ReLU(), Linear(in_features=108, out_features=216, bias=True), ReLU()]


Dataset loaded!! Length (train dataset) - 24000
----------------------------------------------------------------
        Layer (type)               Output Shape         Param #
================================================================
            Conv2d-1           [-1, 48, 12, 12]             480
              ReLU-2           [-1, 48, 12, 12]               0
            Conv2d-3             [-1, 96, 8, 8]          18,528
              ReLU-4             [-1, 96, 8, 8]               0
            Conv2d-5            [-1, 192, 6, 6]         166,080
              ReLU-6            [-1, 192, 6, 6]               0
            Conv2d-7             [-1, 24, 3, 3]          41,496
              ReLU-8             [-1, 24, 3, 3]               0
           Flatten-9                  [-1, 216]               0
           Linear-10                  [-1, 144]          31,248
             ReLU-11                  [-1, 144]               0
           Linear-12                  [-1, 432]          62,640
             ReLU-13                  [-1, 432]               0
           Linear-14                  [-1, 108]          46,764
             ReLU-15                  [-1, 108]               0
           Linear-16                  [-1, 216]          23,544
             ReLU-17                  [-1, 216]               0
        Unflatten-18             [-1, 24, 3, 3]               0
  ConvTranspose2d-19            [-1, 192, 6, 6]          41,664
             ReLU-20            [-1, 192, 6, 6]               0
  ConvTranspose2d-21             [-1, 96, 8, 8]         165,984
             ReLU-22             [-1, 96, 8, 8]               0
  ConvTranspose2d-23           [-1, 48, 12, 12]          18,480
             ReLU-24           [-1, 48, 12, 12]               0
  ConvTranspose2d-25            [-1, 1, 24, 24]             433
================================================================
Total params: 617,341
Trainable params: 164,196
Non-trainable params: 453,145
----------------------------------------------------------------
Input size (MB): 0.00
Forward/backward pass size (MB): 0.63
Params size (MB): 2.35
Estimated Total Size (MB): 2.99
----------------------------------------------------------------
None
Training started!! - Reconstruction
…
written to: ./models/img/14.5.20231123123442_img.pt
Elapsed time: 28602.295130252838 seconds.
Iteration config: 46
[Linear(in_features=216, out_features=144, bias=True), ReLU(), Linear(in_features=144, out_features=432, bias=True), ReLU(), Linear(in_features=432, out_features=144, bias=True), ReLU(), Linear(in_features=144, out_features=216, bias=True), ReLU()]


Dataset loaded!! Length (train dataset) - 24000
----------------------------------------------------------------
        Layer (type)               Output Shape         Param #
================================================================
            Conv2d-1           [-1, 48, 12, 12]             480
              ReLU-2           [-1, 48, 12, 12]               0
            Conv2d-3             [-1, 96, 8, 8]          18,528
              ReLU-4             [-1, 96, 8, 8]               0
            Conv2d-5            [-1, 192, 6, 6]         166,080
              ReLU-6            [-1, 192, 6, 6]               0
            Conv2d-7             [-1, 24, 3, 3]          41,496
              ReLU-8             [-1, 24, 3, 3]               0
           Flatten-9                  [-1, 216]               0
           Linear-10                  [-1, 144]          31,248
             ReLU-11                  [-1, 144]               0
           Linear-12                  [-1, 432]          62,640
             ReLU-13                  [-1, 432]               0
           Linear-14                  [-1, 144]          62,352
             ReLU-15                  [-1, 144]               0
           Linear-16                  [-1, 216]          31,320
             ReLU-17                  [-1, 216]               0
        Unflatten-18             [-1, 24, 3, 3]               0
  ConvTranspose2d-19            [-1, 192, 6, 6]          41,664
             ReLU-20            [-1, 192, 6, 6]               0
  ConvTranspose2d-21             [-1, 96, 8, 8]         165,984
             ReLU-22             [-1, 96, 8, 8]               0
  ConvTranspose2d-23           [-1, 48, 12, 12]          18,480
             ReLU-24           [-1, 48, 12, 12]               0
  ConvTranspose2d-25            [-1, 1, 24, 24]             433
================================================================
Total params: 640,705
Trainable params: 187,560
Non-trainable params: 453,145
----------------------------------------------------------------
Input size (MB): 0.00
Forward/backward pass size (MB): 0.63
Params size (MB): 2.44
Estimated Total Size (MB): 3.08
----------------------------------------------------------------
None
Training started!! - Reconstruction
…
written to: ./models/img/14.5.20231123124507_img.pt
Elapsed time: 29229.38336467743 seconds.
Iteration config: 47
[Linear(in_features=216, out_features=144, bias=True), ReLU(), Linear(in_features=144, out_features=432, bias=True), ReLU(), Linear(in_features=432, out_features=54, bias=True), ReLU(), Linear(in_features=54, out_features=216, bias=True), ReLU()]


Dataset loaded!! Length (train dataset) - 24000
----------------------------------------------------------------
        Layer (type)               Output Shape         Param #
================================================================
            Conv2d-1           [-1, 48, 12, 12]             480
              ReLU-2           [-1, 48, 12, 12]               0
            Conv2d-3             [-1, 96, 8, 8]          18,528
              ReLU-4             [-1, 96, 8, 8]               0
            Conv2d-5            [-1, 192, 6, 6]         166,080
              ReLU-6            [-1, 192, 6, 6]               0
            Conv2d-7             [-1, 24, 3, 3]          41,496
              ReLU-8             [-1, 24, 3, 3]               0
           Flatten-9                  [-1, 216]               0
           Linear-10                  [-1, 144]          31,248
             ReLU-11                  [-1, 144]               0
           Linear-12                  [-1, 432]          62,640
             ReLU-13                  [-1, 432]               0
           Linear-14                   [-1, 54]          23,382
             ReLU-15                   [-1, 54]               0
           Linear-16                  [-1, 216]          11,880
             ReLU-17                  [-1, 216]               0
        Unflatten-18             [-1, 24, 3, 3]               0
  ConvTranspose2d-19            [-1, 192, 6, 6]          41,664
             ReLU-20            [-1, 192, 6, 6]               0
  ConvTranspose2d-21             [-1, 96, 8, 8]         165,984
             ReLU-22             [-1, 96, 8, 8]               0
  ConvTranspose2d-23           [-1, 48, 12, 12]          18,480
             ReLU-24           [-1, 48, 12, 12]               0
  ConvTranspose2d-25            [-1, 1, 24, 24]             433
================================================================
Total params: 582,295
Trainable params: 129,150
Non-trainable params: 453,145
----------------------------------------------------------------
Input size (MB): 0.00
Forward/backward pass size (MB): 0.63
Params size (MB): 2.22
Estimated Total Size (MB): 2.86
----------------------------------------------------------------
None
Training started!! - Reconstruction
…
written to: ./models/img/14.5.20231123125534_img.pt
Elapsed time: 29859.50592803955 seconds.
Iteration config: 48
[Linear(in_features=216, out_features=144, bias=True), ReLU(), Linear(in_features=144, out_features=432, bias=True), ReLU(), Linear(in_features=432, out_features=324, bias=True), ReLU(), Linear(in_features=324, out_features=216, bias=True), ReLU()]


Dataset loaded!! Length (train dataset) - 24000
----------------------------------------------------------------
        Layer (type)               Output Shape         Param #
================================================================
            Conv2d-1           [-1, 48, 12, 12]             480
              ReLU-2           [-1, 48, 12, 12]               0
            Conv2d-3             [-1, 96, 8, 8]          18,528
              ReLU-4             [-1, 96, 8, 8]               0
            Conv2d-5            [-1, 192, 6, 6]         166,080
              ReLU-6            [-1, 192, 6, 6]               0
            Conv2d-7             [-1, 24, 3, 3]          41,496
              ReLU-8             [-1, 24, 3, 3]               0
           Flatten-9                  [-1, 216]               0
           Linear-10                  [-1, 144]          31,248
             ReLU-11                  [-1, 144]               0
           Linear-12                  [-1, 432]          62,640
             ReLU-13                  [-1, 432]               0
           Linear-14                  [-1, 324]         140,292
             ReLU-15                  [-1, 324]               0
           Linear-16                  [-1, 216]          70,200
             ReLU-17                  [-1, 216]               0
        Unflatten-18             [-1, 24, 3, 3]               0
  ConvTranspose2d-19            [-1, 192, 6, 6]          41,664
             ReLU-20            [-1, 192, 6, 6]               0
  ConvTranspose2d-21             [-1, 96, 8, 8]         165,984
             ReLU-22             [-1, 96, 8, 8]               0
  ConvTranspose2d-23           [-1, 48, 12, 12]          18,480
             ReLU-24           [-1, 48, 12, 12]               0
  ConvTranspose2d-25            [-1, 1, 24, 24]             433
================================================================
Total params: 757,525
Trainable params: 304,380
Non-trainable params: 453,145
----------------------------------------------------------------
Input size (MB): 0.00
Forward/backward pass size (MB): 0.64
Params size (MB): 2.89
Estimated Total Size (MB): 3.53
----------------------------------------------------------------
None
Training started!! - Reconstruction
…
written to: ./models/img/14.5.20231123130604_img.pt
Elapsed time: 30509.38192176819 seconds.
Iteration config: 49
[Linear(in_features=216, out_features=144, bias=True), ReLU(), Linear(in_features=144, out_features=432, bias=True), ReLU(), Linear(in_features=432, out_features=432, bias=True), ReLU(), Linear(in_features=432, out_features=216, bias=True), ReLU()]


Dataset loaded!! Length (train dataset) - 24000
----------------------------------------------------------------
        Layer (type)               Output Shape         Param #
================================================================
            Conv2d-1           [-1, 48, 12, 12]             480
              ReLU-2           [-1, 48, 12, 12]               0
            Conv2d-3             [-1, 96, 8, 8]          18,528
              ReLU-4             [-1, 96, 8, 8]               0
            Conv2d-5            [-1, 192, 6, 6]         166,080
              ReLU-6            [-1, 192, 6, 6]               0
            Conv2d-7             [-1, 24, 3, 3]          41,496
              ReLU-8             [-1, 24, 3, 3]               0
           Flatten-9                  [-1, 216]               0
           Linear-10                  [-1, 144]          31,248
             ReLU-11                  [-1, 144]               0
           Linear-12                  [-1, 432]          62,640
             ReLU-13                  [-1, 432]               0
           Linear-14                  [-1, 432]         187,056
             ReLU-15                  [-1, 432]               0
           Linear-16                  [-1, 216]          93,528
             ReLU-17                  [-1, 216]               0
        Unflatten-18             [-1, 24, 3, 3]               0
  ConvTranspose2d-19            [-1, 192, 6, 6]          41,664
             ReLU-20            [-1, 192, 6, 6]               0
  ConvTranspose2d-21             [-1, 96, 8, 8]         165,984
             ReLU-22             [-1, 96, 8, 8]               0
  ConvTranspose2d-23           [-1, 48, 12, 12]          18,480
             ReLU-24           [-1, 48, 12, 12]               0
  ConvTranspose2d-25            [-1, 1, 24, 24]             433
================================================================
Total params: 827,617
Trainable params: 374,472
Non-trainable params: 453,145
----------------------------------------------------------------
Input size (MB): 0.00
Forward/backward pass size (MB): 0.64
Params size (MB): 3.16
Estimated Total Size (MB): 3.80
----------------------------------------------------------------
None
Training started!! - Reconstruction
…
written to: ./models/img/14.5.20231123131654_img.pt
Elapsed time: 31159.293334007263 seconds.
Iteration config: 50
[Linear(in_features=216, out_features=54, bias=True), ReLU(), Linear(in_features=54, out_features=108, bias=True), ReLU(), Linear(in_features=108, out_features=108, bias=True), ReLU(), Linear(in_features=108, out_features=216, bias=True), ReLU()]


Dataset loaded!! Length (train dataset) - 24000
----------------------------------------------------------------
        Layer (type)               Output Shape         Param #
================================================================
            Conv2d-1           [-1, 48, 12, 12]             480
              ReLU-2           [-1, 48, 12, 12]               0
            Conv2d-3             [-1, 96, 8, 8]          18,528
              ReLU-4             [-1, 96, 8, 8]               0
            Conv2d-5            [-1, 192, 6, 6]         166,080
              ReLU-6            [-1, 192, 6, 6]               0
            Conv2d-7             [-1, 24, 3, 3]          41,496
              ReLU-8             [-1, 24, 3, 3]               0
           Flatten-9                  [-1, 216]               0
           Linear-10                   [-1, 54]          11,718
             ReLU-11                   [-1, 54]               0
           Linear-12                  [-1, 108]           5,940
             ReLU-13                  [-1, 108]               0
           Linear-14                  [-1, 108]          11,772
             ReLU-15                  [-1, 108]               0
           Linear-16                  [-1, 216]          23,544
             ReLU-17                  [-1, 216]               0
        Unflatten-18             [-1, 24, 3, 3]               0
  ConvTranspose2d-19            [-1, 192, 6, 6]          41,664
             ReLU-20            [-1, 192, 6, 6]               0
  ConvTranspose2d-21             [-1, 96, 8, 8]         165,984
             ReLU-22             [-1, 96, 8, 8]               0
  ConvTranspose2d-23           [-1, 48, 12, 12]          18,480
             ReLU-24           [-1, 48, 12, 12]               0
  ConvTranspose2d-25            [-1, 1, 24, 24]             433
================================================================
Total params: 506,119
Trainable params: 52,974
Non-trainable params: 453,145
----------------------------------------------------------------
Input size (MB): 0.00
Forward/backward pass size (MB): 0.63
Params size (MB): 1.93
Estimated Total Size (MB): 2.56
----------------------------------------------------------------
None
Training started!! - Reconstruction
…
written to: ./models/img/14.5.20231123132744_img.pt
Elapsed time: 31787.329773187637 seconds.
Iteration config: 51
[Linear(in_features=216, out_features=54, bias=True), ReLU(), Linear(in_features=54, out_features=108, bias=True), ReLU(), Linear(in_features=108, out_features=144, bias=True), ReLU(), Linear(in_features=144, out_features=216, bias=True), ReLU()]


Dataset loaded!! Length (train dataset) - 24000
----------------------------------------------------------------
        Layer (type)               Output Shape         Param #
================================================================
            Conv2d-1           [-1, 48, 12, 12]             480
              ReLU-2           [-1, 48, 12, 12]               0
            Conv2d-3             [-1, 96, 8, 8]          18,528
              ReLU-4             [-1, 96, 8, 8]               0
            Conv2d-5            [-1, 192, 6, 6]         166,080
              ReLU-6            [-1, 192, 6, 6]               0
            Conv2d-7             [-1, 24, 3, 3]          41,496
              ReLU-8             [-1, 24, 3, 3]               0
           Flatten-9                  [-1, 216]               0
           Linear-10                   [-1, 54]          11,718
             ReLU-11                   [-1, 54]               0
           Linear-12                  [-1, 108]           5,940
             ReLU-13                  [-1, 108]               0
           Linear-14                  [-1, 144]          15,696
             ReLU-15                  [-1, 144]               0
           Linear-16                  [-1, 216]          31,320
             ReLU-17                  [-1, 216]               0
        Unflatten-18             [-1, 24, 3, 3]               0
  ConvTranspose2d-19            [-1, 192, 6, 6]          41,664
             ReLU-20            [-1, 192, 6, 6]               0
  ConvTranspose2d-21             [-1, 96, 8, 8]         165,984
             ReLU-22             [-1, 96, 8, 8]               0
  ConvTranspose2d-23           [-1, 48, 12, 12]          18,480
             ReLU-24           [-1, 48, 12, 12]               0
  ConvTranspose2d-25            [-1, 1, 24, 24]             433
================================================================
Total params: 517,819
Trainable params: 64,674
Non-trainable params: 453,145
----------------------------------------------------------------
Input size (MB): 0.00
Forward/backward pass size (MB): 0.63
Params size (MB): 1.98
Estimated Total Size (MB): 2.61
----------------------------------------------------------------
None
Training started!! - Reconstruction
…
written to: ./models/img/14.5.20231123133812_img.pt
Elapsed time: 32413.10182261467 seconds.
Iteration config: 52
[Linear(in_features=216, out_features=54, bias=True), ReLU(), Linear(in_features=54, out_features=108, bias=True), ReLU(), Linear(in_features=108, out_features=54, bias=True), ReLU(), Linear(in_features=54, out_features=216, bias=True), ReLU()]


Dataset loaded!! Length (train dataset) - 24000
----------------------------------------------------------------
        Layer (type)               Output Shape         Param #
================================================================
            Conv2d-1           [-1, 48, 12, 12]             480
              ReLU-2           [-1, 48, 12, 12]               0
            Conv2d-3             [-1, 96, 8, 8]          18,528
              ReLU-4             [-1, 96, 8, 8]               0
            Conv2d-5            [-1, 192, 6, 6]         166,080
              ReLU-6            [-1, 192, 6, 6]               0
            Conv2d-7             [-1, 24, 3, 3]          41,496
              ReLU-8             [-1, 24, 3, 3]               0
           Flatten-9                  [-1, 216]               0
           Linear-10                   [-1, 54]          11,718
             ReLU-11                   [-1, 54]               0
           Linear-12                  [-1, 108]           5,940
             ReLU-13                  [-1, 108]               0
           Linear-14                   [-1, 54]           5,886
             ReLU-15                   [-1, 54]               0
           Linear-16                  [-1, 216]          11,880
             ReLU-17                  [-1, 216]               0
        Unflatten-18             [-1, 24, 3, 3]               0
  ConvTranspose2d-19            [-1, 192, 6, 6]          41,664
             ReLU-20            [-1, 192, 6, 6]               0
  ConvTranspose2d-21             [-1, 96, 8, 8]         165,984
             ReLU-22             [-1, 96, 8, 8]               0
  ConvTranspose2d-23           [-1, 48, 12, 12]          18,480
             ReLU-24           [-1, 48, 12, 12]               0
  ConvTranspose2d-25            [-1, 1, 24, 24]             433
================================================================
Total params: 488,569
Trainable params: 35,424
Non-trainable params: 453,145
----------------------------------------------------------------
Input size (MB): 0.00
Forward/backward pass size (MB): 0.63
Params size (MB): 1.86
Estimated Total Size (MB): 2.49
----------------------------------------------------------------
None
Training started!! - Reconstruction
…
written to: ./models/img/14.5.20231123134838_img.pt
Elapsed time: 33039.05393052101 seconds.
Iteration config: 53
[Linear(in_features=216, out_features=54, bias=True), ReLU(), Linear(in_features=54, out_features=108, bias=True), ReLU(), Linear(in_features=108, out_features=324, bias=True), ReLU(), Linear(in_features=324, out_features=216, bias=True), ReLU()]


Dataset loaded!! Length (train dataset) - 24000
----------------------------------------------------------------
        Layer (type)               Output Shape         Param #
================================================================
            Conv2d-1           [-1, 48, 12, 12]             480
              ReLU-2           [-1, 48, 12, 12]               0
            Conv2d-3             [-1, 96, 8, 8]          18,528
              ReLU-4             [-1, 96, 8, 8]               0
            Conv2d-5            [-1, 192, 6, 6]         166,080
              ReLU-6            [-1, 192, 6, 6]               0
            Conv2d-7             [-1, 24, 3, 3]          41,496
              ReLU-8             [-1, 24, 3, 3]               0
           Flatten-9                  [-1, 216]               0
           Linear-10                   [-1, 54]          11,718
             ReLU-11                   [-1, 54]               0
           Linear-12                  [-1, 108]           5,940
             ReLU-13                  [-1, 108]               0
           Linear-14                  [-1, 324]          35,316
             ReLU-15                  [-1, 324]               0
           Linear-16                  [-1, 216]          70,200
             ReLU-17                  [-1, 216]               0
        Unflatten-18             [-1, 24, 3, 3]               0
  ConvTranspose2d-19            [-1, 192, 6, 6]          41,664
             ReLU-20            [-1, 192, 6, 6]               0
  ConvTranspose2d-21             [-1, 96, 8, 8]         165,984
             ReLU-22             [-1, 96, 8, 8]               0
  ConvTranspose2d-23           [-1, 48, 12, 12]          18,480
             ReLU-24           [-1, 48, 12, 12]               0
  ConvTranspose2d-25            [-1, 1, 24, 24]             433
================================================================
Total params: 576,319
Trainable params: 123,174
Non-trainable params: 453,145
----------------------------------------------------------------
Input size (MB): 0.00
Forward/backward pass size (MB): 0.63
Params size (MB): 2.20
Estimated Total Size (MB): 2.83
----------------------------------------------------------------
None
Training started!! - Reconstruction
…
written to: ./models/img/14.5.20231123135904_img.pt
Elapsed time: 33665.48856925964 seconds.
Iteration config: 54
[Linear(in_features=216, out_features=54, bias=True), ReLU(), Linear(in_features=54, out_features=108, bias=True), ReLU(), Linear(in_features=108, out_features=432, bias=True), ReLU(), Linear(in_features=432, out_features=216, bias=True), ReLU()]


Dataset loaded!! Length (train dataset) - 24000
----------------------------------------------------------------
        Layer (type)               Output Shape         Param #
================================================================
            Conv2d-1           [-1, 48, 12, 12]             480
              ReLU-2           [-1, 48, 12, 12]               0
            Conv2d-3             [-1, 96, 8, 8]          18,528
              ReLU-4             [-1, 96, 8, 8]               0
            Conv2d-5            [-1, 192, 6, 6]         166,080
              ReLU-6            [-1, 192, 6, 6]               0
            Conv2d-7             [-1, 24, 3, 3]          41,496
              ReLU-8             [-1, 24, 3, 3]               0
           Flatten-9                  [-1, 216]               0
           Linear-10                   [-1, 54]          11,718
             ReLU-11                   [-1, 54]               0
           Linear-12                  [-1, 108]           5,940
             ReLU-13                  [-1, 108]               0
           Linear-14                  [-1, 432]          47,088
             ReLU-15                  [-1, 432]               0
           Linear-16                  [-1, 216]          93,528
             ReLU-17                  [-1, 216]               0
        Unflatten-18             [-1, 24, 3, 3]               0
  ConvTranspose2d-19            [-1, 192, 6, 6]          41,664
             ReLU-20            [-1, 192, 6, 6]               0
  ConvTranspose2d-21             [-1, 96, 8, 8]         165,984
             ReLU-22             [-1, 96, 8, 8]               0
  ConvTranspose2d-23           [-1, 48, 12, 12]          18,480
             ReLU-24           [-1, 48, 12, 12]               0
  ConvTranspose2d-25            [-1, 1, 24, 24]             433
================================================================
Total params: 611,419
Trainable params: 158,274
Non-trainable params: 453,145
----------------------------------------------------------------
Input size (MB): 0.00
Forward/backward pass size (MB): 0.63
Params size (MB): 2.33
Estimated Total Size (MB): 2.97
----------------------------------------------------------------
None
Training started!! - Reconstruction
…
written to: ./models/img/14.5.20231123140930_img.pt
Elapsed time: 34292.641715765 seconds.
Iteration config: 55
[Linear(in_features=216, out_features=54, bias=True), ReLU(), Linear(in_features=54, out_features=144, bias=True), ReLU(), Linear(in_features=144, out_features=108, bias=True), ReLU(), Linear(in_features=108, out_features=216, bias=True), ReLU()]


Dataset loaded!! Length (train dataset) - 24000
----------------------------------------------------------------
        Layer (type)               Output Shape         Param #
================================================================
            Conv2d-1           [-1, 48, 12, 12]             480
              ReLU-2           [-1, 48, 12, 12]               0
            Conv2d-3             [-1, 96, 8, 8]          18,528
              ReLU-4             [-1, 96, 8, 8]               0
            Conv2d-5            [-1, 192, 6, 6]         166,080
              ReLU-6            [-1, 192, 6, 6]               0
            Conv2d-7             [-1, 24, 3, 3]          41,496
              ReLU-8             [-1, 24, 3, 3]               0
           Flatten-9                  [-1, 216]               0
           Linear-10                   [-1, 54]          11,718
             ReLU-11                   [-1, 54]               0
           Linear-12                  [-1, 144]           7,920
             ReLU-13                  [-1, 144]               0
           Linear-14                  [-1, 108]          15,660
             ReLU-15                  [-1, 108]               0
           Linear-16                  [-1, 216]          23,544
             ReLU-17                  [-1, 216]               0
        Unflatten-18             [-1, 24, 3, 3]               0
  ConvTranspose2d-19            [-1, 192, 6, 6]          41,664
             ReLU-20            [-1, 192, 6, 6]               0
  ConvTranspose2d-21             [-1, 96, 8, 8]         165,984
             ReLU-22             [-1, 96, 8, 8]               0
  ConvTranspose2d-23           [-1, 48, 12, 12]          18,480
             ReLU-24           [-1, 48, 12, 12]               0
  ConvTranspose2d-25            [-1, 1, 24, 24]             433
================================================================
Total params: 511,987
Trainable params: 58,842
Non-trainable params: 453,145
----------------------------------------------------------------
Input size (MB): 0.00
Forward/backward pass size (MB): 0.63
Params size (MB): 1.95
Estimated Total Size (MB): 2.58
----------------------------------------------------------------
None
Training started!! - Reconstruction
…
written to: ./models/img/14.5.20231123141958_img.pt
Elapsed time: 34919.23405480385 seconds.
Iteration config: 56
[Linear(in_features=216, out_features=54, bias=True), ReLU(), Linear(in_features=54, out_features=144, bias=True), ReLU(), Linear(in_features=144, out_features=144, bias=True), ReLU(), Linear(in_features=144, out_features=216, bias=True), ReLU()]


Dataset loaded!! Length (train dataset) - 24000
----------------------------------------------------------------
        Layer (type)               Output Shape         Param #
================================================================
            Conv2d-1           [-1, 48, 12, 12]             480
              ReLU-2           [-1, 48, 12, 12]               0
            Conv2d-3             [-1, 96, 8, 8]          18,528
              ReLU-4             [-1, 96, 8, 8]               0
            Conv2d-5            [-1, 192, 6, 6]         166,080
              ReLU-6            [-1, 192, 6, 6]               0
            Conv2d-7             [-1, 24, 3, 3]          41,496
              ReLU-8             [-1, 24, 3, 3]               0
           Flatten-9                  [-1, 216]               0
           Linear-10                   [-1, 54]          11,718
             ReLU-11                   [-1, 54]               0
           Linear-12                  [-1, 144]           7,920
             ReLU-13                  [-1, 144]               0
           Linear-14                  [-1, 144]          20,880
             ReLU-15                  [-1, 144]               0
           Linear-16                  [-1, 216]          31,320
             ReLU-17                  [-1, 216]               0
        Unflatten-18             [-1, 24, 3, 3]               0
  ConvTranspose2d-19            [-1, 192, 6, 6]          41,664
             ReLU-20            [-1, 192, 6, 6]               0
  ConvTranspose2d-21             [-1, 96, 8, 8]         165,984
             ReLU-22             [-1, 96, 8, 8]               0
  ConvTranspose2d-23           [-1, 48, 12, 12]          18,480
             ReLU-24           [-1, 48, 12, 12]               0
  ConvTranspose2d-25            [-1, 1, 24, 24]             433
================================================================
Total params: 524,983
Trainable params: 71,838
Non-trainable params: 453,145
…
[Linear(in_features=216, out_features=324, bias=True), ReLU(), Linear(in_features=324, out_features=54, bias=True), ReLU(), Linear(in_features=54, out_features=324, bias=True), ReLU(), Linear(in_features=324, out_features=216, bias=True), ReLU()]


Dataset loaded!! Length (train dataset) - 24000
----------------------------------------------------------------
        Layer (type)               Output Shape         Param #
================================================================
            Conv2d-1           [-1, 48, 12, 12]             480
              ReLU-2           [-1, 48, 12, 12]               0
            Conv2d-3             [-1, 96, 8, 8]          18,528
              ReLU-4             [-1, 96, 8, 8]               0
            Conv2d-5            [-1, 192, 6, 6]         166,080
              ReLU-6            [-1, 192, 6, 6]               0
            Conv2d-7             [-1, 24, 3, 3]          41,496
              ReLU-8             [-1, 24, 3, 3]               0
           Flatten-9                  [-1, 216]               0
           Linear-10                  [-1, 324]          70,308
             ReLU-11                  [-1, 324]               0
           Linear-12                   [-1, 54]          17,550
             ReLU-13                   [-1, 54]               0
           Linear-14                  [-1, 324]          17,820
             ReLU-15                  [-1, 324]               0
           Linear-16                  [-1, 216]          70,200
             ReLU-17                  [-1, 216]               0
        Unflatten-18             [-1, 24, 3, 3]               0
  ConvTranspose2d-19            [-1, 192, 6, 6]          41,664
             ReLU-20            [-1, 192, 6, 6]               0
  ConvTranspose2d-21             [-1, 96, 8, 8]         165,984
             ReLU-22             [-1, 96, 8, 8]               0
  ConvTranspose2d-23           [-1, 48, 12, 12]          18,480
             ReLU-24           [-1, 48, 12, 12]               0
  ConvTranspose2d-25            [-1, 1, 24, 24]             433
================================================================
Total params: 629,023
Trainable params: 175,878
Non-trainable params: 453,145
----------------------------------------------------------------
Input size (MB): 0.00
Forward/backward pass size (MB): 0.63
Params size (MB): 2.40
Estimated Total Size (MB): 3.04
----------------------------------------------------------------
None
Training started!! - Reconstruction
…
written to: ./models/img/14.5.20231123200736_img.pt
Elapsed time: 55787.57938051224 seconds.
Iteration config: 89
[Linear(in_features=216, out_features=324, bias=True), ReLU(), Linear(in_features=324, out_features=54, bias=True), ReLU(), Linear(in_features=54, out_features=432, bias=True), ReLU(), Linear(in_features=432, out_features=216, bias=True), ReLU()]


Dataset loaded!! Length (train dataset) - 24000
----------------------------------------------------------------
        Layer (type)               Output Shape         Param #
================================================================
            Conv2d-1           [-1, 48, 12, 12]             480
              ReLU-2           [-1, 48, 12, 12]               0
            Conv2d-3             [-1, 96, 8, 8]          18,528
              ReLU-4             [-1, 96, 8, 8]               0
            Conv2d-5            [-1, 192, 6, 6]         166,080
              ReLU-6            [-1, 192, 6, 6]               0
            Conv2d-7             [-1, 24, 3, 3]          41,496
              ReLU-8             [-1, 24, 3, 3]               0
           Flatten-9                  [-1, 216]               0
           Linear-10                  [-1, 324]          70,308
             ReLU-11                  [-1, 324]               0
           Linear-12                   [-1, 54]          17,550
             ReLU-13                   [-1, 54]               0
           Linear-14                  [-1, 432]          23,760
             ReLU-15                  [-1, 432]               0
           Linear-16                  [-1, 216]          93,528
             ReLU-17                  [-1, 216]               0
        Unflatten-18             [-1, 24, 3, 3]               0
  ConvTranspose2d-19            [-1, 192, 6, 6]          41,664
             ReLU-20            [-1, 192, 6, 6]               0
  ConvTranspose2d-21             [-1, 96, 8, 8]         165,984
             ReLU-22             [-1, 96, 8, 8]               0
  ConvTranspose2d-23           [-1, 48, 12, 12]          18,480
             ReLU-24           [-1, 48, 12, 12]               0
  ConvTranspose2d-25            [-1, 1, 24, 24]             433
================================================================
Total params: 658,291
Trainable params: 205,146
Non-trainable params: 453,145
----------------------------------------------------------------
Input size (MB): 0.00
Forward/backward pass size (MB): 0.64
Params size (MB): 2.51
Estimated Total Size (MB): 3.15
----------------------------------------------------------------
None
Training started!! - Reconstruction
…
written to: ./models/img/14.5.20231123201812_img.pt
Elapsed time: 56427.75741457939 seconds.
Iteration config: 90
[Linear(in_features=216, out_features=324, bias=True), ReLU(), Linear(in_features=324, out_features=324, bias=True), ReLU(), Linear(in_features=324, out_features=108, bias=True), ReLU(), Linear(in_features=108, out_features=216, bias=True), ReLU()]


Dataset loaded!! Length (train dataset) - 24000
----------------------------------------------------------------
        Layer (type)               Output Shape         Param #
================================================================
            Conv2d-1           [-1, 48, 12, 12]             480
              ReLU-2           [-1, 48, 12, 12]               0
            Conv2d-3             [-1, 96, 8, 8]          18,528
              ReLU-4             [-1, 96, 8, 8]               0
            Conv2d-5            [-1, 192, 6, 6]         166,080
              ReLU-6            [-1, 192, 6, 6]               0
            Conv2d-7             [-1, 24, 3, 3]          41,496
              ReLU-8             [-1, 24, 3, 3]               0
           Flatten-9                  [-1, 216]               0
           Linear-10                  [-1, 324]          70,308
             ReLU-11                  [-1, 324]               0
           Linear-12                  [-1, 324]         105,300
             ReLU-13                  [-1, 324]               0
           Linear-14                  [-1, 108]          35,100
             ReLU-15                  [-1, 108]               0
           Linear-16                  [-1, 216]          23,544
             ReLU-17                  [-1, 216]               0
        Unflatten-18             [-1, 24, 3, 3]               0
  ConvTranspose2d-19            [-1, 192, 6, 6]          41,664
             ReLU-20            [-1, 192, 6, 6]               0
  ConvTranspose2d-21             [-1, 96, 8, 8]         165,984
             ReLU-22             [-1, 96, 8, 8]               0
  ConvTranspose2d-23           [-1, 48, 12, 12]          18,480
             ReLU-24           [-1, 48, 12, 12]               0
  ConvTranspose2d-25            [-1, 1, 24, 24]             433
================================================================
Total params: 687,397
Trainable params: 234,252
Non-trainable params: 453,145
----------------------------------------------------------------
Input size (MB): 0.00
Forward/backward pass size (MB): 0.64
Params size (MB): 2.62
Estimated Total Size (MB): 3.26
----------------------------------------------------------------
None
Training started!! - Reconstruction
…
written to: ./models/img/14.5.20231123202853_img.pt
Elapsed time: 57072.247965335846 seconds.
Iteration config: 91
[Linear(in_features=216, out_features=324, bias=True), ReLU(), Linear(in_features=324, out_features=324, bias=True), ReLU(), Linear(in_features=324, out_features=144, bias=True), ReLU(), Linear(in_features=144, out_features=216, bias=True), ReLU()]


Dataset loaded!! Length (train dataset) - 24000
----------------------------------------------------------------
        Layer (type)               Output Shape         Param #
================================================================
            Conv2d-1           [-1, 48, 12, 12]             480
              ReLU-2           [-1, 48, 12, 12]               0
            Conv2d-3             [-1, 96, 8, 8]          18,528
              ReLU-4             [-1, 96, 8, 8]               0
            Conv2d-5            [-1, 192, 6, 6]         166,080
              ReLU-6            [-1, 192, 6, 6]               0
            Conv2d-7             [-1, 24, 3, 3]          41,496
              ReLU-8             [-1, 24, 3, 3]               0
           Flatten-9                  [-1, 216]               0
           Linear-10                  [-1, 324]          70,308
             ReLU-11                  [-1, 324]               0
           Linear-12                  [-1, 324]         105,300
             ReLU-13                  [-1, 324]               0
           Linear-14                  [-1, 144]          46,800
             ReLU-15                  [-1, 144]               0
           Linear-16                  [-1, 216]          31,320
             ReLU-17                  [-1, 216]               0
        Unflatten-18             [-1, 24, 3, 3]               0
  ConvTranspose2d-19            [-1, 192, 6, 6]          41,664
             ReLU-20            [-1, 192, 6, 6]               0
  ConvTranspose2d-21             [-1, 96, 8, 8]         165,984
             ReLU-22             [-1, 96, 8, 8]               0
  ConvTranspose2d-23           [-1, 48, 12, 12]          18,480
             ReLU-24           [-1, 48, 12, 12]               0
  ConvTranspose2d-25            [-1, 1, 24, 24]             433
================================================================
Total params: 706,873
Trainable params: 253,728
Non-trainable params: 453,145
----------------------------------------------------------------
Input size (MB): 0.00
Forward/backward pass size (MB): 0.64
Params size (MB): 2.70
Estimated Total Size (MB): 3.33
----------------------------------------------------------------
None
Training started!! - Reconstruction
…
written to: ./models/img/14.5.20231123203937_img.pt
Elapsed time: 57720.860321998596 seconds.
Iteration config: 92
[Linear(in_features=216, out_features=324, bias=True), ReLU(), Linear(in_features=324, out_features=324, bias=True), ReLU(), Linear(in_features=324, out_features=54, bias=True), ReLU(), Linear(in_features=54, out_features=216, bias=True), ReLU()]


Dataset loaded!! Length (train dataset) - 24000
----------------------------------------------------------------
        Layer (type)               Output Shape         Param #
================================================================
            Conv2d-1           [-1, 48, 12, 12]             480
              ReLU-2           [-1, 48, 12, 12]               0
            Conv2d-3             [-1, 96, 8, 8]          18,528
              ReLU-4             [-1, 96, 8, 8]               0
            Conv2d-5            [-1, 192, 6, 6]         166,080
              ReLU-6            [-1, 192, 6, 6]               0
            Conv2d-7             [-1, 24, 3, 3]          41,496
              ReLU-8             [-1, 24, 3, 3]               0
           Flatten-9                  [-1, 216]               0
           Linear-10                  [-1, 324]          70,308
             ReLU-11                  [-1, 324]               0
           Linear-12                  [-1, 324]         105,300
             ReLU-13                  [-1, 324]               0
           Linear-14                   [-1, 54]          17,550
             ReLU-15                   [-1, 54]               0
           Linear-16                  [-1, 216]          11,880
             ReLU-17                  [-1, 216]               0
        Unflatten-18             [-1, 24, 3, 3]               0
  ConvTranspose2d-19            [-1, 192, 6, 6]          41,664
             ReLU-20            [-1, 192, 6, 6]               0
  ConvTranspose2d-21             [-1, 96, 8, 8]         165,984
             ReLU-22             [-1, 96, 8, 8]               0
  ConvTranspose2d-23           [-1, 48, 12, 12]          18,480
             ReLU-24           [-1, 48, 12, 12]               0
  ConvTranspose2d-25            [-1, 1, 24, 24]             433
================================================================
Total params: 658,183
Trainable params: 205,038
Non-trainable params: 453,145
----------------------------------------------------------------
Input size (MB): 0.00
Forward/backward pass size (MB): 0.63
Params size (MB): 2.51
Estimated Total Size (MB): 3.15
----------------------------------------------------------------
None
Training started!! - Reconstruction
…
written to: ./models/img/14.5.20231123205026_img.pt
Elapsed time: 58367.415544748306 seconds.
Iteration config: 93
[Linear(in_features=216, out_features=324, bias=True), ReLU(), Linear(in_features=324, out_features=324, bias=True), ReLU(), Linear(in_features=324, out_features=324, bias=True), ReLU(), Linear(in_features=324, out_features=216, bias=True), ReLU()]


Dataset loaded!! Length (train dataset) - 24000
----------------------------------------------------------------
        Layer (type)               Output Shape         Param #
================================================================
            Conv2d-1           [-1, 48, 12, 12]             480
              ReLU-2           [-1, 48, 12, 12]               0
            Conv2d-3             [-1, 96, 8, 8]          18,528
              ReLU-4             [-1, 96, 8, 8]               0
            Conv2d-5            [-1, 192, 6, 6]         166,080
              ReLU-6            [-1, 192, 6, 6]               0
            Conv2d-7             [-1, 24, 3, 3]          41,496
              ReLU-8             [-1, 24, 3, 3]               0
           Flatten-9                  [-1, 216]               0
           Linear-10                  [-1, 324]          70,308
             ReLU-11                  [-1, 324]               0
           Linear-12                  [-1, 324]         105,300
             ReLU-13                  [-1, 324]               0
           Linear-14                  [-1, 324]         105,300
             ReLU-15                  [-1, 324]               0
           Linear-16                  [-1, 216]          70,200
             ReLU-17                  [-1, 216]               0
        Unflatten-18             [-1, 24, 3, 3]               0
  ConvTranspose2d-19            [-1, 192, 6, 6]          41,664
             ReLU-20            [-1, 192, 6, 6]               0
  ConvTranspose2d-21             [-1, 96, 8, 8]         165,984
             ReLU-22             [-1, 96, 8, 8]               0
  ConvTranspose2d-23           [-1, 48, 12, 12]          18,480
             ReLU-24           [-1, 48, 12, 12]               0
  ConvTranspose2d-25            [-1, 1, 24, 24]             433
================================================================
Total params: 804,253
Trainable params: 351,108
Non-trainable params: 453,145
----------------------------------------------------------------
Input size (MB): 0.00
Forward/backward pass size (MB): 0.64
Params size (MB): 3.07
Estimated Total Size (MB): 3.71
----------------------------------------------------------------
None
Training started!! - Reconstruction
…
written to: ./models/img/14.5.20231123210112_img.pt
Elapsed time: 59016.81893348694 seconds.
Iteration config: 94
[Linear(in_features=216, out_features=324, bias=True), ReLU(), Linear(in_features=324, out_features=324, bias=True), ReLU(), Linear(in_features=324, out_features=432, bias=True), ReLU(), Linear(in_features=432, out_features=216, bias=True), ReLU()]


Dataset loaded!! Length (train dataset) - 24000
----------------------------------------------------------------
        Layer (type)               Output Shape         Param #
================================================================
            Conv2d-1           [-1, 48, 12, 12]             480
              ReLU-2           [-1, 48, 12, 12]               0
            Conv2d-3             [-1, 96, 8, 8]          18,528
              ReLU-4             [-1, 96, 8, 8]               0
            Conv2d-5            [-1, 192, 6, 6]         166,080
              ReLU-6            [-1, 192, 6, 6]               0
            Conv2d-7             [-1, 24, 3, 3]          41,496
              ReLU-8             [-1, 24, 3, 3]               0
           Flatten-9                  [-1, 216]               0
           Linear-10                  [-1, 324]          70,308
             ReLU-11                  [-1, 324]               0
           Linear-12                  [-1, 324]         105,300
             ReLU-13                  [-1, 324]               0
           Linear-14                  [-1, 432]         140,400
             ReLU-15                  [-1, 432]               0
           Linear-16                  [-1, 216]          93,528
             ReLU-17                  [-1, 216]               0
        Unflatten-18             [-1, 24, 3, 3]               0
  ConvTranspose2d-19            [-1, 192, 6, 6]          41,664
             ReLU-20            [-1, 192, 6, 6]               0
  ConvTranspose2d-21             [-1, 96, 8, 8]         165,984
             ReLU-22             [-1, 96, 8, 8]               0
  ConvTranspose2d-23           [-1, 48, 12, 12]          18,480
             ReLU-24           [-1, 48, 12, 12]               0
  ConvTranspose2d-25            [-1, 1, 24, 24]             433
================================================================
Total params: 862,681
Trainable params: 409,536
Non-trainable params: 453,145
----------------------------------------------------------------
Input size (MB): 0.00
Forward/backward pass size (MB): 0.64
Params size (MB): 3.29
Estimated Total Size (MB): 3.93
----------------------------------------------------------------
None
Training started!! - Reconstruction
…
written to: ./models/img/14.5.20231123211202_img.pt
Elapsed time: 59681.81484222412 seconds.
Iteration config: 95
[Linear(in_features=216, out_features=324, bias=True), ReLU(), Linear(in_features=324, out_features=432, bias=True), ReLU(), Linear(in_features=432, out_features=108, bias=True), ReLU(), Linear(in_features=108, out_features=216, bias=True), ReLU()]


Dataset loaded!! Length (train dataset) - 24000
----------------------------------------------------------------
        Layer (type)               Output Shape         Param #
================================================================
            Conv2d-1           [-1, 48, 12, 12]             480
              ReLU-2           [-1, 48, 12, 12]               0
            Conv2d-3             [-1, 96, 8, 8]          18,528
              ReLU-4             [-1, 96, 8, 8]               0
            Conv2d-5            [-1, 192, 6, 6]         166,080
              ReLU-6            [-1, 192, 6, 6]               0
            Conv2d-7             [-1, 24, 3, 3]          41,496
              ReLU-8             [-1, 24, 3, 3]               0
           Flatten-9                  [-1, 216]               0
           Linear-10                  [-1, 324]          70,308
             ReLU-11                  [-1, 324]               0
           Linear-12                  [-1, 432]         140,400
             ReLU-13                  [-1, 432]               0
           Linear-14                  [-1, 108]          46,764
             ReLU-15                  [-1, 108]               0
           Linear-16                  [-1, 216]          23,544
             ReLU-17                  [-1, 216]               0
        Unflatten-18             [-1, 24, 3, 3]               0
  ConvTranspose2d-19            [-1, 192, 6, 6]          41,664
             ReLU-20            [-1, 192, 6, 6]               0
  ConvTranspose2d-21             [-1, 96, 8, 8]         165,984
             ReLU-22             [-1, 96, 8, 8]               0
  ConvTranspose2d-23           [-1, 48, 12, 12]          18,480
             ReLU-24           [-1, 48, 12, 12]               0
  ConvTranspose2d-25            [-1, 1, 24, 24]             433
================================================================
Total params: 734,161
Trainable params: 281,016
Non-trainable params: 453,145
----------------------------------------------------------------
Input size (MB): 0.00
Forward/backward pass size (MB): 0.64
Params size (MB): 2.80
Estimated Total Size (MB): 3.44
----------------------------------------------------------------
None
Training started!! - Reconstruction
…
written to: ./models/img/14.5.20231123212307_img.pt
Elapsed time: 60344.12456846237 seconds.
Iteration config: 96
[Linear(in_features=216, out_features=324, bias=True), ReLU(), Linear(in_features=324, out_features=432, bias=True), ReLU(), Linear(in_features=432, out_features=144, bias=True), ReLU(), Linear(in_features=144, out_features=216, bias=True), ReLU()]


Dataset loaded!! Length (train dataset) - 24000
----------------------------------------------------------------
        Layer (type)               Output Shape         Param #
================================================================
            Conv2d-1           [-1, 48, 12, 12]             480
              ReLU-2           [-1, 48, 12, 12]               0
            Conv2d-3             [-1, 96, 8, 8]          18,528
              ReLU-4             [-1, 96, 8, 8]               0
            Conv2d-5            [-1, 192, 6, 6]         166,080
              ReLU-6            [-1, 192, 6, 6]               0
            Conv2d-7             [-1, 24, 3, 3]          41,496
              ReLU-8             [-1, 24, 3, 3]               0
           Flatten-9                  [-1, 216]               0
           Linear-10                  [-1, 324]          70,308
             ReLU-11                  [-1, 324]               0
           Linear-12                  [-1, 432]         140,400
             ReLU-13                  [-1, 432]               0
           Linear-14                  [-1, 144]          62,352
             ReLU-15                  [-1, 144]               0
           Linear-16                  [-1, 216]          31,320
             ReLU-17                  [-1, 216]               0
        Unflatten-18             [-1, 24, 3, 3]               0
  ConvTranspose2d-19            [-1, 192, 6, 6]          41,664
             ReLU-20            [-1, 192, 6, 6]               0
  ConvTranspose2d-21             [-1, 96, 8, 8]         165,984
             ReLU-22             [-1, 96, 8, 8]               0
  ConvTranspose2d-23           [-1, 48, 12, 12]          18,480
             ReLU-24           [-1, 48, 12, 12]               0
  ConvTranspose2d-25            [-1, 1, 24, 24]             433
================================================================
Total params: 757,525
Trainable params: 304,380
Non-trainable params: 453,145
----------------------------------------------------------------
Input size (MB): 0.00
Forward/backward pass size (MB): 0.64
Params size (MB): 2.89
Estimated Total Size (MB): 3.53
----------------------------------------------------------------
None
Training started!! - Reconstruction
…
written to: ./models/img/14.5.20231123213409_img.pt
Elapsed time: 61006.29323267937 seconds.
Iteration config: 97
[Linear(in_features=216, out_features=324, bias=True), ReLU(), Linear(in_features=324, out_features=432, bias=True), ReLU(), Linear(in_features=432, out_features=54, bias=True), ReLU(), Linear(in_features=54, out_features=216, bias=True), ReLU()]


Dataset loaded!! Length (train dataset) - 24000
----------------------------------------------------------------
        Layer (type)               Output Shape         Param #
================================================================
            Conv2d-1           [-1, 48, 12, 12]             480
              ReLU-2           [-1, 48, 12, 12]               0
            Conv2d-3             [-1, 96, 8, 8]          18,528
              ReLU-4             [-1, 96, 8, 8]               0
            Conv2d-5            [-1, 192, 6, 6]         166,080
              ReLU-6            [-1, 192, 6, 6]               0
            Conv2d-7             [-1, 24, 3, 3]          41,496
              ReLU-8             [-1, 24, 3, 3]               0
           Flatten-9                  [-1, 216]               0
           Linear-10                  [-1, 324]          70,308
             ReLU-11                  [-1, 324]               0
           Linear-12                  [-1, 432]         140,400
             ReLU-13                  [-1, 432]               0
           Linear-14                   [-1, 54]          23,382
             ReLU-15                   [-1, 54]               0
           Linear-16                  [-1, 216]          11,880
             ReLU-17                  [-1, 216]               0
        Unflatten-18             [-1, 24, 3, 3]               0
  ConvTranspose2d-19            [-1, 192, 6, 6]          41,664
             ReLU-20            [-1, 192, 6, 6]               0
  ConvTranspose2d-21             [-1, 96, 8, 8]         165,984
             ReLU-22             [-1, 96, 8, 8]               0
  ConvTranspose2d-23           [-1, 48, 12, 12]          18,480
             ReLU-24           [-1, 48, 12, 12]               0
  ConvTranspose2d-25            [-1, 1, 24, 24]             433
================================================================
Total params: 699,115
Trainable params: 245,970
Non-trainable params: 453,145
----------------------------------------------------------------
Input size (MB): 0.00
Forward/backward pass size (MB): 0.64
Params size (MB): 2.67
Estimated Total Size (MB): 3.31
----------------------------------------------------------------
None
Training started!! - Reconstruction
…
written to: ./models/img/14.5.20231123214511_img.pt
Elapsed time: 61667.095759153366 seconds.
Iteration config: 98
[Linear(in_features=216, out_features=324, bias=True), ReLU(), Linear(in_features=324, out_features=432, bias=True), ReLU(), Linear(in_features=432, out_features=324, bias=True), ReLU(), Linear(in_features=324, out_features=216, bias=True), ReLU()]


Dataset loaded!! Length (train dataset) - 24000
----------------------------------------------------------------
        Layer (type)               Output Shape         Param #
================================================================
            Conv2d-1           [-1, 48, 12, 12]             480
              ReLU-2           [-1, 48, 12, 12]               0
            Conv2d-3             [-1, 96, 8, 8]          18,528
              ReLU-4             [-1, 96, 8, 8]               0
            Conv2d-5            [-1, 192, 6, 6]         166,080
              ReLU-6            [-1, 192, 6, 6]               0
            Conv2d-7             [-1, 24, 3, 3]          41,496
              ReLU-8             [-1, 24, 3, 3]               0
           Flatten-9                  [-1, 216]               0
           Linear-10                  [-1, 324]          70,308
             ReLU-11                  [-1, 324]               0
           Linear-12                  [-1, 432]         140,400
             ReLU-13                  [-1, 432]               0
           Linear-14                  [-1, 324]         140,292
             ReLU-15                  [-1, 324]               0
           Linear-16                  [-1, 216]          70,200
             ReLU-17                  [-1, 216]               0
        Unflatten-18             [-1, 24, 3, 3]               0
  ConvTranspose2d-19            [-1, 192, 6, 6]          41,664
             ReLU-20            [-1, 192, 6, 6]               0
  ConvTranspose2d-21             [-1, 96, 8, 8]         165,984
             ReLU-22             [-1, 96, 8, 8]               0
  ConvTranspose2d-23           [-1, 48, 12, 12]          18,480
             ReLU-24           [-1, 48, 12, 12]               0
  ConvTranspose2d-25            [-1, 1, 24, 24]             433
================================================================
Total params: 874,345
Trainable params: 421,200
Non-trainable params: 453,145
----------------------------------------------------------------
Input size (MB): 0.00
Forward/backward pass size (MB): 0.64
Params size (MB): 3.34
Estimated Total Size (MB): 3.98
----------------------------------------------------------------
None
Training started!! - Reconstruction
…
written to: ./models/img/14.5.20231123215612_img.pt
Elapsed time: 62335.748540878296 seconds.
Iteration config: 99
[Linear(in_features=216, out_features=324, bias=True), ReLU(), Linear(in_features=324, out_features=432, bias=True), ReLU(), Linear(in_features=432, out_features=432, bias=True), ReLU(), Linear(in_features=432, out_features=216, bias=True), ReLU()]


Dataset loaded!! Length (train dataset) - 24000
----------------------------------------------------------------
        Layer (type)               Output Shape         Param #
================================================================
            Conv2d-1           [-1, 48, 12, 12]             480
              ReLU-2           [-1, 48, 12, 12]               0
            Conv2d-3             [-1, 96, 8, 8]          18,528
              ReLU-4             [-1, 96, 8, 8]               0
            Conv2d-5            [-1, 192, 6, 6]         166,080
              ReLU-6            [-1, 192, 6, 6]               0
            Conv2d-7             [-1, 24, 3, 3]          41,496
              ReLU-8             [-1, 24, 3, 3]               0
           Flatten-9                  [-1, 216]               0
           Linear-10                  [-1, 324]          70,308
             ReLU-11                  [-1, 324]               0
           Linear-12                  [-1, 432]         140,400
             ReLU-13                  [-1, 432]               0
           Linear-14                  [-1, 432]         187,056
             ReLU-15                  [-1, 432]               0
           Linear-16                  [-1, 216]          93,528
             ReLU-17                  [-1, 216]               0
        Unflatten-18             [-1, 24, 3, 3]               0
  ConvTranspose2d-19            [-1, 192, 6, 6]          41,664
             ReLU-20            [-1, 192, 6, 6]               0
  ConvTranspose2d-21             [-1, 96, 8, 8]         165,984
             ReLU-22             [-1, 96, 8, 8]               0
  ConvTranspose2d-23           [-1, 48, 12, 12]          18,480
             ReLU-24           [-1, 48, 12, 12]               0
  ConvTranspose2d-25            [-1, 1, 24, 24]             433
================================================================
Total params: 944,437
Trainable params: 491,292
Non-trainable params: 453,145
----------------------------------------------------------------
Input size (MB): 0.00
Forward/backward pass size (MB): 0.64
Params size (MB): 3.60
Estimated Total Size (MB): 4.25
----------------------------------------------------------------
None
Training started!! - Reconstruction
…
written to: ./models/img/14.5.20231123220721_img.pt
Elapsed time: 63007.09537649155 seconds.
Iteration config: 100
[Linear(in_features=216, out_features=432, bias=True), ReLU(), Linear(in_features=432, out_features=108, bias=True), ReLU(), Linear(in_features=108, out_features=108, bias=True), ReLU(), Linear(in_features=108, out_features=216, bias=True), ReLU()]


Dataset loaded!! Length (train dataset) - 24000
----------------------------------------------------------------
        Layer (type)               Output Shape         Param #
================================================================
            Conv2d-1           [-1, 48, 12, 12]             480
              ReLU-2           [-1, 48, 12, 12]               0
            Conv2d-3             [-1, 96, 8, 8]          18,528
              ReLU-4             [-1, 96, 8, 8]               0
            Conv2d-5            [-1, 192, 6, 6]         166,080
              ReLU-6            [-1, 192, 6, 6]               0
            Conv2d-7             [-1, 24, 3, 3]          41,496
              ReLU-8             [-1, 24, 3, 3]               0
           Flatten-9                  [-1, 216]               0
           Linear-10                  [-1, 432]          93,744
             ReLU-11                  [-1, 432]               0
           Linear-12                  [-1, 108]          46,764
             ReLU-13                  [-1, 108]               0
           Linear-14                  [-1, 108]          11,772
             ReLU-15                  [-1, 108]               0
           Linear-16                  [-1, 216]          23,544
             ReLU-17                  [-1, 216]               0
        Unflatten-18             [-1, 24, 3, 3]               0
  ConvTranspose2d-19            [-1, 192, 6, 6]          41,664
             ReLU-20            [-1, 192, 6, 6]               0
  ConvTranspose2d-21             [-1, 96, 8, 8]         165,984
             ReLU-22             [-1, 96, 8, 8]               0
  ConvTranspose2d-23           [-1, 48, 12, 12]          18,480
             ReLU-24           [-1, 48, 12, 12]               0
  ConvTranspose2d-25            [-1, 1, 24, 24]             433
================================================================
Total params: 628,969
Trainable params: 175,824
Non-trainable params: 453,145
----------------------------------------------------------------
Input size (MB): 0.00
Forward/backward pass size (MB): 0.63
Params size (MB): 2.40
Estimated Total Size (MB): 3.04
----------------------------------------------------------------
None
Training started!! - Reconstruction
…
written to: ./models/img/14.5.20231123221832_img.pt
Elapsed time: 63649.46598958969 seconds.
Iteration config: 101
[Linear(in_features=216, out_features=432, bias=True), ReLU(), Linear(in_features=432, out_features=108, bias=True), ReLU(), Linear(in_features=108, out_features=144, bias=True), ReLU(), Linear(in_features=144, out_features=216, bias=True), ReLU()]


Dataset loaded!! Length (train dataset) - 24000
----------------------------------------------------------------
        Layer (type)               Output Shape         Param #
================================================================
            Conv2d-1           [-1, 48, 12, 12]             480
              ReLU-2           [-1, 48, 12, 12]               0
            Conv2d-3             [-1, 96, 8, 8]          18,528
              ReLU-4             [-1, 96, 8, 8]               0
            Conv2d-5            [-1, 192, 6, 6]         166,080
              ReLU-6            [-1, 192, 6, 6]               0
            Conv2d-7             [-1, 24, 3, 3]          41,496
              ReLU-8             [-1, 24, 3, 3]               0
           Flatten-9                  [-1, 216]               0
           Linear-10                  [-1, 432]          93,744
             ReLU-11                  [-1, 432]               0
           Linear-12                  [-1, 108]          46,764
             ReLU-13                  [-1, 108]               0
           Linear-14                  [-1, 144]          15,696
             ReLU-15                  [-1, 144]               0
           Linear-16                  [-1, 216]          31,320
             ReLU-17                  [-1, 216]               0
        Unflatten-18             [-1, 24, 3, 3]               0
  ConvTranspose2d-19            [-1, 192, 6, 6]          41,664
             ReLU-20            [-1, 192, 6, 6]               0
  ConvTranspose2d-21             [-1, 96, 8, 8]         165,984
             ReLU-22             [-1, 96, 8, 8]               0
  ConvTranspose2d-23           [-1, 48, 12, 12]          18,480
             ReLU-24           [-1, 48, 12, 12]               0
  ConvTranspose2d-25            [-1, 1, 24, 24]             433
================================================================
Total params: 640,669
Trainable params: 187,524
Non-trainable params: 453,145
----------------------------------------------------------------
Input size (MB): 0.00
Forward/backward pass size (MB): 0.63
Params size (MB): 2.44
Estimated Total Size (MB): 3.08
----------------------------------------------------------------
None
Training started!! - Reconstruction
…
written to: ./models/img/14.5.20231123222914_img.pt
Elapsed time: 64291.670171022415 seconds.
Iteration config: 102
[Linear(in_features=216, out_features=432, bias=True), ReLU(), Linear(in_features=432, out_features=108, bias=True), ReLU(), Linear(in_features=108, out_features=54, bias=True), ReLU(), Linear(in_features=54, out_features=216, bias=True), ReLU()]


Dataset loaded!! Length (train dataset) - 24000
----------------------------------------------------------------
        Layer (type)               Output Shape         Param #
================================================================
            Conv2d-1           [-1, 48, 12, 12]             480
              ReLU-2           [-1, 48, 12, 12]               0
            Conv2d-3             [-1, 96, 8, 8]          18,528
              ReLU-4             [-1, 96, 8, 8]               0
            Conv2d-5            [-1, 192, 6, 6]         166,080
              ReLU-6            [-1, 192, 6, 6]               0
            Conv2d-7             [-1, 24, 3, 3]          41,496
              ReLU-8             [-1, 24, 3, 3]               0
           Flatten-9                  [-1, 216]               0
           Linear-10                  [-1, 432]          93,744
             ReLU-11                  [-1, 432]               0
           Linear-12                  [-1, 108]          46,764
             ReLU-13                  [-1, 108]               0
           Linear-14                   [-1, 54]           5,886
             ReLU-15                   [-1, 54]               0
           Linear-16                  [-1, 216]          11,880
             ReLU-17                  [-1, 216]               0
        Unflatten-18             [-1, 24, 3, 3]               0
  ConvTranspose2d-19            [-1, 192, 6, 6]          41,664
             ReLU-20            [-1, 192, 6, 6]               0
  ConvTranspose2d-21             [-1, 96, 8, 8]         165,984
             ReLU-22             [-1, 96, 8, 8]               0
  ConvTranspose2d-23           [-1, 48, 12, 12]          18,480
             ReLU-24           [-1, 48, 12, 12]               0
  ConvTranspose2d-25            [-1, 1, 24, 24]             433
================================================================
Total params: 611,419
Trainable params: 158,274
Non-trainable params: 453,145
----------------------------------------------------------------
Input size (MB): 0.00
Forward/backward pass size (MB): 0.63
Params size (MB): 2.33
Estimated Total Size (MB): 2.97
----------------------------------------------------------------
None
Training started!! - Reconstruction
…
written to: ./models/img/14.5.20231123223957_img.pt
Elapsed time: 64934.88032865524 seconds.
Iteration config: 103
[Linear(in_features=216, out_features=432, bias=True), ReLU(), Linear(in_features=432, out_features=108, bias=True), ReLU(), Linear(in_features=108, out_features=324, bias=True), ReLU(), Linear(in_features=324, out_features=216, bias=True), ReLU()]


Dataset loaded!! Length (train dataset) - 24000
----------------------------------------------------------------
        Layer (type)               Output Shape         Param #
================================================================
            Conv2d-1           [-1, 48, 12, 12]             480
              ReLU-2           [-1, 48, 12, 12]               0
            Conv2d-3             [-1, 96, 8, 8]          18,528
              ReLU-4             [-1, 96, 8, 8]               0
            Conv2d-5            [-1, 192, 6, 6]         166,080
              ReLU-6            [-1, 192, 6, 6]               0
            Conv2d-7             [-1, 24, 3, 3]          41,496
              ReLU-8             [-1, 24, 3, 3]               0
           Flatten-9                  [-1, 216]               0
           Linear-10                  [-1, 432]          93,744
             ReLU-11                  [-1, 432]               0
           Linear-12                  [-1, 108]          46,764
             ReLU-13                  [-1, 108]               0
           Linear-14                  [-1, 324]          35,316
             ReLU-15                  [-1, 324]               0
           Linear-16                  [-1, 216]          70,200
             ReLU-17                  [-1, 216]               0
        Unflatten-18             [-1, 24, 3, 3]               0
  ConvTranspose2d-19            [-1, 192, 6, 6]          41,664
             ReLU-20            [-1, 192, 6, 6]               0
  ConvTranspose2d-21             [-1, 96, 8, 8]         165,984
             ReLU-22             [-1, 96, 8, 8]               0
  ConvTranspose2d-23           [-1, 48, 12, 12]          18,480
             ReLU-24           [-1, 48, 12, 12]               0
  ConvTranspose2d-25            [-1, 1, 24, 24]             433
================================================================
Total params: 699,169
Trainable params: 246,024
Non-trainable params: 453,145
----------------------------------------------------------------
Input size (MB): 0.00
Forward/backward pass size (MB): 0.64
Params size (MB): 2.67
Estimated Total Size (MB): 3.31
----------------------------------------------------------------
None
Training started!! - Reconstruction
…
written to: ./models/img/14.5.20231123225040_img.pt
Elapsed time: 65576.622777462 seconds.
Iteration config: 104
[Linear(in_features=216, out_features=432, bias=True), ReLU(), Linear(in_features=432, out_features=108, bias=True), ReLU(), Linear(in_features=108, out_features=432, bias=True), ReLU(), Linear(in_features=432, out_features=216, bias=True), ReLU()]


Dataset loaded!! Length (train dataset) - 24000
----------------------------------------------------------------
        Layer (type)               Output Shape         Param #
================================================================
            Conv2d-1           [-1, 48, 12, 12]             480
              ReLU-2           [-1, 48, 12, 12]               0
            Conv2d-3             [-1, 96, 8, 8]          18,528
              ReLU-4             [-1, 96, 8, 8]               0
            Conv2d-5            [-1, 192, 6, 6]         166,080
              ReLU-6            [-1, 192, 6, 6]               0
            Conv2d-7             [-1, 24, 3, 3]          41,496
              ReLU-8             [-1, 24, 3, 3]               0
           Flatten-9                  [-1, 216]               0
           Linear-10                  [-1, 432]          93,744
             ReLU-11                  [-1, 432]               0
           Linear-12                  [-1, 108]          46,764
             ReLU-13                  [-1, 108]               0
           Linear-14                  [-1, 432]          47,088
             ReLU-15                  [-1, 432]               0
           Linear-16                  [-1, 216]          93,528
             ReLU-17                  [-1, 216]               0
        Unflatten-18             [-1, 24, 3, 3]               0
  ConvTranspose2d-19            [-1, 192, 6, 6]          41,664
             ReLU-20            [-1, 192, 6, 6]               0
  ConvTranspose2d-21             [-1, 96, 8, 8]         165,984
             ReLU-22             [-1, 96, 8, 8]               0
  ConvTranspose2d-23           [-1, 48, 12, 12]          18,480
             ReLU-24           [-1, 48, 12, 12]               0
  ConvTranspose2d-25            [-1, 1, 24, 24]             433
================================================================
Total params: 734,269
Trainable params: 281,124
Non-trainable params: 453,145
----------------------------------------------------------------
Input size (MB): 0.00
Forward/backward pass size (MB): 0.64
Params size (MB): 2.80
Estimated Total Size (MB): 3.44
----------------------------------------------------------------
None
Training started!! - Reconstruction
…
written to: ./models/img/14.5.20231123230121_img.pt
Elapsed time: 66221.42894411087 seconds.
Iteration config: 105
[Linear(in_features=216, out_features=432, bias=True), ReLU(), Linear(in_features=432, out_features=144, bias=True), ReLU(), Linear(in_features=144, out_features=108, bias=True), ReLU(), Linear(in_features=108, out_features=216, bias=True), ReLU()]


Dataset loaded!! Length (train dataset) - 24000
----------------------------------------------------------------
        Layer (type)               Output Shape         Param #
================================================================
            Conv2d-1           [-1, 48, 12, 12]             480
              ReLU-2           [-1, 48, 12, 12]               0
            Conv2d-3             [-1, 96, 8, 8]          18,528
              ReLU-4             [-1, 96, 8, 8]               0
            Conv2d-5            [-1, 192, 6, 6]         166,080
              ReLU-6            [-1, 192, 6, 6]               0
            Conv2d-7             [-1, 24, 3, 3]          41,496
              ReLU-8             [-1, 24, 3, 3]               0
           Flatten-9                  [-1, 216]               0
           Linear-10                  [-1, 432]          93,744
             ReLU-11                  [-1, 432]               0
           Linear-12                  [-1, 144]          62,352
             ReLU-13                  [-1, 144]               0
           Linear-14                  [-1, 108]          15,660
             ReLU-15                  [-1, 108]               0
           Linear-16                  [-1, 216]          23,544
             ReLU-17                  [-1, 216]               0
        Unflatten-18             [-1, 24, 3, 3]               0
  ConvTranspose2d-19            [-1, 192, 6, 6]          41,664
             ReLU-20            [-1, 192, 6, 6]               0
  ConvTranspose2d-21             [-1, 96, 8, 8]         165,984
             ReLU-22             [-1, 96, 8, 8]               0
  ConvTranspose2d-23           [-1, 48, 12, 12]          18,480
             ReLU-24           [-1, 48, 12, 12]               0
  ConvTranspose2d-25            [-1, 1, 24, 24]             433
================================================================
Total params: 648,445
Trainable params: 195,300
Non-trainable params: 453,145
----------------------------------------------------------------
Input size (MB): 0.00
Forward/backward pass size (MB): 0.63
Params size (MB): 2.47
Estimated Total Size (MB): 3.11
----------------------------------------------------------------
None
Training started!! - Reconstruction
…
written to: ./models/img/14.5.20231123231206_img.pt
Elapsed time: 66866.28670167923 seconds.
Iteration config: 106
[Linear(in_features=216, out_features=432, bias=True), ReLU(), Linear(in_features=432, out_features=144, bias=True), ReLU(), Linear(in_features=144, out_features=144, bias=True), ReLU(), Linear(in_features=144, out_features=216, bias=True), ReLU()]


Dataset loaded!! Length (train dataset) - 24000
----------------------------------------------------------------
        Layer (type)               Output Shape         Param #
================================================================
            Conv2d-1           [-1, 48, 12, 12]             480
              ReLU-2           [-1, 48, 12, 12]               0
            Conv2d-3             [-1, 96, 8, 8]          18,528
              ReLU-4             [-1, 96, 8, 8]               0
            Conv2d-5            [-1, 192, 6, 6]         166,080
              ReLU-6            [-1, 192, 6, 6]               0
            Conv2d-7             [-1, 24, 3, 3]          41,496
              ReLU-8             [-1, 24, 3, 3]               0
           Flatten-9                  [-1, 216]               0
           Linear-10                  [-1, 432]          93,744
             ReLU-11                  [-1, 432]               0
           Linear-12                  [-1, 144]          62,352
             ReLU-13                  [-1, 144]               0
           Linear-14                  [-1, 144]          20,880
             ReLU-15                  [-1, 144]               0
           Linear-16                  [-1, 216]          31,320
             ReLU-17                  [-1, 216]               0
        Unflatten-18             [-1, 24, 3, 3]               0
  ConvTranspose2d-19            [-1, 192, 6, 6]          41,664
             ReLU-20            [-1, 192, 6, 6]               0
  ConvTranspose2d-21             [-1, 96, 8, 8]         165,984
             ReLU-22             [-1, 96, 8, 8]               0
  ConvTranspose2d-23           [-1, 48, 12, 12]          18,480
             ReLU-24           [-1, 48, 12, 12]               0
  ConvTranspose2d-25            [-1, 1, 24, 24]             433
================================================================
Total params: 661,441
Trainable params: 208,296
Non-trainable params: 453,145
----------------------------------------------------------------
Input size (MB): 0.00
Forward/backward pass size (MB): 0.63
Params size (MB): 2.52
Estimated Total Size (MB): 3.16
----------------------------------------------------------------
None
Training started!! - Reconstruction
…
