14.4
with adjusted loss epoch
Importing finished!!
cuda is going to be used!!
Dataset loaded!! Length (train dataset) - 24000
----------------------------------------------------------------
        Layer (type)               Output Shape         Param #
================================================================
            Conv2d-1           [-1, 48, 12, 12]             480
              ReLU-2           [-1, 48, 12, 12]               0
            Conv2d-3             [-1, 96, 8, 8]          18,528
              ReLU-4             [-1, 96, 8, 8]               0
            Conv2d-5            [-1, 192, 6, 6]         166,080
              ReLU-6            [-1, 192, 6, 6]               0
            Conv2d-7             [-1, 24, 3, 3]          41,496
              ReLU-8             [-1, 24, 3, 3]               0
           Flatten-9                  [-1, 216]               0
        Unflatten-10             [-1, 24, 3, 3]               0
  ConvTranspose2d-11            [-1, 192, 6, 6]          41,664
             ReLU-12            [-1, 192, 6, 6]               0
  ConvTranspose2d-13             [-1, 96, 8, 8]         165,984
             ReLU-14             [-1, 96, 8, 8]               0
  ConvTranspose2d-15           [-1, 48, 12, 12]          18,480
             ReLU-16           [-1, 48, 12, 12]               0
  ConvTranspose2d-17            [-1, 1, 24, 24]             433
             Tanh-18            [-1, 1, 24, 24]               0
================================================================
Total params: 453,145
Trainable params: 453,145
Non-trainable params: 0
----------------------------------------------------------------
Input size (MB): 0.00
Forward/backward pass size (MB): 0.62
Params size (MB): 1.73
Estimated Total Size (MB): 2.36
----------------------------------------------------------------
None
Training started!! - Reconstruction
…
