…
fine=True, track_running_stats=True), Conv2d(16, 16, kernel_size=(3, 3), stride=(1, 1), padding=(1, 1)), ReLU(), Conv2d(16, 24, kernel_size=(3, 3), stride=(2, 2), padding=(1, 1)), BatchNorm2d(24, eps=1e-05, momentum=0.1, affine=True, track_running_stats=True), Conv2d(24, 24, kernel_size=(3, 3), stride=(1, 1), padding=(1, 1)), ReLU(), Flatten(start_dim=1, end_dim=-1)]


----------------------------------------------------------------
        Layer (type)               Output Shape         Param #
================================================================
            Conv2d-1              [-1, 8, 8, 8]              80
       BatchNorm2d-2              [-1, 8, 8, 8]              16
            Conv2d-3              [-1, 8, 8, 8]             584
              ReLU-4              [-1, 8, 8, 8]               0
            Conv2d-5             [-1, 16, 6, 6]           1,168
       BatchNorm2d-6             [-1, 16, 6, 6]              32
            Conv2d-7             [-1, 16, 6, 6]           2,320
              ReLU-8             [-1, 16, 6, 6]               0
            Conv2d-9             [-1, 24, 3, 3]           3,480
      BatchNorm2d-10             [-1, 24, 3, 3]              48
           Conv2d-11             [-1, 24, 3, 3]           5,208
             ReLU-12             [-1, 24, 3, 3]               0
          Flatten-13                  [-1, 216]               0
================================================================
Total params: 12,936
Trainable params: 12,936
Non-trainable params: 0
----------------------------------------------------------------
Input size (MB): 0.00
Forward/backward pass size (MB): 0.04
Params size (MB): 0.05
Estimated Total Size (MB): 0.09
----------------------------------------------------------------
None
Reconstructor from: ./models/img/14.2.20231110000321.pt
…
