2633595
1.3.x2
from 1,16,16->216,1,1 a bunch of them ::-1
Importing finished!!
cuda is going to be used!!
Dataset loaded!! Length (train dataset) - 19200
alpha 0.1
Reconstructor from: ./models/img/14.2.1.retraining.2.20231130014311_img.pt
Sequential(
  (0): Conv2d(1, 36, kernel_size=(5, 5), stride=(1, 1))
  (1): BatchNorm2d(36, eps=1e-05, momentum=0.1, affine=True, track_running_stats=True)
  (2): ReLU()
  (3): Conv2d(36, 54, kernel_size=(5, 5), stride=(1, 1))
  (4): BatchNorm2d(54, eps=1e-05, momentum=0.1, affine=True, track_running_stats=True)
  (5): ReLU()
  (6): Conv2d(54, 72, kernel_size=(5, 5), stride=(1, 1))
  (7): BatchNorm2d(72, eps=1e-05, momentum=0.1, affine=True, track_running_stats=True)
  (8): ReLU()
  (9): Conv2d(72, 108, kernel_size=(3, 3), stride=(1, 1))
  (10): BatchNorm2d(108, eps=1e-05, momentum=0.1, affine=True, track_running_stats=True)
  (11): ReLU()
  (12): Conv2d(108, 216, kernel_size=(2, 2), stride=(1, 1))
  (13): BatchNorm2d(216, eps=1e-05, momentum=0.1, affine=True, track_running_stats=True)
  (14): Flatten(start_dim=1, end_dim=-1)
)
Task: Training Epoch @ 0 L: 0.042619 M: 0.067164 S: 0.398922 -- Last: L: 0.034822 M: 0.007446 S: 0.378633 -- V2LR: Epoch M: 0.905049 Last M: 1.157134
Task: Validation Epoch @ 0 L: 0.040503 M: 0.075452 S: 0.366197 -- Last: L: 0.023458 M: 0.003684 S: 0.256556 -- V2LR: Epoch M: 3.733998 Last M: 1.256816
…
Digging!! Task: Training Epoch @ 0 L: 0.036401 M: 0.071466 S: 0.325052 -- Last: L: 0.024896 M: 0.012886 S: 0.262305 -- V2LR: Epoch M: 2.573564 Last M: 3.480722
Digging!! Task: Training Epoch @ 0 L: 0.034005 M: 0.073121 S: 0.296589 -- Last: L: 0.024175 M: 0.013694 S: 0.253391 -- V2LR: Epoch M: 3.321592 Last M: 3.823093
Task: Testing Epoch @ 0 L: 0.040565 M: 0.075191 S: 0.367174 -- Last: L: 0.062219 M: 0.203557 S: 0.465147 -- V2LR: Epoch M: 4.611012 Last M: 0.096065
written to: ./models/v2lr/1.3.x2.20231207065035_v2lr.pt
written to: ./results/loss_tracker_v2lr.csv
Elapsed time: 6344.796129703522 seconds.
alpha 0.1
Reconstructor from: ./models/img/14.2.1.retraining.2.20231130014311_img.pt
Sequential(
  (0): Conv2d(1, 27, kernel_size=(5, 5), stride=(1, 1))
  (1): BatchNorm2d(27, eps=1e-05, momentum=0.1, affine=True, track_running_stats=True)
  (2): ReLU()
  (3): Conv2d(27, 54, kernel_size=(5, 5), stride=(1, 1))
  (4): BatchNorm2d(54, eps=1e-05, momentum=0.1, affine=True, track_running_stats=True)
  (5): ReLU()
  (6): Conv2d(54, 72, kernel_size=(5, 5), stride=(1, 1))
  (7): BatchNorm2d(72, eps=1e-05, momentum=0.1, affine=True, track_running_stats=True)
  (8): ReLU()
  (9): Conv2d(72, 108, kernel_size=(3, 3), stride=(1, 1))
  (10): BatchNorm2d(108, eps=1e-05, momentum=0.1, affine=True, track_running_stats=True)
  (11): ReLU()
  (12): Conv2d(108, 216, kernel_size=(2, 2), stride=(1, 1))
  (13): BatchNorm2d(216, eps=1e-05, momentum=0.1, affine=True, track_running_stats=True)
  (14): Flatten(start_dim=1, end_dim=-1)
)
Task: Training Epoch @ 0 L: 0.042138 M: 0.067731 S: 0.392946 -- Last: L: 0.031495 M: 0.008479 S: 0.340519 -- V2LR: Epoch M: 0.924694 Last M: 1.274081
Task: Validation Epoch @ 0 L: 0.041048 M: 0.117613 S: 0.325404 -- Last: L: 0.011896 M: 0.019682 S: 0.110306 -- V2LR: Epoch M: 17.941443 Last M: 6.061615
…
Digging!! Task: Training Epoch @ 0 L: 0.031085 M: 0.077466 S: 0.259318 -- Last: L: 0.022466 M: 0.016464 S: 0.231328 -- V2LR: Epoch M: 3.780503 Last M: 3.797918
Digging!! Task: Training Epoch @ 0 L: 0.033572 M: 0.075271 S: 0.289384 -- Last: L: 0.023295 M: 0.014944 S: 0.242228 -- V2LR: Epoch M: 3.069527 Last M: 3.312283
Task: Testing Epoch @ 0 L: 0.041734 M: 0.127555 S: 0.321981 -- Last: L: 0.062234 M: 0.203576 S: 0.465294 -- V2LR: Epoch M: 20.519031 Last M: 0.106852
written to: ./models/v2lr/1.3.x2.20231207083616_v2lr.pt
written to: ./results/loss_tracker_v2lr.csv
Elapsed time: 6324.671694278717 seconds.
alpha 0.1
Reconstructor from: ./models/img/14.2.1.retraining.2.20231130014311_img.pt
Sequential(
  (0): Conv2d(1, 27, kernel_size=(5, 5), stride=(1, 1))
  (1): BatchNorm2d(27, eps=1e-05, momentum=0.1, affine=True, track_running_stats=True)
  (2): ReLU()
  (3): Conv2d(27, 36, kernel_size=(5, 5), stride=(1, 1))
  (4): BatchNorm2d(36, eps=1e-05, momentum=0.1, affine=True, track_running_stats=True)
  (5): ReLU()
  (6): Conv2d(36, 72, kernel_size=(5, 5), stride=(1, 1))
  (7): BatchNorm2d(72, eps=1e-05, momentum=0.1, affine=True, track_running_stats=True)
  (8): ReLU()
  (9): Conv2d(72, 108, kernel_size=(3, 3), stride=(1, 1))
  (10): BatchNorm2d(108, eps=1e-05, momentum=0.1, affine=True, track_running_stats=True)
  (11): ReLU()
  (12): Conv2d(108, 216, kernel_size=(2, 2), stride=(1, 1))
  (13): BatchNorm2d(216, eps=1e-05, momentum=0.1, affine=True, track_running_stats=True)
  (14): Flatten(start_dim=1, end_dim=-1)
)
Task: Training Epoch @ 0 L: 0.043137 M: 0.067401 S: 0.404405 -- Last: L: 0.034841 M: 0.007542 S: 0.378737 -- V2LR: Epoch M: 0.913875 Last M: 1.213847
Task: Validation Epoch @ 0 L: 0.048166 M: 0.122352 S: 0.399236 -- Last: L: 0.047520 M: 0.001514 S: 0.526320 -- V2LR: Epoch M: 17.627585 Last M: 0.094565
…
Digging!! Task: Training Epoch @ 30 L: 0.032797 M: 0.074851 S: 0.281239 -- Last: L: 0.024723 M: 0.013736 S: 0.259433 -- V2LR: Epoch M: 3.953894 Last M: 3.956863
Digging!! Task: Training Epoch @ 30 L: 0.032818 M: 0.074828 S: 0.281505 -- Last: L: 0.024709 M: 0.013746 S: 0.259271 -- V2LR: Epoch M: 3.949131 Last M: 3.961467
Task: Testing Epoch @ 0 L: 0.043335 M: 0.121148 S: 0.346888 -- Last: L: 0.062260 M: 0.203689 S: 0.465459 -- V2LR: Epoch M: 23.956541 Last M: 0.067088
written to: ./models/v2lr/1.3.x2.20231207102141_v2lr.pt
written to: ./results/loss_tracker_v2lr.csv
Elapsed time: 6387.042591094971 seconds.
alpha 0.1
Reconstructor from: ./models/img/14.2.1.retraining.2.20231130014311_img.pt
Sequential(
  (0): Conv2d(1, 27, kernel_size=(5, 5), stride=(1, 1))
  (1): BatchNorm2d(27, eps=1e-05, momentum=0.1, affine=True, track_running_stats=True)
  (2): ReLU()
  (3): Conv2d(27, 36, kernel_size=(5, 5), stride=(1, 1))
  (4): BatchNorm2d(36, eps=1e-05, momentum=0.1, affine=True, track_running_stats=True)
  (5): ReLU()
  (6): Conv2d(36, 54, kernel_size=(5, 5), stride=(1, 1))
  (7): BatchNorm2d(54, eps=1e-05, momentum=0.1, affine=True, track_running_stats=True)
  (8): ReLU()
  (9): Conv2d(54, 108, kernel_size=(3, 3), stride=(1, 1))
  (10): BatchNorm2d(108, eps=1e-05, momentum=0.1, affine=True, track_running_stats=True)
  (11): ReLU()
  (12): Conv2d(108, 216, kernel_size=(2, 2), stride=(1, 1))
  (13): BatchNorm2d(216, eps=1e-05, momentum=0.1, affine=True, track_running_stats=True)
  (14): Flatten(start_dim=1, end_dim=-1)
)
Task: Training Epoch @ 0 L: 0.042773 M: 0.067409 S: 0.400359 -- Last: L: 0.033781 M: 0.007432 S: 0.367090 -- V2LR: Epoch M: 0.888546 Last M: 1.110378
Task: Validation Epoch @ 0 L: 0.042368 M: 0.071713 S: 0.391075 -- Last: L: 0.045611 M: 0.001508 S: 0.505116 -- V2LR: Epoch M: 1.478681 Last M: 0.089082
…
Digging!! Task: Training Epoch @ 8 L: 0.032469 M: 0.076157 S: 0.276149 -- Last: L: 0.023946 M: 0.015104 S: 0.249287 -- V2LR: Epoch M: 3.869378 Last M: 3.888697
Digging!! Task: Training Epoch @ 8 L: 0.032524 M: 0.076159 S: 0.276752 -- Last: L: 0.023970 M: 0.015115 S: 0.249538 -- V2LR: Epoch M: 3.867641 Last M: 3.892309
Task: Testing Epoch @ 0 L: 0.040153 M: 0.095277 S: 0.340279 -- Last: L: 0.056049 M: 0.247890 S: 0.347333 -- V2LR: Epoch M: 10.987105 Last M: 16.783098
written to: ./models/v2lr/1.3.x2.20231207120808_v2lr.pt
written to: ./results/loss_tracker_v2lr.csv
Elapsed time: 6430.366160869598 seconds.
alpha 0.1
Reconstructor from: ./models/img/14.2.1.retraining.2.20231130014311_img.pt
Sequential(
  (0): Conv2d(1, 27, kernel_size=(5, 5), stride=(1, 1))
  (1): BatchNorm2d(27, eps=1e-05, momentum=0.1, affine=True, track_running_stats=True)
  (2): ReLU()
  (3): Conv2d(27, 36, kernel_size=(5, 5), stride=(1, 1))
  (4): BatchNorm2d(36, eps=1e-05, momentum=0.1, affine=True, track_running_stats=True)
  (5): ReLU()
  (6): Conv2d(36, 54, kernel_size=(5, 5), stride=(1, 1))
  (7): BatchNorm2d(54, eps=1e-05, momentum=0.1, affine=True, track_running_stats=True)
  (8): ReLU()
  (9): Conv2d(54, 72, kernel_size=(3, 3), stride=(1, 1))
  (10): BatchNorm2d(72, eps=1e-05, momentum=0.1, affine=True, track_running_stats=True)
  (11): ReLU()
  (12): Conv2d(72, 216, kernel_size=(2, 2), stride=(1, 1))
  (13): BatchNorm2d(216, eps=1e-05, momentum=0.1, affine=True, track_running_stats=True)
  (14): Flatten(start_dim=1, end_dim=-1)
)
Task: Training Epoch @ 0 L: 0.045171 M: 0.067123 S: 0.427318 -- Last: L: 0.036444 M: 0.006947 S: 0.397210 -- V2LR: Epoch M: 0.768406 Last M: 0.888774
Task: Validation Epoch @ 0 L: 0.042400 M: 0.093259 S: 0.367492 -- Last: L: 0.016300 M: 0.022875 S: 0.155693 -- V2LR: Epoch M: 9.444468 Last M: 7.823720
…
Digging!! Task: Training Epoch @ 0 L: 0.034298 M: 0.076140 S: 0.296486 -- Last: L: 0.025806 M: 0.015337 S: 0.269687 -- V2LR: Epoch M: 3.527408 Last M: 3.534096
Digging!! Task: Training Epoch @ 0 L: 0.034568 M: 0.075943 S: 0.299703 -- Last: L: 0.025802 M: 0.015237 S: 0.269762 -- V2LR: Epoch M: 3.461135 Last M: 3.504625
Task: Testing Epoch @ 0 L: 0.042298 M: 0.089994 S: 0.369985 -- Last: L: 0.065315 M: 0.206468 S: 0.496313 -- V2LR: Epoch M: 8.998685 Last M: 1.246216
written to: ./models/v2lr/1.3.x2.20231207135518_v2lr.pt
written to: ./results/loss_tracker_v2lr.csv
Elapsed time: 6350.9412298202515 seconds.
alpha 0.1
Reconstructor from: ./models/img/14.2.1.retraining.2.20231130014311_img.pt
Sequential(
  (0): Conv2d(1, 18, kernel_size=(5, 5), stride=(1, 1))
  (1): BatchNorm2d(18, eps=1e-05, momentum=0.1, affine=True, track_running_stats=True)
  (2): ReLU()
  (3): Conv2d(18, 54, kernel_size=(5, 5), stride=(1, 1))
  (4): BatchNorm2d(54, eps=1e-05, momentum=0.1, affine=True, track_running_stats=True)
  (5): ReLU()
  (6): Conv2d(54, 72, kernel_size=(5, 5), stride=(1, 1))
  (7): BatchNorm2d(72, eps=1e-05, momentum=0.1, affine=True, track_running_stats=True)
  (8): ReLU()
  (9): Conv2d(72, 108, kernel_size=(3, 3), stride=(1, 1))
  (10): BatchNorm2d(108, eps=1e-05, momentum=0.1, affine=True, track_running_stats=True)
  (11): ReLU()
  (12): Conv2d(108, 216, kernel_size=(2, 2), stride=(1, 1))
  (13): BatchNorm2d(216, eps=1e-05, momentum=0.1, affine=True, track_running_stats=True)
  (14): Flatten(start_dim=1, end_dim=-1)
)
Task: Training Epoch @ 0 L: 0.043775 M: 0.067413 S: 0.411483 -- Last: L: 0.035511 M: 0.007686 S: 0.386026 -- V2LR: Epoch M: 0.826188 Last M: 1.020211
Task: Validation Epoch @ 0 L: 0.041907 M: 0.079767 S: 0.377006 -- Last: L: 0.012677 M: 0.020800 S: 0.117747 -- V2LR: Epoch M: 4.187483 Last M: 7.062960
…
Digging!! Task: Training Epoch @ 0 L: 0.032830 M: 0.076235 S: 0.280072 -- Last: L: 0.024564 M: 0.015510 S: 0.255703 -- V2LR: Epoch M: 3.703420 Last M: 3.715405
Digging!! Task: Training Epoch @ 0 L: 0.032799 M: 0.076254 S: 0.279707 -- Last: L: 0.024575 M: 0.015542 S: 0.255789 -- V2LR: Epoch M: 3.706420 Last M: 3.721382
Task: Testing Epoch @ 0 L: 0.041714 M: 0.077420 S: 0.377466 -- Last: L: 0.062958 M: 0.207602 S: 0.468861 -- V2LR: Epoch M: 4.156836 Last M: 1.446660
written to: ./models/v2lr/1.3.x2.20231207154109_v2lr.pt
written to: ./results/loss_tracker_v2lr.csv
Elapsed time: 6415.029511451721 seconds.
alpha 0.1
Reconstructor from: ./models/img/14.2.1.retraining.2.20231130014311_img.pt
Sequential(
  (0): Conv2d(1, 18, kernel_size=(5, 5), stride=(1, 1))
  (1): BatchNorm2d(18, eps=1e-05, momentum=0.1, affine=True, track_running_stats=True)
  (2): ReLU()
  (3): Conv2d(18, 36, kernel_size=(5, 5), stride=(1, 1))
  (4): BatchNorm2d(36, eps=1e-05, momentum=0.1, affine=True, track_running_stats=True)
  (5): ReLU()
  (6): Conv2d(36, 72, kernel_size=(5, 5), stride=(1, 1))
  (7): BatchNorm2d(72, eps=1e-05, momentum=0.1, affine=True, track_running_stats=True)
  (8): ReLU()
  (9): Conv2d(72, 108, kernel_size=(3, 3), stride=(1, 1))
  (10): BatchNorm2d(108, eps=1e-05, momentum=0.1, affine=True, track_running_stats=True)
  (11): ReLU()
  (12): Conv2d(108, 216, kernel_size=(2, 2), stride=(1, 1))
  (13): BatchNorm2d(216, eps=1e-05, momentum=0.1, affine=True, track_running_stats=True)
  (14): Flatten(start_dim=1, end_dim=-1)
)
Task: Training Epoch @ 0 L: 0.045961 M: 0.066410 S: 0.436893 -- Last: L: 0.043493 M: 0.005710 S: 0.476912 -- V2LR: Epoch M: 0.594012 Last M: 0.486270
Task: Validation Epoch @ 0 L: 0.042176 M: 0.074759 S: 0.385556 -- Last: L: 0.030767 M: 0.002056 S: 0.339573 -- V2LR: Epoch M: 3.448443 Last M: 0.431454
…
Digging!! Task: Training Epoch @ 1 L: 0.033644 M: 0.075018 S: 0.290471 -- Last: L: 0.022306 M: 0.015610 S: 0.230500 -- V2LR: Epoch M: 3.011588 Last M: 3.446849
Digging!! Task: Training Epoch @ 1 L: 0.032931 M: 0.075313 S: 0.282214 -- Last: L: 0.022374 M: 0.015612 S: 0.231257 -- V2LR: Epoch M: 3.106441 Last M: 3.446065
Task: Testing Epoch @ 0 L: 0.040245 M: 0.122721 S: 0.310811 -- Last: L: 0.062239 M: 0.203628 S: 0.465289 -- V2LR: Epoch M: 21.675755 Last M: 0.102185
written to: ./models/v2lr/1.3.x2.20231207172804_v2lr.pt
written to: ./results/loss_tracker_v2lr.csv
Elapsed time: 6442.871403217316 seconds.
alpha 0.1
Reconstructor from: ./models/img/14.2.1.retraining.2.20231130014311_img.pt
Sequential(
  (0): Conv2d(1, 18, kernel_size=(5, 5), stride=(1, 1))
  (1): BatchNorm2d(18, eps=1e-05, momentum=0.1, affine=True, track_running_stats=True)
  (2): ReLU()
  (3): Conv2d(18, 36, kernel_size=(5, 5), stride=(1, 1))
  (4): BatchNorm2d(36, eps=1e-05, momentum=0.1, affine=True, track_running_stats=True)
  (5): ReLU()
  (6): Conv2d(36, 54, kernel_size=(5, 5), stride=(1, 1))
  (7): BatchNorm2d(54, eps=1e-05, momentum=0.1, affine=True, track_running_stats=True)
  (8): ReLU()
  (9): Conv2d(54, 108, kernel_size=(3, 3), stride=(1, 1))
  (10): BatchNorm2d(108, eps=1e-05, momentum=0.1, affine=True, track_running_stats=True)
  (11): ReLU()
  (12): Conv2d(108, 216, kernel_size=(2, 2), stride=(1, 1))
  (13): BatchNorm2d(216, eps=1e-05, momentum=0.1, affine=True, track_running_stats=True)
  (14): Flatten(start_dim=1, end_dim=-1)
)
Task: Training Epoch @ 0 L: 0.044470 M: 0.067390 S: 0.419238 -- Last: L: 0.035334 M: 0.007322 S: 0.384461 -- V2LR: Epoch M: 0.847589 Last M: 1.107815
Task: Validation Epoch @ 0 L: 0.040092 M: 0.092993 S: 0.342146 -- Last: L: 0.013271 M: 0.027856 S: 0.116507 -- V2LR: Epoch M: 10.122876 Last M: 11.059087
…
Digging!! Task: Training Epoch @ 14 L: 0.038945 M: 0.073941 S: 0.350565 -- Last: L: 0.033850 M: 0.012860 S: 0.361820 -- V2LR: Epoch M: 2.474536 Last M: 2.468194
Digging!! Task: Training Epoch @ 14 L: 0.038947 M: 0.073942 S: 0.350584 -- Last: L: 0.033807 M: 0.012856 S: 0.361343 -- V2LR: Epoch M: 2.475049 Last M: 2.468892
Task: Testing Epoch @ 0 L: 0.035680 M: 0.107918 S: 0.276531 -- Last: L: 0.062213 M: 0.203404 S: 0.465249 -- V2LR: Epoch M: 12.218417 Last M: 0.063856
written to: ./models/v2lr/1.3.x2.20231207191527_v2lr.pt
written to: ./results/loss_tracker_v2lr.csv
Elapsed time: 6355.60671544075 seconds.
alpha 0.1
Reconstructor from: ./models/img/14.2.1.retraining.2.20231130014311_img.pt
Sequential(
  (0): Conv2d(1, 18, kernel_size=(5, 5), stride=(1, 1))
  (1): BatchNorm2d(18, eps=1e-05, momentum=0.1, affine=True, track_running_stats=True)
  (2): ReLU()
  (3): Conv2d(18, 36, kernel_size=(5, 5), stride=(1, 1))
  (4): BatchNorm2d(36, eps=1e-05, momentum=0.1, affine=True, track_running_stats=True)
  (5): ReLU()
  (6): Conv2d(36, 54, kernel_size=(5, 5), stride=(1, 1))
  (7): BatchNorm2d(54, eps=1e-05, momentum=0.1, affine=True, track_running_stats=True)
  (8): ReLU()
  (9): Conv2d(54, 72, kernel_size=(3, 3), stride=(1, 1))
  (10): BatchNorm2d(72, eps=1e-05, momentum=0.1, affine=True, track_running_stats=True)
  (11): ReLU()
  (12): Conv2d(72, 216, kernel_size=(2, 2), stride=(1, 1))
  (13): BatchNorm2d(216, eps=1e-05, momentum=0.1, affine=True, track_running_stats=True)
  (14): Flatten(start_dim=1, end_dim=-1)
)
Task: Training Epoch @ 0 L: 0.044367 M: 0.067169 S: 0.418339 -- Last: L: 0.035842 M: 0.007029 S: 0.390439 -- V2LR: Epoch M: 0.797550 Last M: 0.965493
Task: Validation Epoch @ 0 L: 0.042126 M: 0.076835 S: 0.382694 -- Last: L: 0.018460 M: 0.007577 S: 0.196693 -- V2LR: Epoch M: 3.381769 Last M: 2.285885
…
Digging!! Task: Training Epoch @ 125 L: 0.033448 M: 0.076445 S: 0.286712 -- Last: L: 0.023887 M: 0.015432 S: 0.248263 -- V2LR: Epoch M: 3.659118 Last M: 3.682795
Digging!! Task: Training Epoch @ 125 L: 0.033543 M: 0.076424 S: 0.287788 -- Last: L: 0.023915 M: 0.015430 S: 0.248581 -- V2LR: Epoch M: 3.646305 Last M: 3.682665
Task: Testing Epoch @ 0 L: 0.041599 M: 0.103387 S: 0.347334 -- Last: L: 0.062254 M: 0.203572 S: 0.465515 -- V2LR: Epoch M: 12.500653 Last M: 0.082334
written to: ./models/v2lr/1.3.x2.20231207210123_v2lr.pt
written to: ./results/loss_tracker_v2lr.csv
Elapsed time: 6371.595440864563 seconds.
alpha 0.1
Reconstructor from: ./models/img/14.2.1.retraining.2.20231130014311_img.pt
Sequential(
  (0): Conv2d(1, 18, kernel_size=(5, 5), stride=(1, 1))
  (1): BatchNorm2d(18, eps=1e-05, momentum=0.1, affine=True, track_running_stats=True)
  (2): ReLU()
  (3): Conv2d(18, 27, kernel_size=(5, 5), stride=(1, 1))
  (4): BatchNorm2d(27, eps=1e-05, momentum=0.1, affine=True, track_running_stats=True)
  (5): ReLU()
  (6): Conv2d(27, 72, kernel_size=(5, 5), stride=(1, 1))
  (7): BatchNorm2d(72, eps=1e-05, momentum=0.1, affine=True, track_running_stats=True)
  (8): ReLU()
  (9): Conv2d(72, 108, kernel_size=(3, 3), stride=(1, 1))
  (10): BatchNorm2d(108, eps=1e-05, momentum=0.1, affine=True, track_running_stats=True)
  (11): ReLU()
  (12): Conv2d(108, 216, kernel_size=(2, 2), stride=(1, 1))
  (13): BatchNorm2d(216, eps=1e-05, momentum=0.1, affine=True, track_running_stats=True)
  (14): Flatten(start_dim=1, end_dim=-1)
)
Task: Training Epoch @ 0 L: 0.046921 M: 0.066426 S: 0.447540 -- Last: L: 0.047603 M: 0.005246 S: 0.523088 -- V2LR: Epoch M: 0.544640 Last M: 0.368577
Task: Validation Epoch @ 0 L: 0.044567 M: 0.072177 S: 0.414992 -- Last: L: 0.024674 M: 0.006540 S: 0.266889 -- V2LR: Epoch M: 2.467028 Last M: 3.611468
…
Digging!! Task: Training Epoch @ 56 L: 0.031885 M: 0.077162 S: 0.268546 -- Last: L: 0.023567 M: 0.016151 S: 0.243910 -- V2LR: Epoch M: 3.628732 Last M: 3.638623
Digging!! Task: Training Epoch @ 56 L: 0.032088 M: 0.077090 S: 0.270877 -- Last: L: 0.023590 M: 0.016121 S: 0.244201 -- V2LR: Epoch M: 3.604490 Last M: 3.632977
Task: Testing Epoch @ 0 L: 0.039514 M: 0.114545 S: 0.311771 -- Last: L: 0.062913 M: 0.203470 S: 0.472951 -- V2LR: Epoch M: 15.760920 Last M: 0.130858
written to: ./models/v2lr/1.3.x2.20231207224735_v2lr.pt
written to: ./results/loss_tracker_v2lr.csv
Elapsed time: 6371.420042514801 seconds.
alpha 0.1
Reconstructor from: ./models/img/14.2.1.retraining.2.20231130014311_img.pt
Sequential(
  (0): Conv2d(1, 18, kernel_size=(5, 5), stride=(1, 1))
  (1): BatchNorm2d(18, eps=1e-05, momentum=0.1, affine=True, track_running_stats=True)
  (2): ReLU()
  (3): Conv2d(18, 27, kernel_size=(5, 5), stride=(1, 1))
  (4): BatchNorm2d(27, eps=1e-05, momentum=0.1, affine=True, track_running_stats=True)
  (5): ReLU()
  (6): Conv2d(27, 54, kernel_size=(5, 5), stride=(1, 1))
  (7): BatchNorm2d(54, eps=1e-05, momentum=0.1, affine=True, track_running_stats=True)
  (8): ReLU()
  (9): Conv2d(54, 108, kernel_size=(3, 3), stride=(1, 1))
  (10): BatchNorm2d(108, eps=1e-05, momentum=0.1, affine=True, track_running_stats=True)
  (11): ReLU()
  (12): Conv2d(108, 216, kernel_size=(2, 2), stride=(1, 1))
  (13): BatchNorm2d(216, eps=1e-05, momentum=0.1, affine=True, track_running_stats=True)
  (14): Flatten(start_dim=1, end_dim=-1)
)
Task: Training Epoch @ 0 L: 0.042978 M: 0.066914 S: 0.403190 -- Last: L: 0.034067 M: 0.006789 S: 0.370975 -- V2LR: Epoch M: 0.798263 Last M: 0.937013
Task: Validation Epoch @ 0 L: 0.037563 M: 0.092434 S: 0.314665 -- Last: L: 0.012257 M: 0.018174 S: 0.115999 -- V2LR: Epoch M: 10.979654 Last M: 7.359554
…
Digging!! Task: Training Epoch @ 8 L: 0.031039 M: 0.077320 S: 0.258966 -- Last: L: 0.021477 M: 0.016773 S: 0.220002 -- V2LR: Epoch M: 3.412559 Last M: 3.508699
Digging!! Task: Training Epoch @ 8 L: 0.030121 M: 0.077962 S: 0.248052 -- Last: L: 0.021136 M: 0.017340 S: 0.215572 -- V2LR: Epoch M: 3.602422 Last M: 3.684829
Task: Testing Epoch @ 0 L: 0.036199 M: 0.093582 S: 0.298236 -- Last: L: 0.053492 M: 0.247280 S: 0.319605 -- V2LR: Epoch M: 8.183560 Last M: 13.023206
written to: ./models/v2lr/1.3.x2.20231208003346_v2lr.pt
written to: ./results/loss_tracker_v2lr.csv
Elapsed time: 6379.099973201752 seconds.
alpha 0.1
Reconstructor from: ./models/img/14.2.1.retraining.2.20231130014311_img.pt
Sequential(
  (0): Conv2d(1, 18, kernel_size=(5, 5), stride=(1, 1))
  (1): BatchNorm2d(18, eps=1e-05, momentum=0.1, affine=True, track_running_stats=True)
  (2): ReLU()
  (3): Conv2d(18, 27, kernel_size=(5, 5), stride=(1, 1))
  (4): BatchNorm2d(27, eps=1e-05, momentum=0.1, affine=True, track_running_stats=True)
  (5): ReLU()
  (6): Conv2d(27, 54, kernel_size=(5, 5), stride=(1, 1))
  (7): BatchNorm2d(54, eps=1e-05, momentum=0.1, affine=True, track_running_stats=True)
  (8): ReLU()
  (9): Conv2d(54, 72, kernel_size=(3, 3), stride=(1, 1))
  (10): BatchNorm2d(72, eps=1e-05, momentum=0.1, affine=True, track_running_stats=True)
  (11): ReLU()
  (12): Conv2d(72, 216, kernel_size=(2, 2), stride=(1, 1))
  (13): BatchNorm2d(216, eps=1e-05, momentum=0.1, affine=True, track_running_stats=True)
  (14): Flatten(start_dim=1, end_dim=-1)
)
Task: Training Epoch @ 0 L: 0.043871 M: 0.067044 S: 0.412961 -- Last: L: 0.035296 M: 0.006815 S: 0.384609 -- V2LR: Epoch M: 0.787010 Last M: 0.917449
Task: Validation Epoch @ 0 L: 0.044340 M: 0.071680 S: 0.413025 -- Last: L: 0.046708 M: 0.001514 S: 0.517298 -- V2LR: Epoch M: 1.302050 Last M: 0.172645
…
Digging!! Task: Training Epoch @ 1 L: 0.034015 M: 0.075411 S: 0.294150 -- Last: L: 0.023130 M: 0.016003 S: 0.239222 -- V2LR: Epoch M: 3.183226 Last M: 3.653638
Digging!! Task: Training Epoch @ 1 L: 0.033399 M: 0.076377 S: 0.286232 -- Last: L: 0.023059 M: 0.016028 S: 0.238406 -- V2LR: Epoch M: 3.456667 Last M: 3.659947
Task: Testing Epoch @ 0 L: 0.041474 M: 0.106827 S: 0.342121 -- Last: L: 0.062233 M: 0.203591 S: 0.465268 -- V2LR: Epoch M: 13.720665 Last M: 0.131620
written to: ./models/v2lr/1.3.x2.20231208022005_v2lr.pt
written to: ./results/loss_tracker_v2lr.csv
Elapsed time: 6414.503175735474 seconds.
alpha 0.1
Reconstructor from: ./models/img/14.2.1.retraining.2.20231130014311_img.pt
Sequential(
  (0): Conv2d(1, 18, kernel_size=(5, 5), stride=(1, 1))
  (1): BatchNorm2d(18, eps=1e-05, momentum=0.1, affine=True, track_running_stats=True)
  (2): ReLU()
  (3): Conv2d(18, 27, kernel_size=(5, 5), stride=(1, 1))
  (4): BatchNorm2d(27, eps=1e-05, momentum=0.1, affine=True, track_running_stats=True)
  (5): ReLU()
  (6): Conv2d(27, 36, kernel_size=(5, 5), stride=(1, 1))
  (7): BatchNorm2d(36, eps=1e-05, momentum=0.1, affine=True, track_running_stats=True)
  (8): ReLU()
  (9): Conv2d(36, 108, kernel_size=(3, 3), stride=(1, 1))
  (10): BatchNorm2d(108, eps=1e-05, momentum=0.1, affine=True, track_running_stats=True)
  (11): ReLU()
  (12): Conv2d(108, 216, kernel_size=(2, 2), stride=(1, 1))
  (13): BatchNorm2d(216, eps=1e-05, momentum=0.1, affine=True, track_running_stats=True)
  (14): Flatten(start_dim=1, end_dim=-1)
)
Task: Training Epoch @ 0 L: 0.044943 M: 0.066765 S: 0.425184 -- Last: L: 0.036766 M: 0.006276 S: 0.401538 -- V2LR: Epoch M: 0.708773 Last M: 0.786857
Task: Validation Epoch @ 0 L: 0.041818 M: 0.075781 S: 0.380445 -- Last: L: 0.032470 M: 0.001879 S: 0.358693 -- V2LR: Epoch M: 3.440966 Last M: 0.303346
…
Digging!! Task: Training Epoch @ 14 L: 0.031724 M: 0.076814 S: 0.267134 -- Last: L: 0.022467 M: 0.015971 S: 0.231882 -- V2LR: Epoch M: 3.693550 Last M: 3.763623
Digging!! Task: Training Epoch @ 14 L: 0.031634 M: 0.076853 S: 0.266098 -- Last: L: 0.022432 M: 0.016051 S: 0.231413 -- V2LR: Epoch M: 3.705369 Last M: 3.788554
Task: Testing Epoch @ 0 L: 0.039116 M: 0.094326 S: 0.329820 -- Last: L: 0.061380 M: 0.211337 S: 0.447177 -- V2LR: Epoch M: 9.449783 Last M: 2.845410
written to: ./models/v2lr/1.3.x2.20231208040700_v2lr.pt
written to: ./results/loss_tracker_v2lr.csv
Elapsed time: 6449.171565055847 seconds.
alpha 0.1
Reconstructor from: ./models/img/14.2.1.retraining.2.20231130014311_img.pt
Sequential(
  (0): Conv2d(1, 18, kernel_size=(5, 5), stride=(1, 1))
  (1): BatchNorm2d(18, eps=1e-05, momentum=0.1, affine=True, track_running_stats=True)
  (2): ReLU()
  (3): Conv2d(18, 27, kernel_size=(5, 5), stride=(1, 1))
  (4): BatchNorm2d(27, eps=1e-05, momentum=0.1, affine=True, track_running_stats=True)
  (5): ReLU()
  (6): Conv2d(27, 36, kernel_size=(5, 5), stride=(1, 1))
  (7): BatchNorm2d(36, eps=1e-05, momentum=0.1, affine=True, track_running_stats=True)
  (8): ReLU()
  (9): Conv2d(36, 72, kernel_size=(3, 3), stride=(1, 1))
  (10): BatchNorm2d(72, eps=1e-05, momentum=0.1, affine=True, track_running_stats=True)
  (11): ReLU()
  (12): Conv2d(72, 216, kernel_size=(2, 2), stride=(1, 1))
  (13): BatchNorm2d(216, eps=1e-05, momentum=0.1, affine=True, track_running_stats=True)
  (14): Flatten(start_dim=1, end_dim=-1)
)
Task: Training Epoch @ 0 L: 0.042773 M: 0.067692 S: 0.400039 -- Last: L: 0.032895 M: 0.008388 S: 0.356183 -- V2LR: Epoch M: 0.854180 Last M: 1.129796
Task: Validation Epoch @ 0 L: 0.042179 M: 0.129034 S: 0.325289 -- Last: L: 0.012713 M: 0.059603 S: 0.075027 -- V2LR: Epoch M: 19.639887 Last M: 17.757597
…
Digging!! Task: Training Epoch @ 1 L: 0.044232 M: 0.069564 S: 0.414175 -- Last: L: 0.043947 M: 0.008550 S: 0.478800 -- V2LR: Epoch M: 0.978404 Last M: 0.984090
Digging!! Task: Training Epoch @ 1 L: 0.044163 M: 0.069785 S: 0.413157 -- Last: L: 0.043985 M: 0.008773 S: 0.478975 -- V2LR: Epoch M: 0.990656 Last M: 0.996654
Task: Testing Epoch @ 0 L: 0.039086 M: 0.087325 S: 0.337261 -- Last: L: 0.056899 M: 0.246764 S: 0.358029 -- V2LR: Epoch M: 5.873345 Last M: 11.943531
written to: ./models/v2lr/1.3.x2.20231208055429_v2lr.pt
written to: ./results/loss_tracker_v2lr.csv
Elapsed time: 6433.105880737305 seconds.
alpha 0.1
Reconstructor from: ./models/img/14.2.1.retraining.2.20231130014311_img.pt
Sequential(
  (0): Conv2d(1, 18, kernel_size=(5, 5), stride=(1, 1))
  (1): BatchNorm2d(18, eps=1e-05, momentum=0.1, affine=True, track_running_stats=True)
  (2): ReLU()
  (3): Conv2d(18, 27, kernel_size=(5, 5), stride=(1, 1))
  (4): BatchNorm2d(27, eps=1e-05, momentum=0.1, affine=True, track_running_stats=True)
  (5): ReLU()
  (6): Conv2d(27, 36, kernel_size=(5, 5), stride=(1, 1))
  (7): BatchNorm2d(36, eps=1e-05, momentum=0.1, affine=True, track_running_stats=True)
  (8): ReLU()
  (9): Conv2d(36, 54, kernel_size=(3, 3), stride=(1, 1))
  (10): BatchNorm2d(54, eps=1e-05, momentum=0.1, affine=True, track_running_stats=True)
  (11): ReLU()
  (12): Conv2d(54, 216, kernel_size=(2, 2), stride=(1, 1))
  (13): BatchNorm2d(216, eps=1e-05, momentum=0.1, affine=True, track_running_stats=True)
  (14): Flatten(start_dim=1, end_dim=-1)
)
Task: Training Epoch @ 0 L: 0.044064 M: 0.066853 S: 0.415314 -- Last: L: 0.036231 M: 0.006577 S: 0.395256 -- V2LR: Epoch M: 0.795700 Last M: 0.943115
Task: Validation Epoch @ 0 L: 0.042917 M: 0.071036 S: 0.397929 -- Last: L: 0.044576 M: 0.001513 S: 0.493610 -- V2LR: Epoch M: 1.769588 Last M: 0.101517
…
Digging!! Task: Training Epoch @ 1 L: 0.032917 M: 0.074073 S: 0.283441 -- Last: L: 0.024464 M: 0.013674 S: 0.256634 -- V2LR: Epoch M: 3.968591 Last M: 3.988832
Digging!! Task: Training Epoch @ 1 L: 0.032843 M: 0.074092 S: 0.282593 -- Last: L: 0.024470 M: 0.013680 S: 0.256690 -- V2LR: Epoch M: 3.978213 Last M: 4.000172
Task: Testing Epoch @ 0 L: 0.044086 M: 0.170573 S: 0.300324 -- Last: L: 0.062392 M: 0.204474 S: 0.466052 -- V2LR: Epoch M: 53.199786 Last M: 0.517587
written to: ./models/v2lr/1.3.x2.20231208074142_v2lr.pt
written to: ./results/loss_tracker_v2lr.csv
Elapsed time: 6467.741573572159 seconds.
alpha 0.1
Reconstructor from: ./models/img/14.2.1.retraining.2.20231130014311_img.pt
Sequential(
  (0): Conv2d(1, 12, kernel_size=(5, 5), stride=(1, 1))
  (1): BatchNorm2d(12, eps=1e-05, momentum=0.1, affine=True, track_running_stats=True)
  (2): ReLU()
  (3): Conv2d(12, 54, kernel_size=(5, 5), stride=(1, 1))
  (4): BatchNorm2d(54, eps=1e-05, momentum=0.1, affine=True, track_running_stats=True)
  (5): ReLU()
  (6): Conv2d(54, 72, kernel_size=(5, 5), stride=(1, 1))
  (7): BatchNorm2d(72, eps=1e-05, momentum=0.1, affine=True, track_running_stats=True)
  (8): ReLU()
  (9): Conv2d(72, 108, kernel_size=(3, 3), stride=(1, 1))
  (10): BatchNorm2d(108, eps=1e-05, momentum=0.1, affine=True, track_running_stats=True)
  (11): ReLU()
  (12): Conv2d(108, 216, kernel_size=(2, 2), stride=(1, 1))
  (13): BatchNorm2d(216, eps=1e-05, momentum=0.1, affine=True, track_running_stats=True)
  (14): Flatten(start_dim=1, end_dim=-1)
)
Task: Training Epoch @ 0 L: 0.045046 M: 0.066770 S: 0.426319 -- Last: L: 0.039395 M: 0.006376 S: 0.430640 -- V2LR: Epoch M: 0.710841 Last M: 0.763387
Task: Validation Epoch @ 0 L: 0.042018 M: 0.075928 S: 0.382497 -- Last: L: 0.025554 M: 0.003101 S: 0.280492 -- V2LR: Epoch M: 3.715830 Last M: 0.761226
…
Digging!! Task: Training Epoch @ 0 L: 0.031853 M: 0.077795 S: 0.267487 -- Last: L: 0.023356 M: 0.016804 S: 0.240837 -- V2LR: Epoch M: 3.499242 Last M: 3.521331
Digging!! Task: Training Epoch @ 0 L: 0.031808 M: 0.077847 S: 0.266920 -- Last: L: 0.023436 M: 0.016822 S: 0.241705 -- V2LR: Epoch M: 3.507204 Last M: 3.521851
Task: Testing Epoch @ 0 L: 0.041997 M: 0.076599 S: 0.381522 -- Last: L: 0.062224 M: 0.203570 S: 0.465186 -- V2LR: Epoch M: 4.860888 Last M: 0.114373
written to: ./models/v2lr/1.3.x2.20231208092930_v2lr.pt
written to: ./results/loss_tracker_v2lr.csv
Elapsed time: 6585.878828763962 seconds.
alpha 0.1
Reconstructor from: ./models/img/14.2.1.retraining.2.20231130014311_img.pt
Sequential(
  (0): Conv2d(1, 12, kernel_size=(5, 5), stride=(1, 1))
  (1): BatchNorm2d(12, eps=1e-05, momentum=0.1, affine=True, track_running_stats=True)
  (2): ReLU()
  (3): Conv2d(12, 36, kernel_size=(5, 5), stride=(1, 1))
  (4): BatchNorm2d(36, eps=1e-05, momentum=0.1, affine=True, track_running_stats=True)
  (5): ReLU()
  (6): Conv2d(36, 72, kernel_size=(5, 5), stride=(1, 1))
  (7): BatchNorm2d(72, eps=1e-05, momentum=0.1, affine=True, track_running_stats=True)
  (8): ReLU()
  (9): Conv2d(72, 108, kernel_size=(3, 3), stride=(1, 1))
  (10): BatchNorm2d(108, eps=1e-05, momentum=0.1, affine=True, track_running_stats=True)
  (11): ReLU()
  (12): Conv2d(108, 216, kernel_size=(2, 2), stride=(1, 1))
  (13): BatchNorm2d(216, eps=1e-05, momentum=0.1, affine=True, track_running_stats=True)
  (14): Flatten(start_dim=1, end_dim=-1)
)
Task: Training Epoch @ 0 L: 0.043785 M: 0.067197 S: 0.411840 -- Last: L: 0.036541 M: 0.007000 S: 0.398237 -- V2LR: Epoch M: 0.841897 Last M: 1.016493
Task: Validation Epoch @ 0 L: 0.040268 M: 0.089062 S: 0.348465 -- Last: L: 0.011751 M: 0.032751 S: 0.094175 -- V2LR: Epoch M: 9.126356 Last M: 13.864720
…
Digging!! Task: Training Epoch @ 0 L: 0.031476 M: 0.079600 S: 0.261284 -- Last: L: 0.023046 M: 0.018661 S: 0.235330 -- V2LR: Epoch M: 3.630496 Last M: 3.647599
Digging!! Task: Training Epoch @ 0 L: 0.031450 M: 0.079646 S: 0.260955 -- Last: L: 0.023036 M: 0.018652 S: 0.235234 -- V2LR: Epoch M: 3.641918 Last M: 3.646187
Task: Testing Epoch @ 0 L: 0.040274 M: 0.090802 S: 0.346600 -- Last: L: 0.062196 M: 0.203724 S: 0.464704 -- V2LR: Epoch M: 11.199132 Last M: 0.210051
written to: ./models/v2lr/1.3.x2.20231208111915_v2lr.pt
written to: ./results/loss_tracker_v2lr.csv
Elapsed time: 6590.778548955917 seconds.
alpha 0.1
Reconstructor from: ./models/img/14.2.1.retraining.2.20231130014311_img.pt
Sequential(
  (0): Conv2d(1, 12, kernel_size=(5, 5), stride=(1, 1))
  (1): BatchNorm2d(12, eps=1e-05, momentum=0.1, affine=True, track_running_stats=True)
  (2): ReLU()
  (3): Conv2d(12, 36, kernel_size=(5, 5), stride=(1, 1))
  (4): BatchNorm2d(36, eps=1e-05, momentum=0.1, affine=True, track_running_stats=True)
  (5): ReLU()
  (6): Conv2d(36, 54, kernel_size=(5, 5), stride=(1, 1))
  (7): BatchNorm2d(54, eps=1e-05, momentum=0.1, affine=True, track_running_stats=True)
  (8): ReLU()
  (9): Conv2d(54, 108, kernel_size=(3, 3), stride=(1, 1))
  (10): BatchNorm2d(108, eps=1e-05, momentum=0.1, affine=True, track_running_stats=True)
  (11): ReLU()
  (12): Conv2d(108, 216, kernel_size=(2, 2), stride=(1, 1))
  (13): BatchNorm2d(216, eps=1e-05, momentum=0.1, affine=True, track_running_stats=True)
  (14): Flatten(start_dim=1, end_dim=-1)
)
Task: Training Epoch @ 0 L: 0.044020 M: 0.067236 S: 0.414406 -- Last: L: 0.037146 M: 0.007029 S: 0.404922 -- V2LR: Epoch M: 0.797679 Last M: 0.918918
Task: Validation Epoch @ 0 L: 0.043404 M: 0.071365 S: 0.402969 -- Last: L: 0.045398 M: 0.001503 S: 0.502757 -- V2LR: Epoch M: 1.383890 Last M: 0.094386
…
