1.1
2 cond 1,16_8,8_16,6,24,3 with duplicate conv
Importing finished!!
cuda is going to be used!!
Dataset loaded!! Length (train dataset) - 6880
----------------------------------------------------------------
        Layer (type)               Output Shape         Param #
================================================================
            Conv2d-1              [-1, 8, 8, 8]              80
            Conv2d-2              [-1, 8, 8, 8]             584
              ReLU-3              [-1, 8, 8, 8]               0
            Conv2d-4             [-1, 16, 6, 6]           1,168
            Conv2d-5             [-1, 16, 6, 6]           2,320
              ReLU-6             [-1, 16, 6, 6]               0
            Conv2d-7             [-1, 24, 3, 3]           3,480
            Conv2d-8             [-1, 24, 3, 3]           5,208
              ReLU-9             [-1, 24, 3, 3]               0
          Flatten-10                  [-1, 216]               0
================================================================
Total params: 12,840
Trainable params: 12,840
Non-trainable params: 0
----------------------------------------------------------------
Input size (MB): 0.00
Forward/backward pass size (MB): 0.03
Params size (MB): 0.05
Estimated Total Size (MB): 0.08
----------------------------------------------------------------
None
Task: v2lr, Epoch:1, Loss:0.001888              		Task: InvProb, Epoch:1, Loss:0.000561
…
