2603395
1.2.3
from 1.2 with lots of added 2 hidden layers
Importing finished!!
cuda is going to be used!!
Dataset loaded!! Length (train dataset) - 24000
Iteration config: 0
[Linear(in_features=216, out_features=512, bias=True), ReLU(), Linear(in_features=512, out_features=512, bias=True), ReLU(), Linear(in_features=512, out_features=216, bias=True), ReLU()]


----------------------------------------------------------------
        Layer (type)               Output Shape         Param #
================================================================
            Conv2d-1              [-1, 8, 8, 8]              80
       BatchNorm2d-2              [-1, 8, 8, 8]              16
            Conv2d-3              [-1, 8, 8, 8]             584
              ReLU-4              [-1, 8, 8, 8]               0
            Conv2d-5             [-1, 16, 6, 6]           1,168
       BatchNorm2d-6             [-1, 16, 6, 6]              32
            Conv2d-7             [-1, 16, 6, 6]           2,320
              ReLU-8             [-1, 16, 6, 6]               0
            Conv2d-9             [-1, 24, 3, 3]           3,480
      BatchNorm2d-10             [-1, 24, 3, 3]              48
           Conv2d-11             [-1, 24, 3, 3]           5,208
             ReLU-12             [-1, 24, 3, 3]               0
          Flatten-13                  [-1, 216]               0
           Linear-14                  [-1, 512]         111,104
             ReLU-15                  [-1, 512]               0
           Linear-16                  [-1, 512]         262,656
             ReLU-17                  [-1, 512]               0
           Linear-18                  [-1, 216]         110,808
             ReLU-19                  [-1, 216]               0
================================================================
Total params: 497,504
Trainable params: 497,504
Non-trainable params: 0
----------------------------------------------------------------
Input size (MB): 0.00
Forward/backward pass size (MB): 0.06
Params size (MB): 1.90
Estimated Total Size (MB): 1.96
----------------------------------------------------------------
None
Reconstructor from: ./models/img/14.2.20231110000321.pt
…
written to: ./models/v2lr/1.2.3.20231128023116_v2lr.pth
written to: ./models/v2lr/1.2.3.20231128023116_v2lr.pt
written to: ./results/loss_tracker_v2lr.csv
Elapsed time: 5374.4547736644745 seconds.
Iteration config: 1
[Linear(in_features=216, out_features=512, bias=True), ReLU(), Linear(in_features=512, out_features=432, bias=True), ReLU(), Linear(in_features=432, out_features=216, bias=True), ReLU()]


----------------------------------------------------------------
        Layer (type)               Output Shape         Param #
================================================================
            Conv2d-1              [-1, 8, 8, 8]              80
       BatchNorm2d-2              [-1, 8, 8, 8]              16
            Conv2d-3              [-1, 8, 8, 8]             584
              ReLU-4              [-1, 8, 8, 8]               0
            Conv2d-5             [-1, 16, 6, 6]           1,168
       BatchNorm2d-6             [-1, 16, 6, 6]              32
            Conv2d-7             [-1, 16, 6, 6]           2,320
              ReLU-8             [-1, 16, 6, 6]               0
            Conv2d-9             [-1, 24, 3, 3]           3,480
      BatchNorm2d-10             [-1, 24, 3, 3]              48
           Conv2d-11             [-1, 24, 3, 3]           5,208
             ReLU-12             [-1, 24, 3, 3]               0
          Flatten-13                  [-1, 216]               0
           Linear-14                  [-1, 512]         111,104
             ReLU-15                  [-1, 512]               0
           Linear-16                  [-1, 432]         221,616
             ReLU-17                  [-1, 432]               0
           Linear-18                  [-1, 216]          93,528
             ReLU-19                  [-1, 216]               0
================================================================
Total params: 439,184
Trainable params: 439,184
Non-trainable params: 0
----------------------------------------------------------------
Input size (MB): 0.00
Forward/backward pass size (MB): 0.06
Params size (MB): 1.68
Estimated Total Size (MB): 1.74
----------------------------------------------------------------
None
Reconstructor from: ./models/img/14.2.20231110000321.pt
…
written to: ./models/v2lr/1.2.3.20231128040048_v2lr.pth
written to: ./models/v2lr/1.2.3.20231128040048_v2lr.pt
written to: ./results/loss_tracker_v2lr.csv
Elapsed time: 10775.408247470856 seconds.
Iteration config: 2
[Linear(in_features=216, out_features=512, bias=True), ReLU(), Linear(in_features=512, out_features=324, bias=True), ReLU(), Linear(in_features=324, out_features=216, bias=True), ReLU()]


----------------------------------------------------------------
        Layer (type)               Output Shape         Param #
================================================================
            Conv2d-1              [-1, 8, 8, 8]              80
       BatchNorm2d-2              [-1, 8, 8, 8]              16
            Conv2d-3              [-1, 8, 8, 8]             584
              ReLU-4              [-1, 8, 8, 8]               0
            Conv2d-5             [-1, 16, 6, 6]           1,168
       BatchNorm2d-6             [-1, 16, 6, 6]              32
            Conv2d-7             [-1, 16, 6, 6]           2,320
              ReLU-8             [-1, 16, 6, 6]               0
            Conv2d-9             [-1, 24, 3, 3]           3,480
      BatchNorm2d-10             [-1, 24, 3, 3]              48
           Conv2d-11             [-1, 24, 3, 3]           5,208
             ReLU-12             [-1, 24, 3, 3]               0
          Flatten-13                  [-1, 216]               0
           Linear-14                  [-1, 512]         111,104
             ReLU-15                  [-1, 512]               0
           Linear-16                  [-1, 324]         166,212
             ReLU-17                  [-1, 324]               0
           Linear-18                  [-1, 216]          70,200
             ReLU-19                  [-1, 216]               0
================================================================
Total params: 360,452
Trainable params: 360,452
Non-trainable params: 0
----------------------------------------------------------------
Input size (MB): 0.00
Forward/backward pass size (MB): 0.06
Params size (MB): 1.38
Estimated Total Size (MB): 1.43
----------------------------------------------------------------
None
Reconstructor from: ./models/img/14.2.20231110000321.pt
…
written to: ./models/v2lr/1.2.3.20231128053049_v2lr.pth
written to: ./models/v2lr/1.2.3.20231128053049_v2lr.pt
written to: ./results/loss_tracker_v2lr.csv
Elapsed time: 16214.44881772995 seconds.
Iteration config: 3
[Linear(in_features=216, out_features=512, bias=True), ReLU(), Linear(in_features=512, out_features=256, bias=True), ReLU(), Linear(in_features=256, out_features=216, bias=True), ReLU()]


----------------------------------------------------------------
        Layer (type)               Output Shape         Param #
================================================================
            Conv2d-1              [-1, 8, 8, 8]              80
       BatchNorm2d-2              [-1, 8, 8, 8]              16
            Conv2d-3              [-1, 8, 8, 8]             584
              ReLU-4              [-1, 8, 8, 8]               0
            Conv2d-5             [-1, 16, 6, 6]           1,168
       BatchNorm2d-6             [-1, 16, 6, 6]              32
            Conv2d-7             [-1, 16, 6, 6]           2,320
              ReLU-8             [-1, 16, 6, 6]               0
            Conv2d-9             [-1, 24, 3, 3]           3,480
      BatchNorm2d-10             [-1, 24, 3, 3]              48
           Conv2d-11             [-1, 24, 3, 3]           5,208
             ReLU-12             [-1, 24, 3, 3]               0
          Flatten-13                  [-1, 216]               0
           Linear-14                  [-1, 512]         111,104
             ReLU-15                  [-1, 512]               0
           Linear-16                  [-1, 256]         131,328
             ReLU-17                  [-1, 256]               0
           Linear-18                  [-1, 216]          55,512
             ReLU-19                  [-1, 216]               0
================================================================
Total params: 310,880
Trainable params: 310,880
Non-trainable params: 0
----------------------------------------------------------------
Input size (MB): 0.00
Forward/backward pass size (MB): 0.06
Params size (MB): 1.19
Estimated Total Size (MB): 1.24
----------------------------------------------------------------
None
Reconstructor from: ./models/img/14.2.20231110000321.pt
…
