2592230
3
configs from 3
Importing finished!!
cuda is going to be used!!
Dataset loaded!! Length (train dataset) - 24000
Iteration config: 0
[Linear(in_features=256, out_features=128, bias=True), ReLU(), Linear(in_features=128, out_features=128, bias=True), ReLU(), Linear(in_features=128, out_features=216, bias=True), ReLU()]


----------------------------------------------------------------
        Layer (type)               Output Shape         Param #
================================================================
           Flatten-1                  [-1, 256]               0
            Linear-2                  [-1, 128]          32,896
              ReLU-3                  [-1, 128]               0
            Linear-4                  [-1, 128]          16,512
              ReLU-5                  [-1, 128]               0
            Linear-6                  [-1, 216]          27,864
              ReLU-7                  [-1, 216]               0
================================================================
Total params: 77,272
Trainable params: 77,272
Non-trainable params: 0
----------------------------------------------------------------
Input size (MB): 0.00
Forward/backward pass size (MB): 0.01
Params size (MB): 0.29
Estimated Total Size (MB): 0.30
----------------------------------------------------------------
None
Task: v2lr, Epoch:1, Loss:0.843237                		Task: InvProb, Epoch:1, MSELoss:0.092957, SSIM:0.3380840624704734
…
