2633586
1.3
from 1,16,16->216,1,1
Importing finished!!
cuda is going to be used!!
Dataset loaded!! Length (train dataset) - 19200
0.1
Config : alpha 0.1
Reconstructor from: ./models/img/14.2.1.retraining.2.20231130014311_img.pt
Sequential(
  (0): Conv2d(1, 6, kernel_size=(5, 5), stride=(1, 1))
  (1): BatchNorm2d(6, eps=1e-05, momentum=0.1, affine=True, track_running_stats=True)
  (2): ReLU()
  (3): Conv2d(6, 18, kernel_size=(5, 5), stride=(1, 1))
  (4): BatchNorm2d(18, eps=1e-05, momentum=0.1, affine=True, track_running_stats=True)
  (5): ReLU()
  (6): Conv2d(18, 54, kernel_size=(5, 5), stride=(1, 1))
  (7): BatchNorm2d(54, eps=1e-05, momentum=0.1, affine=True, track_running_stats=True)
  (8): ReLU()
  (9): Conv2d(54, 108, kernel_size=(3, 3), stride=(1, 1))
  (10): BatchNorm2d(108, eps=1e-05, momentum=0.1, affine=True, track_running_stats=True)
  (11): ReLU()
  (12): Conv2d(108, 216, kernel_size=(2, 2), stride=(1, 1))
  (13): BatchNorm2d(216, eps=1e-05, momentum=0.1, affine=True, track_running_stats=True)
  (14): Flatten(start_dim=1, end_dim=-1)
)
Task: Training Epoch @ 0 L: 0.041636 M: 0.067987 S: 0.387084 -- Last: L: 0.029261 M: 0.009077 S: 0.315038 -- V2LR: Epoch M: 1.050981 Last M: 1.545849
Task: Validation Epoch @ 0 L: 0.038580 M: 0.084145 S: 0.335170 -- Last: L: 0.012614 M: 0.020881 S: 0.116959 -- V2LR: Epoch M: 6.031455 Last M: 7.395356
…
