2633594
1.3.x1
from 1,16,16->216,1,1 a bunch of them
Importing finished!!
cuda is going to be used!!
Dataset loaded!! Length (train dataset) - 19200
alpha 0.1
Reconstructor from: ./models/img/14.2.1.retraining.2.20231130014311_img.pt
Sequential(
  (0): Conv2d(1, 6, kernel_size=(5, 5), stride=(1, 1))
  (1): BatchNorm2d(6, eps=1e-05, momentum=0.1, affine=True, track_running_stats=True)
  (2): ReLU()
  (3): Conv2d(6, 8, kernel_size=(5, 5), stride=(1, 1))
  (4): BatchNorm2d(8, eps=1e-05, momentum=0.1, affine=True, track_running_stats=True)
  (5): ReLU()
  (6): Conv2d(8, 9, kernel_size=(5, 5), stride=(1, 1))
  (7): BatchNorm2d(9, eps=1e-05, momentum=0.1, affine=True, track_running_stats=True)
  (8): ReLU()
  (9): Conv2d(9, 12, kernel_size=(3, 3), stride=(1, 1))
  (10): BatchNorm2d(12, eps=1e-05, momentum=0.1, affine=True, track_running_stats=True)
  (11): ReLU()
  (12): Conv2d(12, 216, kernel_size=(2, 2), stride=(1, 1))
  (13): BatchNorm2d(216, eps=1e-05, momentum=0.1, affine=True, track_running_stats=True)
  (14): Flatten(start_dim=1, end_dim=-1)
)
Task: Training Epoch @ 0 L: 0.045272 M: 0.067031 S: 0.428540 -- Last: L: 0.040563 M: 0.007015 S: 0.442906 -- V2LR: Epoch M: 0.719880 Last M: 0.785658
Task: Validation Epoch @ 0 L: 0.042498 M: 0.079178 S: 0.384222 -- Last: L: 0.017562 M: 0.023267 S: 0.169279 -- V2LR: Epoch M: 4.028655 Last M: 7.681248
…
Digging!! Task: Training Epoch @ 2 L: 0.030678 M: 0.078272 S: 0.253902 -- Last: L: 0.021307 M: 0.017892 S: 0.216859 -- V2LR: Epoch M: 3.420625 Last M: 3.570734
Digging!! Task: Training Epoch @ 2 L: 0.030013 M: 0.078909 S: 0.245806 -- Last: L: 0.021316 M: 0.017956 S: 0.216898 -- V2LR: Epoch M: 3.596804 Last M: 3.604129
Task: Testing Epoch @ 0 L: 0.037911 M: 0.090919 S: 0.320211 -- Last: L: 0.060578 M: 0.240343 S: 0.406044 -- V2LR: Epoch M: 6.019666 Last M: 8.820324
written to: ./models/v2lr/1.3.x1.20231207051917_v2lr.pt
written to: ./results/loss_tracker_v2lr.csv
Elapsed time: 6239.030316114426 seconds.
alpha 0.1
Reconstructor from: ./models/img/14.2.1.retraining.2.20231130014311_img.pt
Sequential(
  (0): Conv2d(1, 6, kernel_size=(5, 5), stride=(1, 1))
  (1): BatchNorm2d(6, eps=1e-05, momentum=0.1, affine=True, track_running_stats=True)
  (2): ReLU()
  (3): Conv2d(6, 8, kernel_size=(5, 5), stride=(1, 1))
  (4): BatchNorm2d(8, eps=1e-05, momentum=0.1, affine=True, track_running_stats=True)
  (5): ReLU()
  (6): Conv2d(8, 9, kernel_size=(5, 5), stride=(1, 1))
  (7): BatchNorm2d(9, eps=1e-05, momentum=0.1, affine=True, track_running_stats=True)
  (8): ReLU()
  (9): Conv2d(9, 18, kernel_size=(3, 3), stride=(1, 1))
  (10): BatchNorm2d(18, eps=1e-05, momentum=0.1, affine=True, track_running_stats=True)
  (11): ReLU()
  (12): Conv2d(18, 216, kernel_size=(2, 2), stride=(1, 1))
  (13): BatchNorm2d(216, eps=1e-05, momentum=0.1, affine=True, track_running_stats=True)
  (14): Flatten(start_dim=1, end_dim=-1)
)
Task: Training Epoch @ 0 L: 0.043303 M: 0.067146 S: 0.406541 -- Last: L: 0.033847 M: 0.007143 S: 0.368147 -- V2LR: Epoch M: 0.845773 Last M: 1.115171
Task: Validation Epoch @ 0 L: 0.045903 M: 0.106899 S: 0.391262 -- Last: L: 0.047673 M: 0.001510 S: 0.528018 -- V2LR: Epoch M: 11.357776 Last M: 0.107838
…
Digging!! Task: Training Epoch @ 2 L: 0.031481 M: 0.075744 S: 0.265632 -- Last: L: 0.022720 M: 0.014895 S: 0.235893 -- V2LR: Epoch M: 3.957825 Last M: 4.004188
Digging!! Task: Training Epoch @ 2 L: 0.032297 M: 0.075091 S: 0.275416 -- Last: L: 0.022936 M: 0.014590 S: 0.238635 -- V2LR: Epoch M: 3.693861 Last M: 3.883431
Task: Testing Epoch @ 0 L: 0.034797 M: 0.128916 S: 0.243398 -- Last: L: 0.055157 M: 0.284701 S: 0.296516 -- V2LR: Epoch M: 23.237385 Last M: 29.565588
written to: ./models/v2lr/1.3.x1.20231207070313_v2lr.pt
written to: ./results/loss_tracker_v2lr.csv
Elapsed time: 6096.088184356689 seconds.
alpha 0.1
Reconstructor from: ./models/img/14.2.1.retraining.2.20231130014311_img.pt
Sequential(
  (0): Conv2d(1, 6, kernel_size=(5, 5), stride=(1, 1))
  (1): BatchNorm2d(6, eps=1e-05, momentum=0.1, affine=True, track_running_stats=True)
  (2): ReLU()
  (3): Conv2d(6, 8, kernel_size=(5, 5), stride=(1, 1))
  (4): BatchNorm2d(8, eps=1e-05, momentum=0.1, affine=True, track_running_stats=True)
  (5): ReLU()
  (6): Conv2d(8, 9, kernel_size=(5, 5), stride=(1, 1))
  (7): BatchNorm2d(9, eps=1e-05, momentum=0.1, affine=True, track_running_stats=True)
  (8): ReLU()
  (9): Conv2d(9, 27, kernel_size=(3, 3), stride=(1, 1))
  (10): BatchNorm2d(27, eps=1e-05, momentum=0.1, affine=True, track_running_stats=True)
  (11): ReLU()
  (12): Conv2d(27, 216, kernel_size=(2, 2), stride=(1, 1))
  (13): BatchNorm2d(216, eps=1e-05, momentum=0.1, affine=True, track_running_stats=True)
  (14): Flatten(start_dim=1, end_dim=-1)
)
Task: Training Epoch @ 0 L: 0.044554 M: 0.067629 S: 0.419897 -- Last: L: 0.038073 M: 0.007978 S: 0.414172 -- V2LR: Epoch M: 0.815782 Last M: 0.987924
Task: Validation Epoch @ 0 L: 0.046106 M: 0.084628 S: 0.418253 -- Last: L: 0.047307 M: 0.001534 S: 0.523932 -- V2LR: Epoch M: 6.518782 Last M: 0.136922
…
Digging!! Task: Training Epoch @ 129 L: 0.034903 M: 0.080769 S: 0.298064 -- Last: L: 0.027508 M: 0.019888 S: 0.283548 -- V2LR: Epoch M: 3.478409 Last M: 3.492132
Digging!! Task: Training Epoch @ 129 L: 0.034881 M: 0.080789 S: 0.297805 -- Last: L: 0.027566 M: 0.019849 S: 0.284232 -- V2LR: Epoch M: 3.482749 Last M: 3.483765
Task: Testing Epoch @ 0 L: 0.043004 M: 0.080561 S: 0.388308 -- Last: L: 0.062278 M: 0.203502 S: 0.465867 -- V2LR: Epoch M: 3.392413 Last M: 0.048582
written to: ./models/v2lr/1.3.x1.20231207084449_v2lr.pt
written to: ./results/loss_tracker_v2lr.csv
Elapsed time: 6145.2908318042755 seconds.
alpha 0.1
Reconstructor from: ./models/img/14.2.1.retraining.2.20231130014311_img.pt
Sequential(
  (0): Conv2d(1, 6, kernel_size=(5, 5), stride=(1, 1))
  (1): BatchNorm2d(6, eps=1e-05, momentum=0.1, affine=True, track_running_stats=True)
  (2): ReLU()
  (3): Conv2d(6, 8, kernel_size=(5, 5), stride=(1, 1))
  (4): BatchNorm2d(8, eps=1e-05, momentum=0.1, affine=True, track_running_stats=True)
  (5): ReLU()
  (6): Conv2d(8, 9, kernel_size=(5, 5), stride=(1, 1))
  (7): BatchNorm2d(9, eps=1e-05, momentum=0.1, affine=True, track_running_stats=True)
  (8): ReLU()
  (9): Conv2d(9, 36, kernel_size=(3, 3), stride=(1, 1))
  (10): BatchNorm2d(36, eps=1e-05, momentum=0.1, affine=True, track_running_stats=True)
  (11): ReLU()
  (12): Conv2d(36, 216, kernel_size=(2, 2), stride=(1, 1))
  (13): BatchNorm2d(216, eps=1e-05, momentum=0.1, affine=True, track_running_stats=True)
  (14): Flatten(start_dim=1, end_dim=-1)
)
Task: Training Epoch @ 0 L: 0.044690 M: 0.067239 S: 0.421846 -- Last: L: 0.037326 M: 0.006837 S: 0.407141 -- V2LR: Epoch M: 0.796362 Last M: 0.926881
Task: Validation Epoch @ 0 L: 0.041690 M: 0.082322 S: 0.371754 -- Last: L: 0.015190 M: 0.026399 S: 0.139443 -- V2LR: Epoch M: 5.258818 Last M: 10.243610
…
Digging!! Task: Training Epoch @ 0 L: 0.036713 M: 0.071615 S: 0.328353 -- Last: L: 0.027043 M: 0.011398 S: 0.287817 -- V2LR: Epoch M: 3.045718 Last M: 3.429193
Digging!! Task: Training Epoch @ 0 L: 0.034953 M: 0.073171 S: 0.307061 -- Last: L: 0.026217 M: 0.012386 S: 0.277535 -- V2LR: Epoch M: 3.624941 Last M: 3.739185
Task: Testing Epoch @ 0 L: 0.041141 M: 0.076503 S: 0.372114 -- Last: L: 0.061888 M: 0.212807 S: 0.451193 -- V2LR: Epoch M: 4.284142 Last M: 4.629901
written to: ./models/v2lr/1.3.x1.20231207102714_v2lr.pt
written to: ./results/loss_tracker_v2lr.csv
Elapsed time: 6231.787522315979 seconds.
alpha 0.1
Reconstructor from: ./models/img/14.2.1.retraining.2.20231130014311_img.pt
Sequential(
  (0): Conv2d(1, 6, kernel_size=(5, 5), stride=(1, 1))
  (1): BatchNorm2d(6, eps=1e-05, momentum=0.1, affine=True, track_running_stats=True)
  (2): ReLU()
  (3): Conv2d(6, 8, kernel_size=(5, 5), stride=(1, 1))
  (4): BatchNorm2d(8, eps=1e-05, momentum=0.1, affine=True, track_running_stats=True)
  (5): ReLU()
  (6): Conv2d(8, 9, kernel_size=(5, 5), stride=(1, 1))
  (7): BatchNorm2d(9, eps=1e-05, momentum=0.1, affine=True, track_running_stats=True)
  (8): ReLU()
  (9): Conv2d(9, 54, kernel_size=(3, 3), stride=(1, 1))
  (10): BatchNorm2d(54, eps=1e-05, momentum=0.1, affine=True, track_running_stats=True)
  (11): ReLU()
  (12): Conv2d(54, 216, kernel_size=(2, 2), stride=(1, 1))
  (13): BatchNorm2d(216, eps=1e-05, momentum=0.1, affine=True, track_running_stats=True)
  (14): Flatten(start_dim=1, end_dim=-1)
)
Task: Training Epoch @ 0 L: 0.042878 M: 0.067842 S: 0.401039 -- Last: L: 0.033002 M: 0.008656 S: 0.357071 -- V2LR: Epoch M: 0.908401 Last M: 1.193995
Task: Validation Epoch @ 0 L: 0.043767 M: 0.079390 S: 0.398094 -- Last: L: 0.047798 M: 0.001515 S: 0.529408 -- V2LR: Epoch M: 4.887243 Last M: 0.119846
…
Digging!! Task: Training Epoch @ 3 L: 0.031881 M: 0.077461 S: 0.268169 -- Last: L: 0.023511 M: 0.016652 S: 0.242730 -- V2LR: Epoch M: 3.690773 Last M: 3.724403
Digging!! Task: Training Epoch @ 3 L: 0.031813 M: 0.077562 S: 0.267293 -- Last: L: 0.023513 M: 0.016742 S: 0.242651 -- V2LR: Epoch M: 3.718406 Last M: 3.746807
Task: Testing Epoch @ 0 L: 0.040078 M: 0.078885 S: 0.357661 -- Last: L: 0.063784 M: 0.208291 S: 0.477276 -- V2LR: Epoch M: 4.028413 Last M: 1.630713
written to: ./models/v2lr/1.3.x1.20231207121106_v2lr.pt
written to: ./results/loss_tracker_v2lr.csv
Elapsed time: 6164.444454193115 seconds.
alpha 0.1
Reconstructor from: ./models/img/14.2.1.retraining.2.20231130014311_img.pt
Sequential(
  (0): Conv2d(1, 6, kernel_size=(5, 5), stride=(1, 1))
  (1): BatchNorm2d(6, eps=1e-05, momentum=0.1, affine=True, track_running_stats=True)
  (2): ReLU()
  (3): Conv2d(6, 8, kernel_size=(5, 5), stride=(1, 1))
  (4): BatchNorm2d(8, eps=1e-05, momentum=0.1, affine=True, track_running_stats=True)
  (5): ReLU()
  (6): Conv2d(8, 9, kernel_size=(5, 5), stride=(1, 1))
  (7): BatchNorm2d(9, eps=1e-05, momentum=0.1, affine=True, track_running_stats=True)
  (8): ReLU()
  (9): Conv2d(9, 72, kernel_size=(3, 3), stride=(1, 1))
  (10): BatchNorm2d(72, eps=1e-05, momentum=0.1, affine=True, track_running_stats=True)
  (11): ReLU()
  (12): Conv2d(72, 216, kernel_size=(2, 2), stride=(1, 1))
  (13): BatchNorm2d(216, eps=1e-05, momentum=0.1, affine=True, track_running_stats=True)
  (14): Flatten(start_dim=1, end_dim=-1)
)
Task: Training Epoch @ 0 L: 0.042305 M: 0.067752 S: 0.394771 -- Last: L: 0.031600 M: 0.008155 S: 0.342053 -- V2LR: Epoch M: 1.010736 Last M: 1.398077
Task: Validation Epoch @ 0 L: 0.038667 M: 0.086801 S: 0.333193 -- Last: L: 0.012903 M: 0.014144 S: 0.127648 -- V2LR: Epoch M: 7.480063 Last M: 5.210211
…
Digging!! Task: Training Epoch @ 0 L: 0.032031 M: 0.076128 S: 0.271309 -- Last: L: 0.023268 M: 0.015139 S: 0.241715 -- V2LR: Epoch M: 3.832629 Last M: 3.870395
Digging!! Task: Training Epoch @ 0 L: 0.031958 M: 0.076243 S: 0.270374 -- Last: L: 0.023256 M: 0.015192 S: 0.241519 -- V2LR: Epoch M: 3.864328 Last M: 3.879128
Task: Testing Epoch @ 0 L: 0.038399 M: 0.083259 S: 0.334141 -- Last: L: 0.062436 M: 0.204973 S: 0.465985 -- V2LR: Epoch M: 7.050367 Last M: 0.973242
written to: ./models/v2lr/1.3.x1.20231207135350_v2lr.pt
written to: ./results/loss_tracker_v2lr.csv
Elapsed time: 6213.641564130783 seconds.
alpha 0.1
Reconstructor from: ./models/img/14.2.1.retraining.2.20231130014311_img.pt
Sequential(
  (0): Conv2d(1, 6, kernel_size=(5, 5), stride=(1, 1))
  (1): BatchNorm2d(6, eps=1e-05, momentum=0.1, affine=True, track_running_stats=True)
  (2): ReLU()
  (3): Conv2d(6, 8, kernel_size=(5, 5), stride=(1, 1))
  (4): BatchNorm2d(8, eps=1e-05, momentum=0.1, affine=True, track_running_stats=True)
  (5): ReLU()
  (6): Conv2d(8, 9, kernel_size=(5, 5), stride=(1, 1))
  (7): BatchNorm2d(9, eps=1e-05, momentum=0.1, affine=True, track_running_stats=True)
  (8): ReLU()
  (9): Conv2d(9, 108, kernel_size=(3, 3), stride=(1, 1))
  (10): BatchNorm2d(108, eps=1e-05, momentum=0.1, affine=True, track_running_stats=True)
  (11): ReLU()
  (12): Conv2d(108, 216, kernel_size=(2, 2), stride=(1, 1))
  (13): BatchNorm2d(216, eps=1e-05, momentum=0.1, affine=True, track_running_stats=True)
  (14): Flatten(start_dim=1, end_dim=-1)
)
Task: Training Epoch @ 0 L: 0.041665 M: 0.067727 S: 0.387689 -- Last: L: 0.031800 M: 0.008446 S: 0.343946 -- V2LR: Epoch M: 1.012206 Last M: 1.425499
Task: Validation Epoch @ 0 L: 0.039722 M: 0.086142 S: 0.345641 -- Last: L: 0.038214 M: 0.001699 S: 0.422711 -- V2LR: Epoch M: 6.531072 Last M: 0.163044
…
Digging!! Task: Training Epoch @ 0 L: 0.032756 M: 0.075503 S: 0.280064 -- Last: L: 0.023529 M: 0.015283 S: 0.244455 -- V2LR: Epoch M: 3.577686 Last M: 3.835381
Digging!! Task: Training Epoch @ 0 L: 0.032100 M: 0.076304 S: 0.271885 -- Last: L: 0.023465 M: 0.015435 S: 0.243568 -- V2LR: Epoch M: 3.837251 Last M: 3.883565
Task: Testing Epoch @ 0 L: 0.039712 M: 0.090207 S: 0.341013 -- Last: L: 0.062208 M: 0.203480 S: 0.465115 -- V2LR: Epoch M: 8.768949 Last M: 0.114101
written to: ./models/v2lr/1.3.x1.20231207153724_v2lr.pt
written to: ./results/loss_tracker_v2lr.csv
Elapsed time: 6246.761848926544 seconds.
alpha 0.1
Reconstructor from: ./models/img/14.2.1.retraining.2.20231130014311_img.pt
Sequential(
  (0): Conv2d(1, 6, kernel_size=(5, 5), stride=(1, 1))
  (1): BatchNorm2d(6, eps=1e-05, momentum=0.1, affine=True, track_running_stats=True)
  (2): ReLU()
  (3): Conv2d(6, 8, kernel_size=(5, 5), stride=(1, 1))
  (4): BatchNorm2d(8, eps=1e-05, momentum=0.1, affine=True, track_running_stats=True)
  (5): ReLU()
  (6): Conv2d(8, 12, kernel_size=(5, 5), stride=(1, 1))
  (7): BatchNorm2d(12, eps=1e-05, momentum=0.1, affine=True, track_running_stats=True)
  (8): ReLU()
  (9): Conv2d(12, 18, kernel_size=(3, 3), stride=(1, 1))
  (10): BatchNorm2d(18, eps=1e-05, momentum=0.1, affine=True, track_running_stats=True)
  (11): ReLU()
  (12): Conv2d(18, 216, kernel_size=(2, 2), stride=(1, 1))
  (13): BatchNorm2d(216, eps=1e-05, momentum=0.1, affine=True, track_running_stats=True)
  (14): Flatten(start_dim=1, end_dim=-1)
)
Task: Training Epoch @ 0 L: 0.043021 M: 0.067474 S: 0.403040 -- Last: L: 0.033220 M: 0.007526 S: 0.360747 -- V2LR: Epoch M: 0.882818 Last M: 1.153507
Task: Validation Epoch @ 0 L: 0.041235 M: 0.096808 S: 0.350599 -- Last: L: 0.045874 M: 0.001518 S: 0.508019 -- V2LR: Epoch M: 11.162863 Last M: 0.107801
…
Digging!! Task: Training Epoch @ 0 L: 0.032278 M: 0.076398 S: 0.273757 -- Last: L: 0.022957 M: 0.015335 S: 0.238042 -- V2LR: Epoch M: 3.881636 Last M: 3.893286
Digging!! Task: Training Epoch @ 0 L: 0.032263 M: 0.076404 S: 0.273585 -- Last: L: 0.022999 M: 0.015385 S: 0.238454 -- V2LR: Epoch M: 3.894039 Last M: 3.906296
Task: Testing Epoch @ 0 L: 0.039722 M: 0.083112 S: 0.349013 -- Last: L: 0.062480 M: 0.204347 S: 0.467166 -- V2LR: Epoch M: 6.714252 Last M: 0.332221
written to: ./models/v2lr/1.3.x1.20231207172131_v2lr.pt
written to: ./results/loss_tracker_v2lr.csv
Elapsed time: 6186.035240888596 seconds.
alpha 0.1
Reconstructor from: ./models/img/14.2.1.retraining.2.20231130014311_img.pt
Sequential(
  (0): Conv2d(1, 6, kernel_size=(5, 5), stride=(1, 1))
  (1): BatchNorm2d(6, eps=1e-05, momentum=0.1, affine=True, track_running_stats=True)
  (2): ReLU()
  (3): Conv2d(6, 8, kernel_size=(5, 5), stride=(1, 1))
  (4): BatchNorm2d(8, eps=1e-05, momentum=0.1, affine=True, track_running_stats=True)
  (5): ReLU()
  (6): Conv2d(8, 12, kernel_size=(5, 5), stride=(1, 1))
  (7): BatchNorm2d(12, eps=1e-05, momentum=0.1, affine=True, track_running_stats=True)
  (8): ReLU()
  (9): Conv2d(12, 27, kernel_size=(3, 3), stride=(1, 1))
  (10): BatchNorm2d(27, eps=1e-05, momentum=0.1, affine=True, track_running_stats=True)
  (11): ReLU()
  (12): Conv2d(27, 216, kernel_size=(2, 2), stride=(1, 1))
  (13): BatchNorm2d(216, eps=1e-05, momentum=0.1, affine=True, track_running_stats=True)
  (14): Flatten(start_dim=1, end_dim=-1)
)
Task: Training Epoch @ 0 L: 0.045433 M: 0.066497 S: 0.430927 -- Last: L: 0.039611 M: 0.005836 S: 0.433639 -- V2LR: Epoch M: 0.674475 Last M: 0.731239
Task: Validation Epoch @ 0 L: 0.043369 M: 0.073838 S: 0.399833 -- Last: L: 0.046339 M: 0.001515 S: 0.513190 -- V2LR: Epoch M: 3.186933 Last M: 0.134227
…
Digging!! Task: Training Epoch @ 1 L: 0.032806 M: 0.073760 S: 0.282554 -- Last: L: 0.024576 M: 0.012926 S: 0.258702 -- V2LR: Epoch M: 4.150708 Last M: 4.158582
Digging!! Task: Training Epoch @ 1 L: 0.032795 M: 0.073740 S: 0.282450 -- Last: L: 0.024631 M: 0.012977 S: 0.259258 -- V2LR: Epoch M: 4.144276 Last M: 4.181541
Task: Testing Epoch @ 0 L: 0.039410 M: 0.112146 S: 0.313281 -- Last: L: 0.062300 M: 0.204000 S: 0.465559 -- V2LR: Epoch M: 25.056113 Last M: 0.327620
written to: ./models/v2lr/1.3.x1.20231207190437_v2lr.pt
written to: ./results/loss_tracker_v2lr.csv
Elapsed time: 6153.501234769821 seconds.
alpha 0.1
Reconstructor from: ./models/img/14.2.1.retraining.2.20231130014311_img.pt
Sequential(
  (0): Conv2d(1, 6, kernel_size=(5, 5), stride=(1, 1))
  (1): BatchNorm2d(6, eps=1e-05, momentum=0.1, affine=True, track_running_stats=True)
  (2): ReLU()
  (3): Conv2d(6, 8, kernel_size=(5, 5), stride=(1, 1))
  (4): BatchNorm2d(8, eps=1e-05, momentum=0.1, affine=True, track_running_stats=True)
  (5): ReLU()
  (6): Conv2d(8, 12, kernel_size=(5, 5), stride=(1, 1))
  (7): BatchNorm2d(12, eps=1e-05, momentum=0.1, affine=True, track_running_stats=True)
  (8): ReLU()
  (9): Conv2d(12, 36, kernel_size=(3, 3), stride=(1, 1))
  (10): BatchNorm2d(36, eps=1e-05, momentum=0.1, affine=True, track_running_stats=True)
  (11): ReLU()
  (12): Conv2d(36, 216, kernel_size=(2, 2), stride=(1, 1))
  (13): BatchNorm2d(216, eps=1e-05, momentum=0.1, affine=True, track_running_stats=True)
  (14): Flatten(start_dim=1, end_dim=-1)
)
Task: Training Epoch @ 0 L: 0.045278 M: 0.066950 S: 0.428697 -- Last: L: 0.040163 M: 0.006861 S: 0.438636 -- V2LR: Epoch M: 0.739479 Last M: 0.827513
Task: Validation Epoch @ 0 L: 0.044694 M: 0.099625 S: 0.385902 -- Last: L: 0.024472 M: 0.003996 S: 0.267471 -- V2LR: Epoch M: 11.610444 Last M: 1.022923
…
Digging!! Task: Training Epoch @ 25 L: 0.031710 M: 0.078718 S: 0.264868 -- Last: L: 0.022419 M: 0.017997 S: 0.229106 -- V2LR: Epoch M: 3.469317 Last M: 3.555364
Digging!! Task: Training Epoch @ 25 L: 0.031343 M: 0.079161 S: 0.260300 -- Last: L: 0.022446 M: 0.018119 S: 0.229266 -- V2LR: Epoch M: 3.579882 Last M: 3.583631
Task: Testing Epoch @ 0 L: 0.044713 M: 0.117957 S: 0.365744 -- Last: L: 0.062277 M: 0.203443 S: 0.465921 -- V2LR: Epoch M: 11.537145 Last M: 0.061168
written to: ./models/v2lr/1.3.x1.20231207204710_v2lr.pt
written to: ./results/loss_tracker_v2lr.csv
Elapsed time: 6214.137223005295 seconds.
alpha 0.1
Reconstructor from: ./models/img/14.2.1.retraining.2.20231130014311_img.pt
Sequential(
  (0): Conv2d(1, 6, kernel_size=(5, 5), stride=(1, 1))
  (1): BatchNorm2d(6, eps=1e-05, momentum=0.1, affine=True, track_running_stats=True)
  (2): ReLU()
  (3): Conv2d(6, 8, kernel_size=(5, 5), stride=(1, 1))
  (4): BatchNorm2d(8, eps=1e-05, momentum=0.1, affine=True, track_running_stats=True)
  (5): ReLU()
  (6): Conv2d(8, 12, kernel_size=(5, 5), stride=(1, 1))
  (7): BatchNorm2d(12, eps=1e-05, momentum=0.1, affine=True, track_running_stats=True)
  (8): ReLU()
  (9): Conv2d(12, 54, kernel_size=(3, 3), stride=(1, 1))
  (10): BatchNorm2d(54, eps=1e-05, momentum=0.1, affine=True, track_running_stats=True)
  (11): ReLU()
  (12): Conv2d(54, 216, kernel_size=(2, 2), stride=(1, 1))
  (13): BatchNorm2d(216, eps=1e-05, momentum=0.1, affine=True, track_running_stats=True)
  (14): Flatten(start_dim=1, end_dim=-1)
)
Task: Training Epoch @ 0 L: 0.043067 M: 0.067192 S: 0.403859 -- Last: L: 0.036276 M: 0.007267 S: 0.394993 -- V2LR: Epoch M: 0.860109 Last M: 1.050318
Task: Validation Epoch @ 0 L: 0.041681 M: 0.074812 S: 0.379994 -- Last: L: 0.022751 M: 0.003502 S: 0.248898 -- V2LR: Epoch M: 2.113239 Last M: 1.241285
…
Digging!! Task: Training Epoch @ 9 L: 0.032123 M: 0.076597 S: 0.271809 -- Last: L: 0.023497 M: 0.015700 S: 0.243631 -- V2LR: Epoch M: 3.833929 Last M: 3.868824
Digging!! Task: Training Epoch @ 9 L: 0.031931 M: 0.076766 S: 0.269493 -- Last: L: 0.023422 M: 0.015777 S: 0.242717 -- V2LR: Epoch M: 3.891779 Last M: 3.893890
Task: Testing Epoch @ 0 L: 0.040596 M: 0.117255 S: 0.320786 -- Last: L: 0.054649 M: 0.272829 S: 0.304073 -- V2LR: Epoch M: 20.133438 Last M: 27.449432
written to: ./models/v2lr/1.3.x1.20231207223044_v2lr.pt
written to: ./results/loss_tracker_v2lr.csv
Elapsed time: 6193.796486854553 seconds.
alpha 0.1
Reconstructor from: ./models/img/14.2.1.retraining.2.20231130014311_img.pt
Sequential(
  (0): Conv2d(1, 6, kernel_size=(5, 5), stride=(1, 1))
  (1): BatchNorm2d(6, eps=1e-05, momentum=0.1, affine=True, track_running_stats=True)
  (2): ReLU()
  (3): Conv2d(6, 8, kernel_size=(5, 5), stride=(1, 1))
  (4): BatchNorm2d(8, eps=1e-05, momentum=0.1, affine=True, track_running_stats=True)
  (5): ReLU()
  (6): Conv2d(8, 12, kernel_size=(5, 5), stride=(1, 1))
  (7): BatchNorm2d(12, eps=1e-05, momentum=0.1, affine=True, track_running_stats=True)
  (8): ReLU()
  (9): Conv2d(12, 72, kernel_size=(3, 3), stride=(1, 1))
  (10): BatchNorm2d(72, eps=1e-05, momentum=0.1, affine=True, track_running_stats=True)
  (11): ReLU()
  (12): Conv2d(72, 216, kernel_size=(2, 2), stride=(1, 1))
  (13): BatchNorm2d(216, eps=1e-05, momentum=0.1, affine=True, track_running_stats=True)
  (14): Flatten(start_dim=1, end_dim=-1)
)
Task: Training Epoch @ 0 L: 0.042403 M: 0.067833 S: 0.395774 -- Last: L: 0.033199 M: 0.008706 S: 0.359209 -- V2LR: Epoch M: 0.922904 Last M: 1.205511
Task: Validation Epoch @ 0 L: 0.041575 M: 0.074220 S: 0.379482 -- Last: L: 0.026785 M: 0.002802 S: 0.294498 -- V2LR: Epoch M: 1.882831 Last M: 0.462780
…
Task: Training Epoch @ 197 L: 0.030590 M: 0.076932 S: 0.254407 -- Last: L: 0.021872 M: 0.015941 S: 0.225314 -- V2LR: Epoch M: 3.806613 Last M: 3.816883
Task: Validation Epoch @ 0 L: 0.034429 M: 0.111682 S: 0.258456 -- Last: L: 0.017081 M: 0.144620 S: 0.029101 -- V2LR: Epoch M: 15.029425 Last M: 49.539841
Task: Testing Epoch @ 0 L: 0.033645 M: 0.109735 S: 0.251903 -- Last: L: 0.052877 M: 0.288942 S: 0.266473 -- V2LR: Epoch M: 15.118831 Last M: 29.772451
written to: ./models/v2lr/1.3.x1.20231208001358_v2lr.pt
written to: ./results/loss_tracker_v2lr.csv
Elapsed time: 6247.621879339218 seconds.
alpha 0.1
Reconstructor from: ./models/img/14.2.1.retraining.2.20231130014311_img.pt
Sequential(
  (0): Conv2d(1, 6, kernel_size=(5, 5), stride=(1, 1))
  (1): BatchNorm2d(6, eps=1e-05, momentum=0.1, affine=True, track_running_stats=True)
  (2): ReLU()
  (3): Conv2d(6, 8, kernel_size=(5, 5), stride=(1, 1))
  (4): BatchNorm2d(8, eps=1e-05, momentum=0.1, affine=True, track_running_stats=True)
  (5): ReLU()
  (6): Conv2d(8, 12, kernel_size=(5, 5), stride=(1, 1))
  (7): BatchNorm2d(12, eps=1e-05, momentum=0.1, affine=True, track_running_stats=True)
  (8): ReLU()
  (9): Conv2d(12, 108, kernel_size=(3, 3), stride=(1, 1))
  (10): BatchNorm2d(108, eps=1e-05, momentum=0.1, affine=True, track_running_stats=True)
  (11): ReLU()
  (12): Conv2d(108, 216, kernel_size=(2, 2), stride=(1, 1))
  (13): BatchNorm2d(216, eps=1e-05, momentum=0.1, affine=True, track_running_stats=True)
  (14): Flatten(start_dim=1, end_dim=-1)
)
Task: Training Epoch @ 0 L: 0.043833 M: 0.067371 S: 0.412180 -- Last: L: 0.035049 M: 0.007288 S: 0.381338 -- V2LR: Epoch M: 0.815093 Last M: 0.935781
Task: Validation Epoch @ 0 L: 0.043414 M: 0.072381 S: 0.401949 -- Last: L: 0.044870 M: 0.001685 S: 0.496678 -- V2LR: Epoch M: 1.543351 Last M: 0.128459
…
Digging!! Task: Training Epoch @ 0 L: 0.033541 M: 0.075628 S: 0.288646 -- Last: L: 0.024299 M: 0.014958 S: 0.253366 -- V2LR: Epoch M: 3.546390 Last M: 3.673897
Digging!! Task: Training Epoch @ 0 L: 0.033962 M: 0.075319 S: 0.293670 -- Last: L: 0.025315 M: 0.015079 S: 0.264524 -- V2LR: Epoch M: 3.446605 Last M: 3.696148
Task: Testing Epoch @ 0 L: 0.043186 M: 0.070596 S: 0.401401 -- Last: L: 0.062243 M: 0.203671 S: 0.465286 -- V2LR: Epoch M: 1.650718 Last M: 0.115021
written to: ./models/v2lr/1.3.x1.20231208015806_v2lr.pt
written to: ./results/loss_tracker_v2lr.csv
Elapsed time: 6259.387161970139 seconds.
alpha 0.1
Reconstructor from: ./models/img/14.2.1.retraining.2.20231130014311_img.pt
Sequential(
  (0): Conv2d(1, 6, kernel_size=(5, 5), stride=(1, 1))
  (1): BatchNorm2d(6, eps=1e-05, momentum=0.1, affine=True, track_running_stats=True)
  (2): ReLU()
  (3): Conv2d(6, 8, kernel_size=(5, 5), stride=(1, 1))
  (4): BatchNorm2d(8, eps=1e-05, momentum=0.1, affine=True, track_running_stats=True)
  (5): ReLU()
  (6): Conv2d(8, 18, kernel_size=(5, 5), stride=(1, 1))
  (7): BatchNorm2d(18, eps=1e-05, momentum=0.1, affine=True, track_running_stats=True)
  (8): ReLU()
  (9): Conv2d(18, 27, kernel_size=(3, 3), stride=(1, 1))
  (10): BatchNorm2d(27, eps=1e-05, momentum=0.1, affine=True, track_running_stats=True)
  (11): ReLU()
  (12): Conv2d(27, 216, kernel_size=(2, 2), stride=(1, 1))
  (13): BatchNorm2d(216, eps=1e-05, momentum=0.1, affine=True, track_running_stats=True)
  (14): Flatten(start_dim=1, end_dim=-1)
)
Task: Training Epoch @ 0 L: 0.043028 M: 0.067383 S: 0.403223 -- Last: L: 0.033779 M: 0.007639 S: 0.366839 -- V2LR: Epoch M: 0.867648 Last M: 1.161894
Task: Validation Epoch @ 0 L: 0.040319 M: 0.089201 S: 0.348882 -- Last: L: 0.017531 M: 0.006660 S: 0.187385 -- V2LR: Epoch M: 8.268263 Last M: 1.978211
…
