1
2 cond 1,16_8,8_16,6,24,3
Importing finished!!
cuda is going to be used!!
Dataset loaded!! Length (train dataset) - 6880
----------------------------------------------------------------
        Layer (type)               Output Shape         Param #
================================================================
            Conv2d-1              [-1, 8, 8, 8]              80
              ReLU-2              [-1, 8, 8, 8]               0
            Conv2d-3             [-1, 16, 6, 6]           1,168
              ReLU-4             [-1, 16, 6, 6]               0
            Conv2d-5             [-1, 24, 3, 3]           3,480
              ReLU-6             [-1, 24, 3, 3]               0
           Flatten-7                  [-1, 216]               0
================================================================
Total params: 4,728
Trainable params: 4,728
Non-trainable params: 0
----------------------------------------------------------------
Input size (MB): 0.00
Forward/backward pass size (MB): 0.02
Params size (MB): 0.02
Estimated Total Size (MB): 0.04
----------------------------------------------------------------
None
Task: v2lr, Epoch:1, Loss:0.001766              		Task: InvProb, Epoch:1, Loss:0.000440
…
