2635041
1.3.1.b
1.3.1 Dropout for first time
Importing finished!!
cuda is going to be used!!
Dataset loaded!! Length (train dataset) - 19200
alpha 0.1
Reconstructor from: ./models/img/14.2.1.retraining.2.20231130014311_img.pt
Sequential(
  (0): Conv2d(1, 6, kernel_size=(5, 5), stride=(1, 1))
  (1): BatchNorm2d(6, eps=1e-05, momentum=0.1, affine=True, track_running_stats=True)
  (2): ReLU()
  (3): Dropout(p=0.3, inplace=False)
  (4): Conv2d(6, 18, kernel_size=(5, 5), stride=(1, 1))
  (5): BatchNorm2d(18, eps=1e-05, momentum=0.1, affine=True, track_running_stats=True)
  (6): ReLU()
  (7): Dropout(p=0.3, inplace=False)
  (8): Conv2d(18, 54, kernel_size=(5, 5), stride=(1, 1))
  (9): BatchNorm2d(54, eps=1e-05, momentum=0.1, affine=True, track_running_stats=True)
  (10): ReLU()
  (11): Dropout(p=0.3, inplace=False)
  (12): Conv2d(54, 108, kernel_size=(3, 3), stride=(1, 1))
  (13): BatchNorm2d(108, eps=1e-05, momentum=0.1, affine=True, track_running_stats=True)
  (14): ReLU()
  (15): Dropout(p=0.3, inplace=False)
  (16): Conv2d(108, 216, kernel_size=(2, 2), stride=(1, 1))
  (17): BatchNorm2d(216, eps=1e-05, momentum=0.1, affine=True, track_running_stats=True)
  (18): Flatten(start_dim=1, end_dim=-1)
)
Task: Training Epoch @ 000 L: 0.080659 M: 0.067150 S: 0.518686 -- Last: L: 0.073974 M: 0.006350 S: 0.514446 -- V2LR: Epoch M: 0.927860 Last M: 0.882922 !==! Task: Validation Epoch @ 000 L: 0.070284 M: 0.073244 S: 0.441635 -- Last: L: 0.052311 M: 0.004112 S: 0.364059 -- V2LR: Epoch M: 2.678770 Last M: 1.377077
…
