2635038
1.3.1.a
1.3.1 with scaled_to_input enabled
Importing finished!!
cuda is going to be used!!
Dataset loaded!! Length (train dataset) - 19200
alpha 0.1
Reconstructor from: ./models/img/14.2.1.retraining.2.20231130014311_img.pt
Sequential(
  (0): Conv2d(1, 6, kernel_size=(5, 5), stride=(1, 1))
  (1): BatchNorm2d(6, eps=1e-05, momentum=0.1, affine=True, track_running_stats=True)
  (2): ReLU()
  (3): Conv2d(6, 18, kernel_size=(5, 5), stride=(1, 1))
  (4): BatchNorm2d(18, eps=1e-05, momentum=0.1, affine=True, track_running_stats=True)
  (5): ReLU()
  (6): Conv2d(18, 54, kernel_size=(5, 5), stride=(1, 1))
  (7): BatchNorm2d(54, eps=1e-05, momentum=0.1, affine=True, track_running_stats=True)
  (8): ReLU()
  (9): Conv2d(54, 108, kernel_size=(3, 3), stride=(1, 1))
  (10): BatchNorm2d(108, eps=1e-05, momentum=0.1, affine=True, track_running_stats=True)
  (11): ReLU()
  (12): Conv2d(108, 216, kernel_size=(2, 2), stride=(1, 1))
  (13): BatchNorm2d(216, eps=1e-05, momentum=0.1, affine=True, track_running_stats=True)
  (14): Flatten(start_dim=1, end_dim=-1)
)
Task: Training Epoch @ 0 L: 0.107427 M: 0.188470 S: 0.984226 -- Last: L: 0.093542 M: 0.029192 S: 1.006922 -- V2LR: Epoch M: 0.993894 Last M: 0.978387 !==! Task: Validation Epoch @ 0 L: 0.116892 M: 0.282878 S: 0.984491 -- Last: L: 0.081154 M: 0.001748 S: 0.899774 -- V2LR: Epoch M: 2.585985 Last M: 0.320343
…
